dagger_models/model_3.pth (torch, 232098 bytes, 24 tensors)

conv1.weight f4 [4, 1, 5, 5]
000000 10 cb d0 3b 93 7a 1a 3e 98 92 33 be 69 b3 ae 3d
       0.006371863 0.15085821 -0.1753639 0.085303135
000010 1a ac ce 3d fe c1 2c 3e 12 df 23 be e1 83 19 3d
       0.100914195 0.16870877 -0.16003063 0.037479285
000020 49 12 a2 3d aa 8c 0d bd 2d f4 01 3e 8c 90 20 bd
       0.07913644 -0.034557976 0.12690802 -0.03920035
000030 b0 15 db bd ed e3 14 3e bd fe 0e be 65 a7 36 bd
       -0.10697496 0.14540072 -0.13964362 -0.044593234
000040 23 04 47 bd c6 2d 9a bc e3 7a 9d bd 08 bf 23 be
       -0.04858793 -0.018820655 -0.076894544 -0.15990841
000050 ce 39 4b be 7d fb 34 be 29 eb 20 3d 46 04 17 be
       -0.1984627 -0.1767406 0.039286766 -0.14747724
000060 7c e2 ff bd 70 79 1e be 69 0a 15 3e d8 ce 6e 3d
       -0.1249437 -0.15476012 0.14554752 0.05830273
000070 63 59 15 3e c4 13 e9 bd 5b a3 d1 bd 01 33 2f 3e
       0.1458488 -0.11380723 -0.10236236 0.171093
000080 32 5e e2 3d 56 52 08 be 53 88 64 bd c2 7a 31 3d
       0.110531226 -0.13312659 -0.05579407 0.04332996
000090 6f 82 9d 3c 33 be 4b 3e a2 44 79 3d da c5 34 be
       0.019227235 0.19896774 0.06085647 -0.176536
0000a0 95 a1 fb 3a c7 9b 03 3e 69 43 1a be 9a a4 20 3e
       0.0019197935 0.12852393 -0.15064777 0.1568779
0000b0 a6 95 9b 3d f1 94 86 bd 49 76 f3 bd cb 0f b0 bd
       0.075969025 -0.06571377 -0.118877955 -0.08596762
0000c0 05 59 04 3e 27 25 8b 3d 0d fe b4 3d ca 2e 14 3e
       0.12924583 0.067941956 0.08837519 0.14470974
0000d0 15 35 24 be 54 07 fe 3c 81 30 81 3c 5d 8f dd 3d
       -0.16035874 0.031009354 0.015770199 0.1081836
0000e0 4c 61 34 bc 72 bb 24 3d b5 05 84 bd d5 cf fd 3d
       -0.0110095255 0.040217824 -0.06446401 0.123931564
0000f0 c9 45 22 3e 06 ee e2 3d 86 54 69 bd 7f c0 e5 bd
       0.15846933 0.110805556 -0.056965373 -0.11218356
000100 55 09 da bc 93 b5 0b be 0c d2 b8 bd 88 64 0b 3e
       -0.026615778 -0.13643484 -0.09024438 0.13612568
000110 27 1f 04 bd cf 16 57 3d 7b c8 96 3d c5 af 29 be
       -0.03225627 0.052511986 0.07362457 -0.16570957
000120 10 7f 02 be 04 44 a5 3d 10 31 44 be d6 55 c0 ba
       -0.12743783 0.080696136 -0.19159341 -0.0014674019
000130 40 95 1e 3e f4 fb 52 bd 7d 8a 2b 3e 96 62 a4 3c
       0.15486622 -0.051509812 0.16752048 0.02006654
000140 59 e5 4a bd 25 d2 99 bd 78 5e 05 3e 8d b3 df 3d
       -0.04953513 -0.07510785 0.13024318 0.109229185
000150 00 d7 66 3d e3 27 1b be cb 3a 04 3e d2 04 23 be
       0.056357384 -0.15151934 0.12913053 -0.15919808
000160 cd d6 7d 3c 20 46 1f be 4c 99 e8 bd 16 bc d7 bc
       0.015493107 -0.15554094 -0.11357364 -0.026334804
000170 31 4e 40 3e 23 ea e3 bd 2b 79 e4 bd 45 69 e8 3d
       0.18779828 -0.111286424 -0.111559235 0.113482036
000180 6a 90 8e bd b1 ba 41 3e e6 72 2c be 11 27 36 bc
       -0.069611385 0.18918873 -0.16840705 -0.011117713

conv1.bias f4 [4]
000000 2d b4 21 be 63 89 d0 3d 0a 79 bf bd ed a1 2d bc
       -0.15791388 0.101824544 -0.09349258 -0.010597688

norm1.weight f4 [4]
000000 d2 28 80 3f a6 f0 7f 3f 32 c4 7f 3f 41 f0 7f 3f
       1.0012457 0.99976575 0.99908745 0.99975973

norm1.bias f4 [4]
000000 82 f8 88 3a 9c be 1e 3b d8 b6 96 b9 bb 46 db 39
       0.0010450038 0.0024222499 -0.0002874646 0.00041823633

norm1.running_mean f4 [4]
000000 d9 09 e4 c2 cd f6 64 42 fd dd bf bf 2e 4b 30 40
       -114.01923 57.241016 -1.498962 2.7545886

norm1.running_var f4 [4]
000000 2a a9 16 44 15 26 4b 43 d8 78 2b 42 b0 e5 16 42
       602.6432 203.14876 42.86801 37.724304

conv2.weight f4 [8, 4, 5, 5]
000000 d1 4f 9a bd 98 16 ed bc c8 5b 90 3d 79 83 17 3d
       -0.07534755 -0.028941438 0.07048756 0.036990616
000010 92 bb cf 3d 0b 7a ec bb 4e 22 92 bd 90 12 c2 3d
       0.10143198 -0.007216697 -0.07135449 0.09476197
000020 8e c8 60 3d 91 61 6f bd 88 bd a6 bd d7 c8 82 3d
       0.054878764 -0.058442656 -0.08141619 0.063859634
000030 8f 7d 45 39 e2 be 9b bc 2c 56 10 bd fb 0a bd bd
       0.00018834158 -0.019011918 -0.03523843 -0.0923061
000040 86 7d c6 bc ec 17 c9 3c dc a2 2a bd f6 6a 38 bd
       -0.024229776 0.02454754 -0.04165922 -0.04502388
000050 84 8b 3f bd d4 bd 3f bd 48 39 6b 3d 33 ad 6e 3d
       -0.04676391 -0.046811894 0.057427675 0.058270644
000060 26 c0 dd 3c d0 95 d3 3c 20 1b 59 bd 2a 11 2a 3d
       0.027069163 0.025828272 -0.053004384 0.041520275
000070 fb e0 85 bd 7f 6a 40 3d 69 03 31 3d c6 71 c8 bd
       -0.06537052 0.046976563 0.043216143 -0.097873256
000080 ea 97 4d bd 5d 3f 4c bc 88 0a c5 3c 71 61 a4 bd
       -0.050193705 -0.012466279 0.024052873 -0.08026398
000090 c2 67 00 bc 28 d5 3b bc e3 32 84 3d 35 9b 8f 3c
       -0.007837238 -0.011464395 0.06455018 0.017530063
0000a0 c2 8f 74 bd 27 fd 69 bc 72 e0 99 3c 08 c8 47 3d
       -0.05970741 -0.014281548 0.018783782 0.04877475
0000b0 8e fc 8b bd 8f 73 5c bd e1 a0 96 3d 54 da 65 bc
       -0.0683528 -0.053821143 0.07354904 -0.014029104
0000c0 29 a3 1d 3d 66 55 1a 3c 39 ec d7 3c 5e f8 62 3d
       0.03848568 0.009419775 0.026357757 0.055412643
0000d0 37 6c f9 bc b0 d5 e7 bc da fc 80 3c c2 4d 94 3d
       -0.030447109 -0.028300136 0.015745569 0.072413936
0000e0 c6 b7 73 bd bc 3b d3 3a b0 56 b3 3c 37 04 b2 3d
       -0.059501432 0.0016115825 0.021891922 0.0869221
0000f0 28 26 ca 3a c3 8f 73 bd c5 06 61 3d 9b 4f 6f bd
       0.0015422748 -0.059463274 0.054938097 -0.058425527
000100 62 0a 69 3d 42 76 e8 bc 7d 09 fa bb 90 6d 42 3a
       0.056894667 -0.028376702 -0.0076305256 0.0007416839
000110 71 0c 91 bd ff 2b 99 3d a2 71 34 3c 8d 63 95 3d
       -0.07082451 0.07479095 0.01101342 0.072943784
000120 d6 2a 8c bd b3 61 ea 3c 51 59 36 3a ee e6 8d bc
       -0.06844108 0.02861104 0.0006956058 -0.01732203
000130 50 91 c9 3d 7f b3 bd 3d a0 bd a5 bd a6 96 86 3d
       0.09842169 0.09262752 -0.08092809 0.06571703
000140 7c 51 8d 3b 31 e5 64 3c 67 06 53 bd 14 e9 1c 3c
       0.004312692 0.013970659 -0.051519778 0.0095770545
000150 40 50 ca bc 7f 6f ba 3d 92 5e 96 3d e5 a2 c2 3d
       -0.02469647 0.091032974 0.073422566 0.09503726
000160 15 b6 a5 3d f4 56 b0 bd b2 9b b7 3d 19 40 a2 3d
       0.0809137 -0.08610335 0.089652434 0.07922382
000170 72 3f a9 3d d4 d3 b8 3d 8a ad 98 3d 23 20 1d 3d
       0.08264054 0.09024778 0.07454975 0.038360726
000180 40 6f ba bd 36 04 64 bc 3c ab aa bc e4 f3 13 3d
       -0.091032505 -0.01391702 -0.020833604 0.036121264
000190 97 f2 43 bd 4d 12 2b 3d 42 e4 91 bc 85 ed 23 3d
       -0.047838774 0.0417655 -0.017809037 0.04002144
0001a0 9e 9b 90 bc 82 b1 f6 3c 29 48 80 3d 82 b2 9c bd
       -0.017652329 0.03011394 0.062637635 -0.07651235
0001b0 95 f1 95 3c 03 09 b4 bd f4 58 08 3d 13 a3 0f bd
       0.018303672 -0.08790781 0.033287957 -0.03506763
0001c0 5f 6f 7a bd 59 1b c5 3d 74 c7 4f 3c 21 6d 7a 3d
       -0.061141368 0.09624357 0.012681831 0.06113923
0001d0 d2 95 93 bd a8 29 39 3d 3f 45 bc bc d7 46 41 bc
       -0.0720631 0.045205742 -0.022982238 -0.011796675
0001e0 20 d9 9d bd 2e 5b cd 3d 0a 55 3f bd 09 39 94 3d
       -0.07707429 0.10027157 -0.04671196 0.07237441
0001f0 14 a0 0f bd 8f 04 b1 bd 57 f3 b3 bd 08 79 4a 3d
       -0.03506477 -0.086434476 -0.08786648 0.04943183
000200 d6 ec 7d bd 2a a7 ac 3d 2c 89 fd bb 5b 61 e8 3c
       -0.061993442 0.084303215 -0.0077372994 0.028366735
000210 d3 3e 0e bd 35 ea 6d bd ed 2d bb bd b2 e6 81 3d
       -0.034727883 -0.058084685 -0.09139619 0.0634283
000220 79 b0 c8 3d 04 b1 d2 bc df 94 e2 bc 80 0d 43 bd
       0.097992845 -0.025719173 -0.027658878 -0.047620296
000230 90 59 18 bd 7c e3 a3 3c a9 40 ca 3b 0b fd df 3b
       -0.03719479 0.020005934 0.006172259 0.006835585
000240 17 63 56 bc 6a 39 25 bd c8 cc 8b bd e5 81 ab 3d
       -0.013085148 -0.040337957 -0.06826168 0.08374385
000250 41 18 70 3d 36 20 96 3d 65 f7 1a 3c a9 23 ae bb
       0.05861688 0.073303625 0.0094583975 -0.0053143096
000260 58 59 1e bd 82 7b ea ba d8 cc af 3b b2 35 0e bd
       -0.038659424 -0.0017889591 0.0053649954 -0.034719177
000270 db 37 e4 bc c3 ed 72 bd 11 88 dc bc b3 29 f5 bc
       -0.027858665 -0.05930878 -0.02692035 -0.02992711
000280 85 16 a0 3d 77 94 ab bd e4 8c 90 bd 42 63 4a 3c
       0.07816795 -0.08377927 -0.07058123 0.0123527665
000290 08 5b 47 bd 2a 9c 59 3c 89 97 84 bc b1 11 af 3d
       -0.0486708 0.013281861 -0.016185539 0.08548296
0002a0 39 a7 a1 bd 7c e1 18 3d a6 53 10 3d f3 08 81 3d
       -0.07893223 0.037324414 0.035236023 0.06300535
0002b0 b3 7d 67 bb f2 41 55 3d 12 44 4d bd 08 8f a9 3d
       -0.0035322725 0.052064843 -0.050113745 0.08279234
0002c0 af ab ba bd b9 04 5e 3d a3 b9 9d bd 5d ab 40 3b
       -0.09114777 0.054203723 -0.07701423 0.0029399015
0002d0 83 5d 1f bd bc e8 1b bd dd eb 90 bb 0a ec 04 bd
       -0.03890754 -0.03806375 -0.0044226483 -0.032451667
0002e0 44 94 28 bb 95 bb 03 3d 7b 86 dd 3a 24 ec ee 3c
       -0.0025723139 0.032161314 0.001690104 0.029165335
0002f0 c1 81 64 3d 36 0d bb bd 6e 5b c3 3d d7 9e 7e bd
       0.055787805 -0.09133379 0.09538923 -0.0621632
000300 e4 3e 5b bc f0 49 20 bc 31 16 01 bd 79 5f 03 bc
       -0.0133816935 -0.009783253 -0.031515304 -0.008018368
000310 7e 03 c7 3c 48 21 16 3c be 50 c7 3d a9 ce c2 3c
       0.024293657 0.009163208 0.09732197 0.023780184
000320 c9 df ed 3c ab 0b 18 bd 7e af f3 bc ec f1 91 bc
       0.029037373 -0.037120502 -0.029746767 -0.017815553
000330 97 0f c0 bd 2c 86 95 bd 8b 17 3d bc eb b3 0c bc
       -0.093779735 -0.07300982 -0.011541258 -0.008587818
000340 4a 9a 95 bc cc 70 71 bc c4 79 c4 bd b1 3a eb 3c
       -0.018262047 -0.0147363655 -0.095935374 0.02871451
000350 ef 0d a3 3d 5e cd 5c 3d bd 4a a1 3d 4b 79 81 3d
       0.07961642 0.05390679 0.07875583 0.06321963
000360 0f 28 54 bd 5b 3a b0 bd 12 42 34 3d b5 f3 e2 3b
       -0.051796015 -0.086048804 0.044008322 0.006926025
000370 55 ce 0e bc 4d 17 5b bd d2 94 05 3d bc ff b3 bb
       -0.008716186 -0.05348902 0.03261263 -0.0054931324
000380 bf e1 a7 3d 41 77 8b 3d d8 0e 20 3d c2 db cf bd
       0.081973545 0.06809855 0.039076656 -0.10149337
000390 94 e2 82 bd e3 ba d4 3b 9c 00 29 3b 82 a0 a2 3b
       -0.063908726 0.006492005 0.0025787717 0.0049629817
0003a0 9f f6 99 3d 5e 1e b1 bd 81 80 27 3d 98 34 8e 3d
       0.07517742 -0.0864837 0.040894035 0.06943625
0003b0 78 2d bd 3c 65 63 75 bd 29 67 e2 bb 22 ae 33 3c
       0.02309297 -0.059909243 -0.0069092703 0.0109668095
0003c0 52 40 66 bd 95 4c c0 bc e6 2a 72 3d 55 ca 26 bd
       -0.056213684 -0.023474017 0.059122942 -0.040720303
0003d0 33 a8 64 bd 66 d6 59 3d 69 bc 3c 3d 37 ea a5 3d
       -0.05582447 0.053182982 0.04607812 0.081013136
0003e0 0a 21 c5 bd 5b b2 b5 bd fa c0 73 bd 3b 11 23 3d
       -0.09625442 -0.08871909 -0.05951021 0.039811354
0003f0 2f 81 1f 3d 8e c5 98 3d 3a fe 25 bd f8 bb 7f 3d
       0.03894156 0.074595556 -0.040525652 0.06243512

conv2.bias f4 [8]
000000 2a 47 66 bd e3 ea 37 bd bf 48 9c bd 37 d3 61 3d
       -0.05622021 -0.04490174 -0.07631063 0.05513307
000010 ea bc c7 bd 20 66 24 bd 0f 25 b0 bd b5 28 95 bd
       -0.097528294 -0.040136456 -0.08600818 -0.07283155

norm2.weight f4 [8]
000000 ff 1e 7f 3f fb 18 80 3f df db 7f 3f 0c 16 80 3f
       0.9965667 1.0007623 0.9994487 1.0006728
000010 21 49 80 3f 57 41 80 3f d7 d3 7f 3f d5 ab 7f 3f
       1.0022317 1.001994 0.99932617 0.9987157

norm2.bias f4 [8]
000000 be 7c 8a ba 7f 00 a6 b9 59 75 84 3a 54 05 1b 3a
       -0.001056574 -0.00031662357 0.0010105773 0.0005913575
000010 16 bf e5 39 fe 2f 02 3a 23 8f 7c b9 10 6b 2a ba
       0.00043820654 0.0004966258 -0.00024085915 -0.0006500939

norm2.running_mean f4 [8]
000000 e1 60 34 3e 46 f2 1b be ff d1 3d be fe a7 50 be
       0.17615081 -0.15229139 -0.18537138 -0.20376584
000010 f0 59 8d 3d 20 68 52 be f2 ad 68 bd 1c 86 da be
       0.0690192 -0.20547533 -0.056806512 -0.42680442

norm2.running_var f4 [8]
000000 a7 bd 7f 3e 4b e5 17 3e 33 35 32 3e 8d 78 02 3e
       0.2497469 0.14833562 0.17403106 0.12741299
000010 82 83 6c 3e 88 07 6d 3e d6 4d 67 3e 7b 79 77 3e
       0.23097041 0.23147404 0.22588286 0.24167435

conv3.weight f4 [16, 8, 6, 6]
000000 61 54 5b bd 0b 9a ff 3a cd a4 d6 3b 3c cd 10 bd
       -0.053547267 0.0019500864 0.0065504075 -0.035351977
000010 b7 48 27 bd f6 2a 69 3d 1d 85 ce bc 16 89 82 3c
       -0.04084083 0.056925736 -0.025209958 0.015934508
000020 06 21 46 ba 0a 16 0e 3d f4 ee 33 3c ba 4d 60 bc
       -0.00075580215 0.034688987 0.010982264 -0.013690406
000030 9c 62 1e bd d2 da c0 3c 10 2c 3e bd fe 46 67 bd
       -0.03866826 0.023541842 -0.04642874 -0.056464188
000040 07 54 33 bd 45 8b e0 bc 55 4a 0c 3d 81 f1 19 3c
       -0.043781307 -0.027410159 0.034250576 0.009395958
000050 f1 63 99 b9 c2 78 65 bd d8 8c 02 3d 0e 8d f9 bc
       -0.00029256896 -0.056023367 0.0318726 -0.030462768
000060 d5 ce 49 3d 81 db 9e bc 8e 10 02 bd dc 06 85 3c
       0.049269516 -0.019391777 -0.03175407 0.016238622
000070 d2 08 65 3c 61 2f 91 bc f8 98 4f 3d c2 72 97 3c
       0.013979154 -0.017722787 0.05068299 0.018487338
000080 3b 59 f9 bc d4 2c 21 bd c0 1c 89 bc 75 e0 d5 bc
       -0.030438056 -0.039349392 -0.016737342 -0.026108006
000090 2d 92 d6 bc 0d 4d e3 3b 47 5f 4a bc 80 42 06 bd
       -0.026192749 0.0069366754 -0.012351817 -0.032778263
0000a0 6a 26 3a 3d 64 98 b5 3c 88 f0 b5 bc 00 43 9b 3c
       0.04544679 0.022167392 -0.02220942 0.018952847
0000b0 b0 9d 63 3d 6e 2e 12 3d 90 24 35 3d d4 f6 1e bc
       0.055570304 0.03568881 0.04422432 -0.009702403
0000c0 f8 38 58 3d 0d 00 5c 3d 9c b6 a6 3c 4d 2b 4e bc
       0.052788705 0.053710986 0.020350747 -0.012583566
0000d0 0f 8f 16 bd 10 53 7b 3c c6 81 fe bc 7c 8e 18 3d
       -0.036757525 0.015339628 -0.03106774 0.03724526
0000e0 c7 eb 66 3d 0c 74 63 bd 2a 15 0b bd 00 ce 2b bc
       0.0563772 -0.055530593 -0.03395573 -0.010486126
0000f0 97 ef 19 bc ea 95 22 bd 17 37 6e 3d 45 e4 dc 3c
       -0.009395502 -0.03969375 0.058158007 0.026964316
000100 9a 5f 18 3c e0 b8 35 bd 19 a9 8e bc 45 7b f4 bc
       0.009300137 -0.044365764 -0.017414616 -0.029843936
000110 76 43 71 3c 2c c5 c6 3c 33 63 63 bd 79 e1 2b bd
       0.014725557 0.02426394 -0.055514526 -0.041963074
000120 64 92 4a bd 65 c3 c4 3c e3 52 0e 3b a8 4d 05 3d
       -0.049456015 0.024018953 0.0021716885 0.032544762
000130 ec 84 7b 3c fd a8 ba bc 71 2d 3c 3d 14 14 5b bd
       0.015351515 -0.022785658 0.045941774 -0.053485945
000140 d6 d5 06 bd bd 75 25 3d 99 ac ce bc fb fc 60 bd
       -0.032918774 0.040395487 -0.025228785 -0.05492876
000150 bb b6 49 bd b7 b3 06 bd 22 16 a2 3c 88 d2 40 3d
       -0.04924653 -0.032886233 0.019785944 0.04707578
000160 42 d4 61 bd 35 56 cd bc 9d fa 19 bd 83 24 59 bd
       -0.055134065 -0.02506552 -0.03759252 -0.053013336
000170 e7 20 26 bd 31 3d a1 ba 11 c1 75 3d f2 db 4c bb
       -0.040558722 -0.0012301562 0.059998576 -0.0031259027
000180 59 22 09 3d ab 35 01 bd a5 2c c0 3b fe 5e 3d bd
       0.033480022 -0.031545322 0.005864697 -0.04623317
000190 84 01 81 3b c5 2c 15 bc 24 c1 6f 3d 35 a7 05 bd
       0.0039369483 -0.009104912 0.058533803 -0.032630164
0001a0 c8 e9 45 bd 8b e6 2a bd 4f 95 01 bd 90 ae ed 3c
       -0.048318654 -0.04172377 -0.031636532 0.029013902
0001b0 8d 20 33 bd ba f7 5c bd 62 50 56 3d f4 f7 71 3c
       -0.043732215 -0.053947188 0.052322753 0.014768589
0001c0 f9 62 79 3b 00 88 02 3d 65 2c b6 bc bc a2 31 bd
       0.0038053377 0.03186798 -0.022237966 -0.043368086
0001d0 9d 46 f7 3b bc 73 1e 3d 4e 88 f1 3b 35 3a a9 bc
       0.0075462596 0.03868459 0.007370985 -0.020657638
0001e0 55 8c 29 bd 08 ce 40 3c 3d 8b 2b bc 95 32 50 3d
       -0.041393597 0.011767872 -0.010470209 0.05082949
0001f0 26 4f ff bc 47 1a b8 3c 7b a9 67 3d db 01 4b bd
       -0.03116567 0.022473468 0.056558114 -0.049562316
000200 e8 07 f1 bb 84 af 8b 39 6b dc 42 bc 0c f5 35 bd
       -0.007355679 0.00026642915 -0.011893372 -0.044423148
000210 34 26 e0 3c 9c f6 5d 3c 7d b1 0d 3d 30 a1 ef 3b
       0.027361967 0.013547566 0.034593094 0.007312916
000220 e5 0c 11 3d f4 0a 09 bc 3b 6f c6 3b 2d e2 0b bd
       0.035412688 -0.008364428 0.00605574 -0.034151245
000230 6c a2 86 bb 06 69 67 bd e0 8b 25 bc 34 ff f2 ba
       -0.0041087177 -0.056496643 -0.01010415 -0.0018539191
000240 45 38 cc 3c d5 33 44 3c a7 86 1f 3d 8d 62 5c bd
       0.024929175 0.011975248 0.038946774 -0.053804923
000250 ff 0a 54 bd a3 06 d2 3b 52 f1 a2 bc 0b 75 59 bd
       -0.0517683 0.0064094826 -0.019890461 -0.053090136
000260 bc 4a 14 bd d6 1b 35 3d 18 ef fc bb 55 c3 64 bd
       -0.036204085 0.044216 -0.007718932 -0.055850346
000270 5f dc 18 3d e3 13 00 bc a0 cc a6 3b f8 7d 66 3d
       0.037319537 -0.007817241 0.005090311 0.056272477
000280 f4 5f cf bb 8c ad 6a bd 26 16 0a 3d 68 be bc 3c
       -0.006328577 -0.057294413 0.03371253 0.023040012
000290 5d aa 31 3d 60 68 07 bd c1 41 60 3d e2 4e f3 3c
       0.04337536 -0.033058524 0.054750208 0.0297007
0002a0 bc 99 96 3c bc 32 a3 3c b7 f5 18 bd bf f6 2b bd
       0.018383853 0.019921653 -0.037343707 -0.041983362
0002b0 58 fa ee bc e5 44 9e 3c 2b b3 f5 3c 30 7b 5a bd
       -0.029172108 0.01931996 0.02999266 -0.053340137
0002c0 e5 bb 0b 3d 34 80 e0 3c da 8d 2c bd 97 c0 23 bd
       0.034114737 0.027404882 -0.042127468 -0.03997859
0002d0 ce f3 95 3c 93 e0 2d 3d cb 35 74 bc 34 d8 fd bc
       0.018304732 0.0424505 -0.014905403 -0.030986883
0002e0 9e 85 43 3d f3 21 9d bc 68 09 19 bd ec c9 0d bd
       0.04773485 -0.019181227 -0.037362486 -0.034616396
0002f0 46 36 82 3a 5e 23 d5 bb a4 d6 71 3d 21 c9 2d 3d
       0.0009934388 -0.0065044602 0.059042588 0.04242814
000300 5f e3 13 3d a2 1a df 3a 45 7e 2c bc 52 d7 45 bd
       0.03610551 0.0017021487 -0.010528152 -0.04830105
000310 83 aa 40 bc 35 41 97 3c 9a 5f 9c bc 96 02 c2 3c
       -0.011759403 0.01846371 -0.019088555 0.023682874
000320 68 a3 9d bc 47 43 07 bc e6 f8 95 3c b3 7f 9f bc
       -0.019242957 -0.008255786 0.01830716 -0.019470071
000330 ed 81 8f bb 60 fe 2d 3d d5 be 39 bb b3 cf 25 3d
       -0.004379502 0.04247892 -0.0028342505 0.04048128
000340 50 10 0e 3d c5 dd 1e 3d 53 18 5d 3d bf 93 5c 3b
       0.034683526 0.038785715 0.053978276 0.00336574
000350 2d 57 ee 3c e9 e1 34 3d 80 83 72 3d 34 90 29 bd
       0.029094303 0.044160757 0.05920744 -0.04139729
000360 83 da 59 bd 28 69 66 bd d4 5d c5 bc b6 c8 2c 3c
       -0.053186905 -0.05625263 -0.024092592 0.0105459
000370 bb 7a 24 bd 14 3c c7 bb b0 e1 10 3d 4e ff 96 3c
       -0.040156107 -0.00608016 0.035371482 0.018432286
000380 b5 21 31 3d d2 e2 b6 bc fb 4b 6e 3d d4 e8 12 3d
       0.043245036 -0.022324953 0.05817793 0.035866573
000390 69 17 3d bd 34 bf c3 bc 48 85 1a bc f3 3b 32 3d
       -0.046164904 -0.023894884 -0.009431191 0.043514203
0003a0 bb e3 4a bc 79 b3 36 3d 3f 5b a4 3b 90 05 10 bd
       -0.012383397 0.044604752 0.00501576 -0.035161555
0003b0 02 bb 40 bc f7 ca 94 bc df a0 7c 3c 3c a3 c0 3c
       -0.011763336 -0.018163187 0.015419214 0.023515336
0003c0 d2 95 22 3c 32 f9 21 3d 80 41 14 bd c1 b3 4b bd
       0.009923415 0.03954429 -0.03619528 -0.049731974
0003d0 89 90 df 3c 13 e9 03 3c ee 52 4d bd 5a 63 99 3c
       0.0272906 0.008051175 -0.050127916 0.018724132
0003e0 58 7d cf 3c f5 80 b4 3b 72 e0 55 bd 15 1b 8e 3c
       0.025328323 0.005508537 -0.052216 0.017346898
0003f0 df 84 32 bd bf c1 33 bd fa 2e 8e bc e6 37 a0 3c
       -0.043583747 -0.043885943 -0.017356385 0.019557904

conv3.bias f4 [16]
000000 1d 28 3f 3d 1f ee 86 3c aa 82 64 bd 35 96 8d 3c
       0.046669114 0.016470967 -0.055788673 0.017283538
000010 a5 81 2b 3d cd ac 27 bc 50 d6 8c 3c a7 ac 46 3d
       0.041871686 -0.01023407 0.017192036 0.048504498
000020 68 ea 58 3d 5d cd b9 3b 47 ae 37 3d 06 25 bd 3b
       0.052957922 0.005670233 0.04484394 0.005772236
000030 18 a4 3c 3c 40 61 a4 bc 20 3b 77 3b 1f 37 05 bd
       0.011513732 -0.020065904 0.003772445 -0.03252327

norm3.weight f4 [16]
000000 f5 34 80 3f 8d a1 80 3f 49 5c 80 3f eb 44 80 3f
       1.0016161 1.0049301 1.0028163 1.0021032
000010 e2 43 80 3f ba 49 80 3f 0d cf 7f 3f ca 14 80 3f
       1.0020716 1.00225 0.9992531 1.0006344
000020 57 14 80 3f 72 2c 80 3f b5 37 80 3f 67 de 7f 3f
       1.0006207 1.0013564 1.0017 0.99948734
000030 4e 55 80 3f ad ec 7f 3f 35 e9 7f 3f 1f 1e 80 3f
       1.0026033 0.99970514 0.9996522 1.0009192

norm3.bias f4 [16]
000000 89 80 29 3a ad 33 46 3b db ca 32 3b cc 2c 43 3b
       0.00064659916 0.0030243204 0.0027281556 0.002978134
000010 a6 c0 3e 3b ee d8 f9 3a 0b 8c dd 37 97 03 06 3b
       0.0029106527 0.0019061842 2.6410466e-05 0.0020448917
000020 3c bd 57 3a 97 f0 8e 3a 1d 16 39 3b c5 3c 16 3a
       0.0008229797 0.0010905442 0.002824194 0.0005731101
000030 a8 ef 26 3b bf 70 d1 b9 53 e6 fe ba 12 9f 22 3b
       0.0025472436 -0.0003994759 -0.0019447304 0.0024814052

norm3.running_mean f4 [16]
000000 ba b8 47 be 52 97 03 3f e4 2a f3 3d 1d f7 09 be
       -0.19504061 0.5140277 0.11873415 -0.13473172
000010 40 46 6a 3e 06 c4 0b bd 32 cf 86 3e 36 88 0c be
       0.22878361 -0.03412249 0.26329952 -0.13723835
000020 c9 9f 0f 3e 27 9c 17 bf 49 e0 4a 3d 28 2c 58 3d
       0.14025797 -0.59222645 0.0495303 0.052776486
000030 d3 33 1c bf ce 81 98 bb 42 ba 31 3e b8 b1 2d 3e
       -0.6101658 -0.004654146 0.17356208 0.16962326

norm3.running_var f4 [16]
000000 32 2b cf 3e 90 97 c9 3e 62 7b 51 3e 80 c5 01 3f
       0.40462643 0.39373446 0.20457223 0.50691986
000010 1e f4 4d 3e b4 48 8f 3e 5e e4 3e 3e 46 6c 0d 3e
       0.20112655 0.27985156 0.18641803 0.13810834
000020 08 5f c6 3e 69 b7 51 3e c6 18 81 3e 65 ab 92 3e
       0.38744378 0.20480122 0.25214213 0.2864639
000030 90 a8 d8 3e 65 78 89 3e 6f f9 8a 3e 04 86 66 3e
       0.42316103 0.26849666 0.27143428 0.2251206

lin1.weight f4 [64, 768]
000000 35 7c 86 3c 65 c5 4e bb 03 9b 2c 3c fb ac ae 3c
       0.016416648 -0.0031550762 0.010535005 0.021322718
000010 d1 64 10 3d d5 bc d2 bc 5c f2 57 3c 85 d8 b9 bc
       0.035252396 -0.025724808 0.013180342 -0.022686252
000020 c7 62 62 bb 42 2d 9f 3c 19 f3 0d 3d 77 59 3a bb
       -0.003454374 0.01943076 0.034655664 -0.0028434673
000030 53 38 20 3c 61 c0 77 3c 45 b9 92 b9 a2 2b 20 bb
       0.009779054 0.01512155 -0.00027985327 -0.002444007
000040 3a 82 64 3c 8c 30 8c 3c e8 da e5 bc 45 3c 90 bc
       0.013947064 0.017112993 -0.028058484 -0.017606864
000050 d5 21 4c bc 16 66 e3 bc a4 1f 47 3c 0c 46 e1 3c
       -0.012459238 -0.02775864 0.01215354 0.027499221
000060 b8 f7 91 bc 17 68 dc bc d6 47 3a 3b ad 31 b2 3b
       -0.017818317 -0.026905103 0.0028424165 0.0054380507
000070 8a af cc 3c 23 1d a4 38 16 ee 21 3c 54 ba ca bb
       0.024986047 7.8255565e-05 0.009883424 -0.006186763
000080 33 24 33 bc 1f db f9 3c b8 52 f0 bc f6 1d 37 bc
       -0.010933924 0.030499993 -0.029336318 -0.011176577
000090 c9 a5 3a 3c 5e 52 d5 3c f2 4d 28 3b 62 58 22 bb
       0.011392065 0.026040252 0.0025681225 -0.0024771919
0000a0 d7 1b 3a bc cb 21 fc 3b db 7e fd bc 19 8f ce 3c
       -0.011359177 0.007694458 -0.030944278 0.025214719
0000b0 78 e1 04 bd 24 16 67 bb d2 4b 76 3c 50 38 64 bb
       -0.032441586 -0.0035261 0.015032725 -0.0034823604
0000c0 c8 53 74 bc 4c 6b 48 3c 79 4d fd bc bf e8 d3 bc
       -0.014912553 0.012232613 -0.03092073 -0.025867818
0000d0 32 12 cc bc d3 a5 63 3c ac 8b bb 3c 67 d4 01 bc
       -0.02491102 0.013894516 0.02289375 -0.007924176
0000e0 b8 4f f6 3b c5 af ec bc dd c9 cc bc 90 a3 f1 bc
       0.0075168274 -0.028892407 -0.0249986 -0.029496938
0000f0 3b 9c 12 3c cb c6 0a bd ac b8 a9 bb 2f 83 0f 3d
       0.008948381 -0.03388099 -0.0051794853 0.035037216
000100 4a a9 70 bc 77 a6 83 3c 82 fd 33 bc ac 9d 8a bb
       -0.014688799 0.016070588 -0.010985734 -0.0042302217
000110 58 5a ca bc 67 59 0a 3c f0 13 96 bb 02 b9 3f bc
       -0.024701282 0.008444167 -0.0045800135 -0.011701824
000120 4c e6 fe bc 71 fc f5 bb 38 4e a2 3c f1 32 0c bc
       -0.031115673 -0.0075069 0.019812688 -0.008557067
000130 00 2b 9d bc 4f 2e 5c bc 12 2d c8 3c b2 9f 0b bd
       -0.019185543 -0.013438775 0.024435554 -0.034087844
000140 ef 94 a9 bb fe 3a 9e 3c 1c 10 8b 3c e0 76 fe bc
       -0.005175225 0.019315239 0.016975455 -0.031062543
000150 d9 b6 03 bc 67 af cf bc d2 87 15 3b 77 83 fc 3c
       -0.0080392 -0.025352193 0.002281655 0.030824406
000160 53 ea 08 3d 44 43 93 bc f5 05 ee 3c af 49 41 3c
       0.033426594 -0.01797641 0.029055575 0.011797353
000170 3b 06 53 bb ec 6f 38 bc d4 41 ae 3c 07 b0 96 3b
       -0.0032199759 -0.011257153 0.021271624 0.004598621
000180 50 ee 39 3b 51 ab ac bc 55 40 34 bc e5 cf a1 3c
       0.0028370805 -0.021077784 -0.011001666 0.019752452
000190 22 42 29 3b 84 4a f9 3c 61 5b cd 3c 10 ca d4 3c
       0.0025826772 0.03043104 0.025067987 0.025975257
0001a0 56 7a 3b bc 87 4b 95 bc a3 49 81 3c a8 39 05 3d
       -0.011442741 -0.01822449 0.015782183 0.03252569
0001b0 d5 3d 16 bd 6b cf 06 bd a1 c5 aa 3c 79 2f 10 bd
       -0.03668006 -0.032912653 0.02084619 -0.035201523
0001c0 e5 27 af 3c a6 7f 6d 3c 3f b2 83 3c e1 1a 3b 3c
       0.021381328 0.014495766 0.016076205 0.011419983
0001d0 2e dd da bc b5 c8 b1 3c 0e a5 7d bc 6c d4 9d 3c
       -0.026716795 0.02170215 -0.015481247 0.01926633
0001e0 b2 b3 be 3c 99 6a 92 bc 6f 48 f4 3c 28 c1 ca 3c
       0.023279045 -0.017873095 0.029819695 0.024750307
0001f0 a6 f5 bf bc ca ca 3e bc a0 3b 10 bd 9e 73 fd bc
       -0.023432564 -0.011645028 -0.035213113 -0.03093892
000200 ef f4 1a bb fe 4a 54 3c 62 99 3e 3c 37 35 03 3d
       -0.0023644527 0.012957333 0.011633249 0.03203317
000210 e9 e5 9a 3c 20 57 11 bd d1 78 b3 bb 38 88 67 bb
       0.018908458 -0.03548348 -0.005477049 -0.0035328995
000220 31 b5 ae 3c 67 4c 6d bc 6c 91 88 3c a1 73 14 bd
       0.021326633 -0.014483548 0.016670905 -0.036243085
000230 e7 b9 c8 3c f4 6b 08 bd 95 48 40 ba e3 08 34 bb
       0.024502708 -0.033306077 -0.00073350343 -0.0027471117
000240 99 97 9d 3c 1e f1 0f 3d 49 ff 02 bd 88 74 d9 3b
       0.019237326 0.035142057 -0.03198174 0.006636206
000250 f5 2c 53 3b 22 ef d2 3b dd b9 ff bc 54 d1 54 3c
       0.0032222841 0.0064371983 -0.031216556 0.012989361
000260 7f d1 82 bc d5 2a fd bb 5a c6 24 3c 1e 23 84 3c
       -0.015969036 -0.0077260532 0.010057056 0.016130026
000270 d5 f8 3c bc 22 ac c6 3c d1 fc ab 3c af 45 f1 3c
       -0.011533936 0.024252001 0.020994576 0.029452173
000280 62 47 10 bd 4c c1 29 bb d3 0d 88 3b bd c0 06 3d
       -0.035224326 -0.0025902567 0.0041520386 0.032898653
000290 9c 58 87 3b ad bf 8f bc ef 39 8f bb 05 07 a5 bc
       0.004130436 -0.017547453 -0.00437092 -0.020144949
0002a0 19 68 0c 3d 6b 1c 95 3c 83 59 55 bc bc 29 fc 3c
       0.034278963 0.018202027 -0.01302183 0.03078162
0002b0 aa 2d 60 3b 6d 28 90 3c c0 0f 10 3c 2f 7e d5 bc
       0.0034206905 0.017597402 0.008792818 -0.026061146
0002c0 1b 90 9b bc 08 09 e2 3c 2a 80 01 3c b7 41 9e 3c
       -0.018989613 0.027592197 0.007904092 0.019318445
0002d0 a9 1b 06 bc 4b 04 13 3d c6 9f 06 bd 09 7b ae 3c
       -0.008185306 0.035892766 -0.032867216 0.021298902
0002e0 c1 82 7b 3c 49 96 3f 3a b0 07 88 bb 1a 28 97 bc
       0.015350998 0.0007308466 -0.004151307 -0.01845174
0002f0 70 01 d3 3c 42 31 12 bd 27 0c 05 bc 5f 7a 56 bc
       0.025757521 -0.035691507 -0.008120573 -0.013090699
000300 0f 92 a3 bc 8e 95 26 3c 7f cc a0 bc b6 1a 94 3c
       -0.019967107 0.010167493 -0.019628761 0.018079143
000310 5c b7 e8 3c 73 c8 e8 3b 99 b3 f4 3b 86 82 17 3c
       0.028407745 0.0071039735 0.007467699 0.009247428
000320 25 c4 17 3a 0c bc b9 bc 4d 43 40 bc 49 1f 4b bb
       0.00057894207 -0.022672676 -0.011734796 -0.003099399
000330 98 21 e4 3b af 5c d7 bc c5 26 df 3c 50 e4 dc bc
       0.0069620125 -0.026289312 0.027240166 -0.026964337
000340 13 17 05 bc 44 2e f2 3b 2d a6 ca 3c 25 5b 6a 3c
       -0.008123177 0.007390769 0.024737442 0.014303957
000350 2d e8 4f 3b 29 f8 8b bc 5f 43 b0 bc 80 01 0e 3d
       0.003172408 -0.017086105 -0.0215165 0.0346694
000360 56 6c 05 bc 47 f3 17 bc 80 34 a2 bb 3f 67 b6 bc
       -0.008143505 -0.00927431 -0.004950106 -0.022266028
000370 62 65 aa 3b b7 3f a3 bc e4 23 df 3b cc 91 03 3d
       0.005200074 -0.019927843 0.0068096984 0.032121465
000380 46 5e c7 3c ef 41 5e bc dc e2 9f bc ef 39 0f bd
       0.024336945 -0.0135655245 -0.019517355 -0.03496736
000390 b2 f6 65 3c 67 cb ce bb b3 9e 41 3c 5f f5 cd 3c
       0.0140358675 -0.0063108685 0.011817622 0.025141416
0003a0 67 aa 0e bd 7e 72 21 3c a8 1e ee bc 1e 83 a7 bc
       -0.034830477 0.009853957 -0.029067352 -0.020448264
0003b0 bf b5 9d 3a 29 a6 92 3b b7 f3 8c 3c 07 45 ce 3c
       0.0012032314 0.0044753742 0.017206056 0.0251794
0003c0 b9 53 87 3c 8a b7 15 bd 08 42 9e 38 3e 84 8b 3a
       0.016519414 -0.03655199 7.5463264e-05 0.001064427
0003d0 e6 d5 ee bc 0e b1 13 3d 01 f2 de 3c f0 aa df bb
       -0.02915473 0.036057524 0.027215006 -0.0068257973
0003e0 e7 7e 05 3d de 91 f9 3b 4e fa 35 bb 71 38 97 3b
       0.032591727 0.0076162657 -0.0027767601 0.0046148826
0003f0 9b 7c 6c 3c 83 66 af b9 5a a4 0e bc 13 3c 47 bc
       0.014434005 -0.00033454978 -0.008706177 -0.012160319

lin1.bias f4 [64]
000000 b6 39 e7 bc 9d f8 94 bc 76 56 8e bc 74 f4 20 bb
       -0.02822576 -0.018184954 -0.017375212 -0.0024559768
000010 77 06 2b 3b 6c e5 03 bd 9a 52 00 bd 98 e8 80 bc
       0.0026096383 -0.032201216 -0.031328775 -0.01573591
000020 35 4a de 3c 53 b8 ed 3a 7e e2 40 bc a2 4f e8 ba
       0.027134994 0.0018136598 -0.01177275 -0.0017723928
000030 09 9d 76 bb 1e 16 01 3d ee 55 c1 bc 8f 28 a0 3c
       -0.0037630221 0.031515233 -0.023600545 0.01955059
000040 a4 b2 92 3c 25 5c fb 3c e1 22 ae 3c 77 1f 54 ba
       0.017907448 0.030683586 0.021256866 -0.0008091847
000050 13 21 03 bc 5b b1 73 bc 50 e7 a5 bc 35 17 02 bd
       -0.008003491 -0.014873828 -0.0202519 -0.031760413
000060 30 5a f7 3c 8e 89 d3 bc 08 50 e4 bc 95 f2 14 3c
       0.030194372 -0.025822427 -0.027870193 0.009091039
000070 a1 e5 05 bb ef 04 eb bc a7 9c d5 3c 4e de d6 bc
       -0.002043106 -0.028688876 0.026075674 -0.02622905
000080 58 68 02 bc 2b ef 8b 3c 60 85 9e 3c 82 b9 b0 3c
       -0.007959448 0.017081818 0.019350708 0.021572832
000090 f5 65 95 bc b0 2c 27 bc 75 4a c8 bc b4 52 69 bc
       -0.018237093 -0.010203525 -0.024449566 -0.014240909
0000a0 70 c8 36 bb 7a 4f a6 bb 12 59 74 3c 45 d5 30 3c
       -0.0027890466 -0.0050753923 0.014913814 0.010793035
0000b0 46 b7 bc bc f6 27 c5 bc cb 4c b9 bc e3 cf fa 3c
       -0.02303661 -0.024066906 -0.022619626 0.030616706
0000c0 4e 11 10 3d ea 8c 03 bd b6 7e 85 bc 9b c4 07 bd
       0.035172753 -0.032116808 -0.016295772 -0.033146482
0000d0 a5 b6 99 bc 91 2e f4 bc f7 c1 76 bc 86 b3 9c bc
       -0.01876385 -0.02980736 -0.015060893 -0.019128572
0000e0 7a 2c c1 3c b7 a7 83 bc bd 7f d8 bc ae 99 d6 bc
       0.023580778 -0.016071184 -0.026428098 -0.026196327
0000f0 c7 ec 31 3c a8 de 9e 3c 00 1d ae 3c b2 cf 22 bc
       0.010859675 0.01939328 0.021254063 -0.009937214

lin2.weight f4 [16, 64]
000000 f0 e7 0c 3c f7 a2 0c 3d 64 a9 a4 3d 58 af c5 3d
       0.00860022 0.034335103 0.08040121 0.09652585
000010 75 b2 99 bd 07 5f d4 bd 47 75 34 3d ab f9 c6 3d
       -0.07504741 -0.103696875 0.044057157 0.09715589
000020 06 d2 cf 3c 15 bf e9 3d 08 4a ac 3c ef 72 ea 3d
       0.025368702 0.11413399 0.021031395 0.11447703
000030 10 54 59 3d ac 6b 89 3d 79 7d 95 bd 0c d0 23 bd
       0.053058684 0.0670999 -0.07299323 -0.03999333
000040 d9 46 fc bd 16 91 91 3d 09 49 f7 bc 30 be a8 3d
       -0.123182006 0.07107751 -0.030186193 0.082394004
000050 92 3b ed 3c fe 2b f7 bd 53 19 ec bd 49 97 cb bd
       0.02895907 -0.12068938 -0.11528268 -0.09940965
000060 36 2f b3 bd 53 d7 40 3c 30 a9 59 3d bf 1c d4 3c
       -0.08749239 0.011770087 0.053139865 0.025892613
000070 9c d4 90 bd c0 70 e3 3d 77 b5 e2 bd 43 a9 8d bd
       -0.07071802 0.1110549 -0.11069768 -0.0691705
000080 35 61 52 bd 2e 1b e6 3d 1e e4 d5 3b 1e 9a 93 3d
       -0.051362235 0.11235653 0.006527438 0.0720713
000090 1a ae fc 3c ee ff b8 bd f9 0d c9 bd e8 52 f9 3b
       0.030844737 -0.0903319 -0.09817118 0.00760876
0000a0 a9 86 ae bc b4 1e b8 bb a3 81 f1 bd 52 ec cd 3d
       -0.021304445 -0.0056188945 -0.11792304 0.1005484
0000b0 fc 57 88 bd d5 ac 44 3d 48 44 c9 bd e0 d9 e7 bd
       -0.06657407 0.048016388 -0.09827477 -0.11320853
0000c0 80 94 b0 3c 4b 4a f5 bd 15 1b fe bb 3b c8 b5 bd
       0.021555185 -0.11977061 -0.0077546933 -0.088760816
0000d0 4f aa be 3d 7f 11 90 bc 2c 83 f1 3d eb 53 38 bd
       0.093098275 -0.017586468 0.11792597 -0.045001905
0000e0 e4 a4 f1 bc 96 a3 37 bd c2 7c ff 38 21 67 c3 3d
       -0.029497571 -0.044833742 0.000121825855 0.09541155
0000f0 5e f7 eb bd 9d 44 1a bd fe 4e 86 3d 22 7d da bc
       -0.11521791 -0.03766309 0.06558035 -0.026670996
000100 6e 27 c7 3d 9b ec a1 bd ba 49 34 3d 67 87 81 bd
       0.097243175 -0.07906457 0.044015624 -0.06324654
000110 7c 3d c7 bd 8d 98 b4 3d f8 05 e9 3d 70 45 bf bd
       -0.09728524 0.08818159 0.113780916 -0.09339416
000120 93 d6 58 3d b7 a7 39 3d 2f 24 8b bd b2 2a e6 bd
       0.05293901 0.04532596 -0.06794011 -0.11238612
000130 1f 18 04 bd 89 87 d3 bd 38 5a 86 bd 11 3f df 3d
       -0.032249566 -0.10328586 -0.065601766 0.10900701
000140 95 a6 b4 bd 78 75 f9 bd 84 59 04 bd cf 40 9e bd
       -0.088208355 -0.121806085 -0.03231193 -0.07727205
000150 d9 d7 f9 bc 9a e1 af 3d a5 5a a4 bd 48 67 cd 3d
       -0.030498432 0.08587952 -0.080251016 0.10029465
000160 27 87 9e 3d 2f 34 67 3d b3 a2 9b bd 2f cc 44 3d
       0.07740622 0.05644625 -0.07599392 0.048046287
000170 e6 e5 be 3d e5 56 e4 bd c3 2f cf 3d cd db cf bc
       0.093211934 -0.11149386 0.10116532 -0.025373364
000180 07 a1 e7 3d 2a 53 b5 3d 9a d9 03 3a e1 cb f0 3d
       0.113100104 0.08853753 0.00050296786 0.11757637
000190 96 1e 6d 3d eb 04 57 bd e9 b5 23 bd 56 ac c5 3c
       0.057890497 -0.052494925 -0.039968405 0.024130028
0001a0 da 69 d6 bd 0f dd 46 bd 23 9c 6e bc cc 31 b0 bd
       -0.10469408 -0.04855066 -0.014563593 -0.08603248
0001b0 dd 1b 55 3d ea 72 5b 3d 35 eb 30 3c c0 df e1 bd
       0.052028526 0.053576387 0.010798265 -0.11029005
0001c0 c5 dc cd bd 80 cd 29 3d ca d2 64 3d 12 c5 68 3d
       -0.10051874 0.041455746 0.055865087 0.056828566
0001d0 b2 a0 d1 bd ca 0a fa bd 85 22 e7 bc be 56 c1 3d
       -0.10235728 -0.12209089 -0.028214702 0.09440373
0001e0 28 5c 9e 3d 10 2a 09 3d eb 5d 37 3d bc 3d 41 3b
       0.07732421 0.03348738 0.0447673 0.002948626
0001f0 f6 fc f5 3a c0 ad e9 bd d3 e6 8a 3d ef 25 ab bd
       0.0018767405 -0.11410093 0.067823075 -0.08356845
000200 b2 61 87 bd 0d 39 56 3b 65 f9 b9 bd 45 5a 1e bd
       -0.06610431 0.0032687814 -0.09080771 -0.038660306
000210 bf 52 4c bd f1 3f e4 bd 38 52 0b bd 3a 60 87 3d
       -0.0498836 -0.11145008 -0.034013957 0.06610151
000220 ae 5f f1 3d ea 5c 29 3d 15 ea dc 3d e6 15 27 bd
       0.117858276 0.041348375 0.10786835 -0.04079237
000230 a6 22 c1 3d ec 7d 03 bc 6a ab 5d 3d e2 18 01 3e
       0.09430437 -0.008025628 0.05411855 0.12607148
000240 6d c3 af 3d 1b f4 f5 bd f1 5f fd bd 12 bb bc bc
       0.085821964 -0.1200945 -0.12371815 -0.02303842
000250 2b 5a eb 39 51 f8 9e 3c d8 36 a6 3d 8a 34 c2 3d
       0.00044889873 0.019405516 0.08115929 0.09482677
000260 4d 34 00 bd e2 14 f9 3c 37 81 0b 3c b8 d4 d7 3d
       -0.031299878 0.030405466 0.008514694 0.1053862
000270 9e 45 ce bd 25 64 43 bc dd 5d ec bd 79 dc ca 3a
       -0.10071872 -0.011925732 -0.115413405 0.0015477083
000280 c0 60 19 bd a6 c3 40 3c 25 b3 cd bd f1 67 c9 3d
       -0.037445784 0.011765396 -0.10043935 0.098342784
000290 31 66 ef 3d 63 d8 a2 bd 85 3b c0 bd a7 23 b8 bc
       0.11689413 -0.07951429 -0.093863524 -0.022477938
0002a0 a8 7e 8e bd 44 ce f0 bd 5e da 16 bd d5 f6 d9 3d
       -0.069577515 -0.11758092 -0.036829345 0.106427826
0002b0 e1 ae 8e 3b a8 50 7a bd fc ef d7 bd 78 86 00 3d
       0.0043543433 -0.061112076 -0.1054382 0.03137824
0002c0 7b b7 24 bc c9 b3 b0 bd 2f 3a 67 3b 9b 4b b3 bd
       -0.010053511 -0.08628041 0.0035282483 -0.08754655
0002d0 35 84 99 bd a0 57 0b 3d 8e d8 93 bd ae 56 29 bc
       -0.074959196 0.034019113 -0.07219039 -0.010335607
0002e0 46 6a 22 bd f5 e0 4c 3d a9 35 3b 3d e1 8a 68 bc
       -0.03965213 0.050019223 0.04570547 -0.014193268
0002f0 7c e1 42 bb 24 50 cd bd 3c 36 23 3d f2 51 9a bc
       -0.002973645 -0.10025051 0.039846644 -0.018837903
000300 9e 5b 39 bd 1f 78 db 3c a9 f3 b1 bd 51 d4 b8 bd
       -0.04525339 0.026790677 -0.086890526 -0.09024871
000310 e5 49 26 3c 22 30 2c 3d 84 5d 96 3d 9e 97 c4 bd
       0.010149454 0.04203809 0.073420554 -0.09599231
000320 87 dd 8a 3c 14 07 f4 3b 9d 78 7e bc 63 3e a1 3d
       0.016951336 0.007447133 -0.015531686 0.078732274
000330 76 fe c2 3d d0 19 57 3d f9 e6 b0 bd 41 4b 22 bd
       0.09521191 0.05251485 -0.086378045 -0.03962255
000340 53 fd d7 3d 1d f5 f6 3d 12 18 d4 3d 5a 25 a8 bd
       0.10546365 0.120584704 0.103561535 -0.08210249
000350 df 12 cc 3b bf b8 a1 bd 36 42 b0 bd d5 f0 e9 3d
       0.0062278355 -0.07896566 -0.08606379 0.11422888
000360 2b 15 b0 bd 12 d0 93 3d 11 f7 a6 3d 9f d5 15 3d
       -0.085977875 0.07217421 0.08152593 0.036580678
000370 44 4d 9f 3d cd 9e b0 bd cb 47 ca bd d9 27 d7 bc
       0.07778409 -0.08624039 -0.09876975 -0.026264118
000380 de c9 f3 bd f2 ad 82 3d c4 00 6f bd 85 82 d1 bb
       -0.119037375 0.06380834 -0.05835034 -0.006393733
000390 f5 1c d0 3d 7f f3 cb bc 27 93 df bd c7 2a ed bd
       0.10161773 -0.024896381 -0.10916739 -0.11580425
0003a0 b7 16 ba bc 4e f4 5f 3d 28 ce a9 3d 36 9b d1 3d
       -0.02271591 0.054676346 0.08291274 0.10234682
0003b0 c2 31 b1 bd e0 b9 80 bd f1 07 08 bd 9a 43 91 3c
       -0.08652069 -0.06285453 -0.0332107 0.01773243
0003c0 20 45 94 bd 31 1a be 3d 82 d0 8f bd 5d e4 db bc
       -0.07239747 0.09282339 -0.070221916 -0.02684229
0003d0 93 b1 65 3d fb 17 ac bc f6 33 3f bb e0 88 70 3d
       0.05607755 -0.021007529 -0.0029175258 0.058724284
0003e0 d6 0f a9 bc 79 a5 ce bd b2 98 54 bd cd dc bc bd
       -0.020637434 -0.10090155 -0.051903434 -0.09221802
0003f0 9c 7e a6 bd fb e1 21 bc 91 a0 d1 3c 69 36 fd 3d
       -0.081296176 -0.009880538 0.02558926 0.123638935

lin2.bias f4 [16]
000000 bc 74 04 bd 96 1b a9 3d a6 c8 8f bd b1 9c 92 3d
       -0.03233789 0.08257215 -0.070206925 0.07158793
000010 8c ed 01 3d a2 9d 4e bd 09 7c e5 3d da bd a0 bc
       0.031720683 -0.0504433 0.112052985 -0.019621778
000020 4c 24 b2 3d 2b e0 a3 3c 78 3e aa 3c 73 97 97 ba
       0.08698329 0.020004353 0.02078174 -0.0011565521
000030 27 7a 65 bc f9 e5 5b 3d 63 69 4d 3c ad 11 55 bd
       -0.014006174 0.053686116 0.012537333 -0.05201881

lin3.weight f4 [3, 16]
000000 44 fc c5 bb 7e 59 96 3d 11 f6 1b 3d a0 47 d3 3c
       -0.0060420353 0.07341288 0.038076464 0.02579099
000010 5d a2 69 3e 74 c0 b6 bd 8a c0 a3 3a ea f8 48 3e
       0.22815843 -0.08923426 0.0012493294 0.19626203
000020 b2 cc 62 3e 0b c9 62 3d 07 17 51 3e df 24 49 be
       0.22148398 0.05536751 0.2041894 -0.19642971
000030 02 06 a4 3d 14 51 ef bd f4 34 4b be 38 5a 2a 3e
       0.080089584 -0.11685386 -0.19844419 0.16635978
000040 95 07 45 be 6f 70 e8 bd 16 62 cd 3d 4c 06 3a be
       -0.19241174 -0.1134957 0.10028474 -0.18166465
000050 d8 f8 02 be 92 4c b5 3d e4 ed 6e bd c5 03 5c 3d
       -0.12790239 0.08852495 -0.05833234 0.053714532
000060 8a 6d 77 be bd 74 01 be ae be c3 3d 9c ec 1d 3e
       -0.2416288 -0.12642188 0.09557854 0.1542229
000070 a6 bd 82 3e 44 cb 02 be b4 df 67 be bd 99 4e be
       0.25535315 -0.12772852 -0.2264393 -0.20175834
000080 97 97 98 bd d5 91 28 be 30 3d 96 bd 95 07 c1 bd
       -0.074507885 -0.1646188 -0.07335889 -0.09425274
000090 c3 6b 0d 3d a4 13 73 be f1 7a 43 3c 3d 58 87 3a
       0.034526598 -0.23737961 0.011931167 0.001032598
0000a0 36 a9 fe bd f1 ed 28 be 7a b9 a8 3d 43 fa 12 be
       -0.12434618 -0.16497017 0.08238502 -0.1435328
0000b0 27 a9 34 3e f6 a4 07 bd 30 bd f4 3d 29 af 04 3e
       0.17642651 -0.033116303 0.11950147 0.12957443

lin3.bias f4 [3]
000000 82 3e 2c bc 2a 61 f3 bd c5 cd ac 3d
       -0.01051295 -0.11883767 0.08437685
