dagger_models/model_0.pth (torch, 232189 bytes, 24 tensors)

conv1.weight f4 [4, 1, 5, 5]
0.009616822 0.19705199 -0.069087505 0.051507935 0.053836808 0.026935175 0.1580676 -0.16639347
-0.07625623 0.01083982 -0.15815108 -0.14895733 -0.09060693 -0.18606816 -0.08601465 -0.17802756
0.05221702 -0.15610842 0.18990166 -0.092333846 0.19735612 -0.19011171 -0.1086458 0.16112532
0.13946064 0.03254369 0.1556672 -0.07238273 0.049983114 0.18529631 0.1410626 0.1877055
-0.11968806 0.046168953 -0.10590356 0.1253248 -0.14801903 -0.022057965 -0.06919773 -0.063002616
0.051045313 0.03843093 -0.14090121 0.14720677 0.160821 -0.101916626 -0.06631839 0.124419704
-0.16328017 0.1370921 -0.14422765 -0.13204414 0.114038244 -0.05518186 0.19115858 -0.075411655
0.015855432 -0.027696103 0.089053884 0.16928385 0.022439048 -0.103950456 0.04484026 -0.046275973
0.19614567 -0.12687942 -0.1209723 0.18400766 0.028098702 -0.0386419 -0.13921747 -0.13209945
0.14156045 0.16676973 0.06452225 0.010266498 0.16067232 0.10988255 0.1799605 0.10289325
0.10013904 -0.18181328 -0.03205979 -0.15226951 0.19947599 -0.12758756 0.009998605 0.08403887
0.12125559 0.13665582 -0.19634314 0.10906793 -0.008120775 0.10760607 -0.015741557 -0.11761625
0.013330102 -0.17407711 -0.19092174 -0.100062326
00000000: e08f 1d3c ffc7 493e c07d 8dbd fcf9 523d
00000010: fc83 5c3d 28a7 dc3c 79dc 213e 0d63 2abe
00000020: 3a2c 9cbd 8099 313c 5bf2 21be 4588 18be
00000030: 2090 b9bd a788 3ebe 7328 b0bd db4c 36be
00000040: 84e1 553d e3da 1fbe 9575 423e 8719 bdbd
00000050: b917 4a3e a5ac 42be b081 debd 09fe 243e
00000060: c5ce 0e3e 884c 053d 3967 1f3e 663d 94bd
00000070: 18bb 4c3d 51be 3d3e b772 103e df35 403e
00000080: 031f f5bd a81b 3d3d f7e3 d8bd 2555 003e
00000090: 4d92 17be e8b2 b4bc 8ab7 8dbd 8407 81bd
000000a0: e414 513d c069 1d3d 6848 10be 5fbd 163e
000000b0: 43ae 243e aab9 d0bd f0d1 87bd c2cf fe3d
000000c0: eb32 27be df61 0c3e 6ab0 13be 9436 07be
000000d0: e28c e93d 6006 62bd 13bf 433e 6d71 9abd
000000e0: 40e3 813c f0e2 e2bc e261 b63d bf58 2d3e
000000f0: 18d2 b73c fae3 d4bd 6caa 373d e08b 3dbd
00000100: 69da 483e aeec 01be 53c0 f7bd 816c 3c3e
00000110: 402f e63c f846 1ebd 068f 0ebe 1445 07be
00000120: 39f5 103e afc5 2a3e 3e24 843d d034 283c
00000130: 4987 243e 1a0a e13d 9147 383e b2b9 d23d
00000140: b215 cd3d 432d 3abe 2051 03bd 8aec 1bbe
00000150: 6f43 4c3e 50a6 02be 30d1 233c 921c ac3d
00000160: da54 f83d 81ef 0b3e 2d0e 49be 025f df3d
00000170: 000d 05bc 9260 dc3d 70f4 80bc cae0 f0bd
00000180: 8066 5a3c 4541 32be fd80 43be 7aed ccbd

conv1.bias f4 [4]
0.02398546 0.031666353 0.03325793 0.12912233
00000000: 287d c43c 94b4 013d 7839 083d a538 043e

norm1.weight f4 [4]
1.0 1.0 1.0 1.0
00000000: 0000 803f 0000 803f 0000 803f 0000 803f

norm1.bias f4 [4]
0.0 0.0 0.0 0.0
00000000: 0000 0000 0000 0000 0000 0000 0000 0000

norm1.running_mean f4 [4]
0.0 0.0 0.0 0.0
00000000: 0000 0000 0000 0000 0000 0000 0000 0000

norm1.running_var f4 [4]
1.0 1.0 1.0 1.0
00000000: 0000 803f 0000 803f 0000 803f 0000 803f

conv2.weight f4 [8, 4, 5, 5]
0.05358336 0.03815245 0.086762674 -0.067309946 0.031298198 0.03892929 0.013441004 -0.049484946
-0.021112487 -0.044920195 0.023702763 0.05531419 0.07557047 -0.049541246 -0.026698902 0.052022867
-0.078250155 -0.018841013 -0.07234446 -0.04517988 -0.09546741 -0.093603514 -0.029827133 0.03610929
0.0045565963 0.0031288266 0.09660409 0.026442029 0.07375134 0.025734626 -0.006110683 0.034606107
-0.05650884 0.007967569 -0.018514179 -0.02999711 0.002499044 -0.056322504 0.029828094 0.011201717
0.081339635 0.015821397 -0.097901665 -0.030285165 -0.013534509 0.001035966 0.08223287 0.09003108
-0.044902395 0.06813861 0.024575248 -0.0064245015 -0.06471963 -0.0406875 -0.0012645498 0.081985526
-0.09700775 0.070684455 0.09772534 0.08418738 0.04725886 -0.07738843 0.020753399 -0.056742407
-0.07014912 0.018311799 -0.024903253 -0.03615632 0.010706045 0.027010478 -0.06811465 -0.09546357
-0.002444312 -0.03653945 -0.023168243 -0.057476103 0.049034663 -0.0032733455 -0.015912995 0.0025393367
-0.05408522 -0.082299545 -0.06489585 0.07693056 0.06294728 0.0016189441 -0.03565333 -0.087037146
0.0015522465 -0.07413419 0.053245448 -0.057586122 0.077571504 -0.07519509 0.03348411 -0.07182404
-0.036938354 0.051971607 -0.057362687 -0.011311904 -0.07990907 0.065664254 0.053355433 -0.0239259
0.023830257 -0.00415913 -0.041549493 -0.024086535 0.074516036 -0.005749628 -0.01344756 0.0021654814
0.017820634 -0.07899491 -0.0032922179 -0.030992486 -0.079729736 -0.011273839 0.07080691 -0.061812367
0.06343385 0.024478808 0.09536863 0.0068464503 0.037662186 -0.0926664 -0.063459784 0.08415391
0.0020830035 0.002284661 -0.09058213 -0.025760695 0.08783192 -0.06984153 0.06940799 -0.01535283
0.03917139 0.09214426 -0.06560986 -0.0066345334 0.022358298 -0.09038197 0.005231023 0.011294983
-0.034909986 -0.059617948 0.0919093 -0.06824045 -0.09288233 -0.008849546 -0.01137954 0.024796404
0.0040351376 -0.06633023 -0.05981469 -0.04936601 -0.04873631 -0.033075333 0.09063315 0.088327534
-0.06153966 -0.06446022 0.051429175 -0.014251076 -0.032066986 -0.05955063 -0.09669894 -0.038626637
0.0011996403 0.087343924 0.020879626 0.018444404 0.032020815 -0.013492569 0.034923457 -0.05552578
-0.0054160953 -0.052539267 0.008885324 0.013057113 0.08365125 -0.011772893 -0.06945471 0.0014258847
-0.09154236 0.06826759 0.029789068 0.08617001 -0.07542124 0.06718298 0.007873774 0.022533894
-0.009095751 0.06598414 0.05828788 -0.0388724 0.027007945 0.057097323 -0.033901654 0.092266075
0.07292292 0.051706858 0.027268521 -0.097925976 0.06338284 0.009441651 -0.055661034 0.07896762
-0.05163268 -0.09100115 -0.0791175 0.09641159 0.032973878 -0.03461238 0.04757852 0.01673343
0.057209603 0.09455057 0.01944872 -0.056817807 -0.06372966 0.066263266 -0.09447731 0.051885672
0.09900225 0.043645434 -0.021186814 -0.024871767 0.07510001 -0.03191086 0.003505364 0.037241228
-0.09499021 0.022635259 -0.016608357 -0.034542523 -0.027738765 -0.0037384033 -0.06906195 -0.07142186
0.09984801 -0.032788612 0.022628501 -0.04049171 0.018575266 -0.021022618 0.03643156 0.08164021
-0.024822906 -0.067753926 0.07091414 -0.014989212 -0.09057651 0.0924791 0.027921088 0.03509622
00000000: 3a7a 5b3d be45 1c3d a1b0 b13d ccd9 89bd
00000010: 8a32 003d 5274 1f3d a837 5c3c bab0 4abd
00000020: 18f4 acbc 3dfe 37bd 4c2c c23c 2291 623d
00000030: b1c4 9a3d c3eb 4abd a8b7 dabc ee15 553d
00000040: 9e41 a0bd 7858 9abc 5529 94bd 8a0e 39bd
00000050: 6b84 c3bd 33b3 bfbd 0858 f4bc 56e7 133d
00000060: 804f 953b 000d 4d3b 5dd8 c53d f49c d83c
00000070: f10a 973d 6cd1 d23c 203c c8bb 22bf 0d3d
00000080: d075 67bd 688a 023c 0cab 97bc 80bc f5bc
00000090: 00c7 233b 6db2 66bd 0c5a f43c 6887 373c
000000a0: 6595 a63d e09b 813c ab80 c8bd 9818 f8bc
000000b0: d8bf 5dbc 40c9 873a b569 a83d 3762 b83d
000000c0: 93eb 37bd 418c 8b3d 0852 c93c a084 d2bb
000000d0: ba8b 84bd f0a7 26bd 40bf a5ba 07e8 a73d
000000e0: 00ac c6bd 03c3 903d 3924 c83d 6f6a ac3d
000000f0: 8292 413d d37d 9ebd 0803 aa3c ba6a 68bd
00000100: 58aa 8fbd a002 963c e801 ccbc a618 14bd
00000110: 6868 2f3c 1445 dd3c b27f 8bbd 6782 c3bd
00000120: c030 20bb 64aa 15bd 54cb bdbc 106c 6bbd
00000130: 92d8 483d a085 56bb f85b 82bc 006b 263b
00000140: 7788 5dbd aa8c a8bd 1ee8 84bd c58d 9d3d
00000150: 81ea 803d c032 d43a 3a09 12bd 8840 b2bd
00000160: c074 cb3a abd3 97bd e617 5a3d 6ddf 6bbd
00000170: cfdd 9e3d e2ff 99bd a226 093d 7b18 93bd
00000180: ac4c 17bd 2ee0 543d 23f5 6abd 9055 39bc
00000190: 5ea7 a3bd fb7a 863d 3a8b 5a3d 4000 c4bc
000001a0: ac37 c33c 5049 88bb cd2f 2abd 2051 c5bc
000001b0: dd9b 983d 6067 bcbb 2853 5cbc c0ea 0d3b
000001c0: 94fc 913c 15c8 a1bd 40c2 57bb f4e3 fdbc
000001d0: 5849 a3bd e8b5 38bc 3703 913d f72e 7dbd
000001e0: 9be9 813d c887 c83c a150 c33d 3058 e03b
000001f0: aa43 1a3d e2c7 bdbd 34f7 81bd e358 ac3d
00000200: 0083 083b 40ba 153b 2083 b9bd 1808 d3bc
00000210: 39e1 b33d 1309 8fbd c725 8e3d 708a 7bbc
00000220: 2e72 203d 21b6 bc3d 765e 86bd 8066 d9bb
00000230: c028 b73c 2f1a b9bd 0069 ab3b 980e 393c
00000240: c6fd 0ebd f331 74bd f13a bc3d a6c1 8bbd
00000250: 1739 bebd b0fd 10bc 4071 3abc d421 cb3c
00000260: 3039 843b 25d8 87bd 4000 75bd 0334 4abd
00000270: ba9f 47bd 007a 07bd df9d b93d 11e5 b43d
00000280: 0311 7cbd b803 84bd 66a7 523d 587d 69bc
00000290: ac58 03bd 5deb 73bd 180a c6bd f736 1ebd
000002a0: 403d 9d3a 5fe1 b23d c00b ab3c b818 973c
000002b0: 4228 033d f00f 5dbc e60b 0f3d 006f 63bd
000002c0: 8079 b1bb 6a33 57bd c093 113c 80ed 553c
000002d0: 5951 ab3d 18e3 40bc 453e 8ebd c0e4 ba3a
000002e0: 907a bbbd e1cf 8b3d 3408 f43c e779 b03d
000002f0: 7376 9abd 3b97 893d 0001 013c 0099 b83c
00000300: 5806 15bc b122 873d 46bf 6e3d aa38 1fbd
00000310: c43f dd3c e2de 693d 76dc 0abd fff5 bc3d
00000320: 9d58 953d 92ca 533d 3c62 df3c 6a8d c8bd
00000330: ddce 813d 28b1 1a3c d3fc 63bd c7b9 a13d
00000340: ca7c 53bd d05e babd 5b08 a2bd 7173 c53d
00000350: 9e0f 073d b6c5 0dbd b2e1 423d 8c14 893c
00000360: 9e54 6a3d bba3 c13d ec52 9f3c cab9 68bd
00000370: b284 82bd 09b5 873d 527d c1bd 1286 543d
00000380: b1c1 ca3d 8ec5 323d f88f adbc e0bf cbbc
00000390: 09ce 993d f6b4 02bd 40ba 653b 428a 183d
000003a0: 3a8a c2bd 946d b93c 400e 88bc 767c 0dbd
000003b0: 683c e3bc 0000 75bb 5a70 8dbd a045 92bd
000003c0: 1d7d cc3d 5a4d 06bd 685f b93c a3da 25bd
000003d0: 282b 983c a037 acbc 4239 153d fb32 a73d
000003e0: 6859 cbbc 92c2 8abd 6f3b 913d 5095 75bc
000003f0: 2d80 b9bd af65 bd3d c4ba e43c 0ec1 0f3d

conv2.bias f4 [8]
-0.07550224 -0.04156517 -0.07822367 0.095132165 0.07439927 -0.0129920095 0.06601787 -0.012914456
00000000: eba0 9abd 3d40 2abd bb33 a0bd a7d4 c23d
00000010: a55e 983d 70dc 54bc 6134 873d 2897 53bc

norm2.weight f4 [8]
1.0 1.0 1.0 1.0 1.0 1.0 1.0 1.0
00000000: 0000 803f 0000 803f 0000 803f 0000 803f
00000010: 0000 803f 0000 803f 0000 803f 0000 803f

norm2.bias f4 [8]
0.0 0.0 0.0 0.0 0.0 0.0 0.0 0.0
00000000: 0000 0000 0000 0000 0000 0000 0000 0000
00000010: 0000 0000 0000 0000 0000 0000 0000 0000

norm2.running_mean f4 [8]
0.0 0.0 0.0 0.0 0.0 0.0 0.0 0.0
00000000: 0000 0000 0000 0000 0000 0000 0000 0000
00000010: 0000 0000 0000 0000 0000 0000 0000 0000

norm2.running_var f4 [8]
1.0 1.0 1.0 1.0 1.0 1.0 1.0 1.0
00000000: 0000 803f 0000 803f 0000 803f 0000 803f
00000010: 0000 803f 0000 803f 0000 803f 0000 803f

conv3.weight f4 [16, 8, 6, 6]
0.05636416 -0.04016789 0.051101077 -0.04783848 -0.035148732 -0.053235658 -0.013007592 0.01561721
0.0025119372 -0.0506099 0.05478825 0.007543076 -0.058773514 0.037954647 -0.0016515963 0.010022517
0.022941034 -0.0058477633 0.04325157 0.0020763166 -0.045712262 -0.021623742 -0.019119151 -0.036076754
-0.05816681 0.027726006 0.04018124 -0.013875816 -0.043405876 0.023946997 -0.021756504 -0.032863837
-0.041809447 0.052302916 -0.003311444 0.02306318 -0.04244841 -0.0025167204 -0.04688882 -0.023968518
-0.009645227 0.005928885 0.02601597 -0.009603646 0.029810298 0.02949721 0.030118171 -0.04450474
-0.03558368 0.011485685 -0.034333147 -0.0008027218 -0.0066255704 -0.04317545 -0.033912174 0.033580672
-0.019494742 0.02732857 -0.023917887 -0.0011334196 -0.0073858127 0.019314367 0.032156345 0.048299816
-0.037335455 -0.024276767 0.030788582 -0.016172342 -0.049925465 -0.054608 0.0059358366 0.03414606
-0.024342824 -0.012400467 0.03322204 -0.0562699 -0.027989913 0.017497744 -0.045546897 0.050259646
0.024490815 -0.02610325 0.028245877 -0.017576065 -0.03934483 0.020845596 -0.056873653 0.057621766
-0.012682661 -0.04213292 0.018888693 0.046659153 0.017293718 0.0127967335 -0.00170267 -0.044009365
-0.03549657 -0.031903267 0.015669834 0.00095728785 -0.04237735 -0.031514913 -0.0062178895 0.016068
-0.023185749 0.05210687 -0.020796757 0.022316221 0.0026821606 0.003755588 -0.012280524 -0.003451053
0.04002851 -0.05284402 -1.4610589e-05 -0.008642323 0.010821734 0.014822129 -0.02262045 -0.00958357
-0.053845022 -0.044819526 0.038098294 -0.044258572 -0.008398145 -0.053297326 -0.020966526 -0.04164785
-0.051899012 0.018053975 0.03685766 0.058337506 -0.024364207 0.017952148 -0.03148985 0.039112773
-0.032716103 0.05785686 -0.03383943 -0.012177199 0.0074578784 0.015361894 -0.020241011 0.032480273
0.008653242 -0.03972535 0.030340891 -0.031998508 -0.0044046417 -0.040817257 -0.040730253 -0.041871093
0.0036310665 -0.049642216 0.05172958 0.05218688 0.047631722 -0.017945018 0.036460582 -0.018576033
-0.04475776 -0.058315117 0.015479449 0.05503234 0.02535205 0.03145239 0.05847924 0.017291296
-0.050599292 0.01677445 -0.05331565 -0.020509642 -0.024372336 0.008602601 -0.051486254 -0.023327626
-0.024349872 0.012747597 0.01277421 0.038312893 -0.051955573 -0.0215278 -0.0054969676 0.008412655
-0.044584714 0.009137806 0.030982327 -0.00090823695 0.039551046 0.04504736 -0.055883527 -0.047324147
-0.0056969263 0.04217497 0.017610561 -0.018407483 0.053426612 -0.045270346 -0.03101895 0.001037024
0.058258515 -0.037014935 -0.031405672 -0.021855466 0.016107257 0.036922056 -0.036942597 0.0021590441
0.053611267 -0.002619762 0.03079025 -0.024204548 -0.048129693 0.00862946 0.009142224 0.0051027946
0.00635064 -0.030156238 0.02990761 -0.030774843 -0.057904992 -0.0056876875 -0.046964977 0.045395408
0.010315578 -0.028206175 -0.038000524 0.03914241 0.038408805 -0.00652986 -0.022107188 0.051798027
-0.03254362 -0.05762298 0.020829733 -0.011284754 0.014091697 -0.0424099 0.020862062 0.0019304045
-0.002600018 -0.026821509 0.05150259 0.014422569 -0.016949926 -0.043322984 0.053119842 -0.03426399
-0.012792271 0.01851711 0.02779131 -0.018762596 0.010347325 0.033405576 -0.04731006 0.01155765
00000000: 1bde 663d 1687 24bd 5d4f 513d 48f2 43bd
00000010: 1ef8 0fbd a20d 5abd cc1d 55bc 54df 7f3c
00000020: 509f 243b 544c 4fbd a569 603d e82b f73b
00000030: 7fbc 70bd 5576 1b3d 607a d8ba 7c35 243c
00000040: d6ee bb3c 989e bfbb 8f28 313d d012 083b
00000050: c83c 3bbd 4624 b1bc c49f 9cbc 38c5 13bd
00000060: 5240 6ebd a621 e33c 1595 243d 6457 63bc
00000070: 5cca 31bd 7e2c c43c b23a b2bc 3b9c 06bd
00000080: 6240 2bbd 953b 563d d004 59bb feee bc3c
00000090: 62de 2dbd 90ef 24bb 7e0e 40bd a059 c4bc
000000a0: 0407 1ebc 1847 c23b 721f d53c 9c58 1dbc
000000b0: ba34 f43c 22a4 f13c 62ba f63c 9a4a 36bd
000000c0: 31c0 11bd 742e 3c3c eaa0 0cbd c06d 52ba
000000d0: 501b d9bb bed8 30bd 7ee7 0abd e38b 093d
000000e0: 70b3 9fbc 2ae0 df3c 72ef c3bc 408f 94ba
000000f0: b004 f2bb 2a39 9e3c 5fb6 033d 07d6 453d
00000100: 10ed 18bd 12e0 c6bc 5638 fc3c dc7b 84bc
00000110: a57e 4cbd a3ac 5fbd 6881 c23b bddc 0b3d
00000120: 9a6a c7bc 542b 4bbc d513 083d 447b 66bd
00000130: 1a4b e5bc 6e57 8f3c 628f 3abd 0fdd 4d3d
00000140: f6a0 c83c 7cd6 d5bc e663 e73c aefb 8fbc
00000150: 0b28 21bd 62c4 aa3c 59f4 68bd cd04 6c3d
00000160: f0ca 4fbc 9293 2cbd 76bc 9a3c ab1d 3f3d
00000170: 8eab 8d3c 64a9 513c 202c dfba 2a43 34bd
00000180: da64 11bd 00ad 02bd 065e 803c 80f2 7a3a
00000190: df93 2dbd c815 01bd 70bf cbbb 0aa1 833c
000001a0: 0af0 bdbc 036e 553d f65d aabc 82d0 b63c
000001b0: 30c7 2f3b 5020 763b 4034 49bc 102b 62bb
000001c0: eff4 233d f972 58bd 0020 75b7 8898 0dbc
000001d0: a44d 313c 84d8 723c 864e b9bc 6804 1dbc
000001e0: 998c 5cbd ae94 37bd f50c 1c3d 7a48 35bd
000001f0: 6098 09bc 4c4e 5abd fec1 abbc f096 2abd
00000200: 0f94 54bd eee5 933c 0ff8 163d 4ff3 6e3d
00000210: 7297 c7bc 6210 933c 80fb 00bd b734 203d
00000220: 5201 06bd 51fb 6c3d 379b 0abd e082 47bc
00000230: 3861 f43b 74b0 7b3c 7ad0 a5bc 090a 053d
00000240: 54c6 0d3c 0cb7 22bd 768d f83c de10 03bd
00000250: d054 90bb ff2f 27bd c4d4 26bd 0681 2bbd
00000260: 30f7 6d3b a355 4bbd 65e2 533d e9c1 553d
00000270: 7b19 433d 6e01 93bc b157 153d c42c 98bc
00000280: ea53 37bd d5db 6ebd 849d 7d3c 9769 613d
00000290: 1aaf cf3c 39d4 003d ed87 6f3d 7aa6 8d3c
000002a0: 3441 4fbd 926a 893c 8361 5abd d603 a8bc
000002b0: 7ea8 c7bc ecf1 0c3c 40e3 52bd 9419 bfbc
000002c0: 6279 c7bc 4cdb 503c ec4a 513c fbed 1c3d
000002d0: 5ecf 54bd 125b b0bc e81f b4bb 3cd5 093c
000002e0: 769e 36bd bcb6 153c a6ce fd3c c016 6eba
000002f0: 4700 223d 9583 383d 20e6 64bd f7d6 41bd
00000300: 48ad babb a9bf 2c3d 0644 903c 4acb 96bc
00000310: ddd5 5a3d 666d 39bd 741b febc c0ec 873a
00000320: 7ba0 6e3d f99c 17bd 3ca3 00bd 3c0a b3bc
00000330: 5ef3 833c 953b 173d 1f51 17bd c07e 0d3b
00000340: 7d97 5b3d 50b0 2bbb d63b fc3c 9e48 c6bc
00000350: a423 45bd 9462 0d3c 44c9 153c 5835 a73b
00000360: 0819 d03b 370a f7bc ce00 f53c 861b fcbc
00000370: c92d 6dbd c85f babb 595e 40bd 89f0 393d
00000380: ac02 293c a310 e7bc 70a6 1bbd cb53 203d
00000390: 8d52 1d3d 70f8 d5bb 221a b5bc 2b2a 543d
000003a0: 754c 05bd 1306 6cbd 1ea3 aa3c b0e3 38bc
000003b0: dce0 663c 01b6 2dbd eae6 aa3c a005 fd3a
000003c0: 1065 2abb c8b8 dbbc 61f4 523d a44c 6c3c
000003d0: 92da 8abc 7173 31bd 3194 593d 6658 0cbd
000003e0: ac96 51bc 32b1 973c 9aaa e33c 04b4 99bc
000003f0: d487 293c 49d4 083d 32c8 41bd 4c5c 3d3c

conv3.bias f4 [16]
-0.04665206 -0.012208145 -0.019551516 -0.020519424 0.05168939 0.04355586 0.02321488 -0.031734116
-0.023177668 -0.021250047 0.022396702 -0.0035026073 -0.030789671 0.042960893 -0.054489195 -0.040389325
00000000: 3b16 3fbd ac04 48bc 802a a0bc 5a18 a8bc
00000010: 41b8 533d a167 323d 222d be3c a2fb 01bd
00000020: 18df bdbc 9414 aebc 4a79 b73c 008c 65bb
00000030: 9f3a fcbc c3f7 2f3d 1030 5fbd 476f 25bd

norm3.weight f4 [16]
1.0 1.0 1.0 1.0 1.0 1.0 1.0 1.0
1.0 1.0 1.0 1.0 1.0 1.0 1.0 1.0
00000000: 0000 803f 0000 803f 0000 803f 0000 803f
00000010: 0000 803f 0000 803f 0000 803f 0000 803f
00000020: 0000 803f 0000 803f 0000 803f 0000 803f
00000030: 0000 803f 0000 803f 0000 803f 0000 803f

norm3.bias f4 [16]
0.0 0.0 0.0 0.0 0.0 0.0 0.0 0.0
0.0 0.0 0.0 0.0 0.0 0.0 0.0 0.0
00000000: 0000 0000 0000 0000 0000 0000 0000 0000
00000010: 0000 0000 0000 0000 0000 0000 0000 0000
00000020: 0000 0000 0000 0000 0000 0000 0000 0000
00000030: 0000 0000 0000 0000 0000 0000 0000 0000

norm3.running_mean f4 [16]
0.0 0.0 0.0 0.0 0.0 0.0 0.0 0.0
0.0 0.0 0.0 0.0 0.0 0.0 0.0 0.0
00000000: 0000 0000 0000 0000 0000 0000 0000 0000
00000010: 0000 0000 0000 0000 0000 0000 0000 0000
00000020: 0000 0000 0000 0000 0000 0000 0000 0000
00000030: 0000 0000 0000 0000 0000 0000 0000 0000

norm3.running_var f4 [16]
1.0 1.0 1.0 1.0 1.0 1.0 1.0 1.0
1.0 1.0 1.0 1.0 1.0 1.0 1.0 1.0
00000000: 0000 803f 0000 803f 0000 803f 0000 803f
00000010: 0000 803f 0000 803f 0000 803f 0000 803f
00000020: 0000 803f 0000 803f 0000 803f 0000 803f
00000030: 0000 803f 0000 803f 0000 803f 0000 803f

lin1.weight f4 [64, 768]
-0.019135218 -0.03497284 0.028572671 0.0040110834 -0.00558109 -0.0026632585 0.035034075 -0.020097403
0.020324063 0.0063532665 -0.020729221 -0.009653321 0.013952494 0.03079658 0.03222359 0.01950036
0.03200742 -0.008855276 -0.0051759835 0.0070890673 -0.012061864 -0.030347753 -0.030997459 -0.02022854
0.004414536 -0.011919955 -0.021970473 -0.015215725 -0.0025630444 -0.0057701375 0.00970548 0.024240486
0.01983402 -0.03493537 0.0025836714 -0.02059117 -0.036026582 0.026127059 0.001203604 -0.02258206
-0.023396438 -0.034693047 0.012471557 -0.00930007 0.030715175 0.009411331 0.005983118 0.010312922
-0.014078043 0.016511515 -0.015809428 0.011946712 -0.03095966 -0.023779154 -0.03388135 -0.029354198
0.0047131553 -0.006490238 0.018866248 -0.009357475 -0.0013871528 -0.02154433 -0.0045856647 -0.014800208
0.022150937 -0.00065976754 0.02120468 0.02856449 -0.018178217 0.0030868948 0.034766935 -0.020933831
0.030712076 -0.020303113 0.026086424 -0.014950471 0.0044075213 -0.00011692941 -0.012596497 -0.0036149733
-0.021994716 0.025624525 -0.02289122 0.022633795 0.03511697 -0.03108532 0.0066429563 -0.034837075
0.018497434 -0.0061672386 -0.027471699 0.011369269 -0.008208901 0.034038328 -0.010883942 -0.022371612
0.033773676 0.024958983 0.022979166 -0.014720289 0.013666939 0.03271023 0.022777073 0.010040477
0.0042798184 0.0036099441 0.008248694 0.008238576 -0.033990696 0.02670794 -0.028187137 -0.0335969
0.010186978 0.026981398 -0.031110745 -0.01960228 -0.018101493 -0.03491799 0.0071688183 0.0087275915
-0.0062206183 -0.017305594 0.019258339 -0.02695765 0.017448701 -0.035242964 0.026940443 0.009203441
0.012184486 0.015313007 -0.014182087 0.002537962 -0.008153096 -0.011315521 0.022562347 0.014499217
-0.020334447 -0.0017022416 0.024504356 -0.02697229 -0.022017896 0.011550307 0.0029600635 -0.015367532
-0.0151053555 -0.026696235 -0.035900965 -0.025473889 0.025302682 -0.020832047 0.022447575 0.011335466
0.014013734 0.03520146 0.010278329 0.020576421 -0.007923748 -0.03438279 0.035815448 0.009735137
0.03545487 0.011554882 -0.035123833 -0.01006512 0.017418928 0.014971912 -0.004700344 -0.02358563
0.035096884 0.013170812 0.026883192 0.014079832 0.015554838 0.006873071 -0.031871077 0.019817244
0.02442564 0.021733716 -0.018661428 0.0345707 -0.00025993958 -0.028697595 0.0078021474 0.022371799
-0.02899338 -0.019001516 -0.009447785 -0.01222877 0.033434093 0.01253064 -0.024110895 0.03450901
0.025552139 0.0071219616 0.0073670447 -0.031159062 -0.02546839 -0.017313892 -0.03273586 -0.023066375
-0.028137695 0.004729297 -0.0014564767 0.027371965 -0.012407064 0.006209884 -0.022780966 -0.024735576
-0.00069304183 0.010603357 -0.018882757 0.011980832 -0.03297978 -0.025919728 0.007091582 -0.005593717
0.035474807 -0.007251017 -0.014033457 -0.02574454 -0.023471273 0.0352699 0.03258559 0.018584669
0.033788793 -0.032850098 0.007449817 0.0132209435 -0.018728545 -0.03581706 0.005984135 0.032086946
0.029575787 -0.017330622 -0.035300642 0.028070867 -0.009298438 -0.01087435 -0.009605138 -0.01454084
-0.026962325 0.023269523 -0.03498249 -0.0071832966 0.0079299025 0.034256496 -0.015458034 0.010992449
0.010099482 -0.0022866018 0.008133139 0.026940607 -0.011143006 0.015129946 -0.0063051656 0.009624582
00000000: 76c1 9cbc ae3f 0fbd 3c11 ea3c 686f 833b
00000010: 94e1 b6bb 108a 2ebb e47f 0f3d 4fa3 a4bc
00000020: a67e a63c 102f d03b 54d0 a9bc f628 1ebc
00000030: 0099 643c 1c49 fc3c e2fc 033d 38bf 9f3c
00000040: 361a 033d b815 11bc 4c9b a9bb 684b e83b
00000050: 209f 45bc da9b f8bc 62ee fdbc 53b6 a5bc
00000060: d0a7 903b ea4b 43bc 6cfb b3bc 604b 79bc
00000070: c0f8 27bb 6c13 bdbb bc03 1f3c fc93 c63c
00000080: f47a a23c 6418 0fbd d052 293b d0ae a8bc
00000090: 9c90 13bd 6a08 d63c 40c2 9d3a 03fe b8bc
000000a0: e3a9 bfbc 4c1a 0ebd 8055 4c3c 525f 18bc
000000b0: 649e fb3c fc31 1a3c 080e c43b 88f7 283c
000000c0: 98a7 66bc 2843 873c c682 81bc 24bc 433c
000000d0: 1d9f fdbc 80cc c2bc 2cc7 0abd 3778 f0bc
000000e0: d070 9a3b 10ac d4bb 648d 9a3c 1850 19bc
000000f0: 20d1 b5ba bc7d b0bc 5843 96bb 927c 72bc
00000100: e275 b53c 40f4 2cba 70b5 ad3c 1400 ea3c
00000110: 7cea 94bc 804d 4a3b c667 0e3d 6d7d abbc
00000120: e497 fb3c b752 a6bc 32b3 d53c d2f2 74bc
00000130: f86c 903b 0038 f5b8 8a61 4ebc 30e9 6cbb
00000140: 432e b4bc 86ea d13c 5e86 bbbc 826a b93c
00000150: d0d6 0f3d a4a6 febc 28ad d93b 52b1 0ebd
00000160: ee87 973c 8c16 cabb 540c e1bc 2c46 3a3c
00000170: a07e 06bc c66b 0b3d 9052 32bc ac44 b7bc
00000180: 4456 0a3d c876 cc3c ce3e bc3c 5e2d 71bc
00000190: 4ceb 5f3c 2afb 053d fc96 ba3c d080 243c
000001a0: b83d 8c3b d094 6c3b 8825 073c 18fb 063c
000001b0: d439 0bbd 9cca da3c b6e8 e6bc e79c 09bd
000001c0: 48e7 263c 1808 dd3c f6db febc f694 a0bc
000001d0: 9549 94bc 2b06 0fbd 68e8 ea3b 2cfe 0e3c
000001e0: 54d6 cbbb 76c4 8dbc aac3 9d3c 4ad6 dcbc
000001f0: 94f0 8e3c ed5a 10bd 34b2 dc3c 08ca 163c
00000200: 70a1 473c 68e3 7a3c fc5b 68bc f053 263b
00000210: 9094 05bc bc64 39bc acd4 b83c 208e 6d3c
00000220: 6d94 a6bc c01d dfba 5cbd c83c fef4 dcbc
00000230: e05e b4bc 803d 3d3c a0fd 413b 1ac8 7bbc
00000240: 747c 77bc 10b2 dabc e40c 13bd 9eae d0bc
00000250: 9247 cf3c f8a7 aabc fae3 b73c 64b8 393c
00000260: dc99 653c 682f 103d 7066 283c e28f a83c
00000270: 9cd2 01bc f8d4 0cbd 38b3 123d 2080 1f3c
00000280: 2039 113d b050 3d3c 02de 0fbd 2ce8 24bc
00000290: 24b2 8e3c c04c 753c 5805 9abb a736 c1bc
000002a0: c0c1 0f3d 64ca 573c 243a dc3c 18af 663c
000002b0: b8d9 7e3c 8037 e13b 3f8b 02bd c657 a23c
000002c0: 4818 c83c e80a b23c dadf 98bc 029a 0d3d
000002d0: 8048 88b9 3817 ebbc 28a9 ff3b 1045 b73c
000002e0: 8683 edbc 11a9 9bbc e2ca 1abc 2e5b 48bc
000002f0: 30f2 083d 504d 4d3c 3684 c5bc 5259 0d3d
00000300: b852 d13c 585f e93b 4067 f13b 4a41 ffbc
00000310: 16a3 d0bc ddd5 8dbc 0a16 06bd b2f5 bcbc
00000320: 0681 e6bc 38f8 9a3b 40e7 beba 2c3b e03c
00000330: 0047 4bbc 487c cb3b 269f babc 43a2 cabc
00000340: 40ad 35ba b4b9 2d3c 03b0 9abc 404b 443c
00000350: ce15 07bd 9c55 d4bc 8060 e83b 804b b7bb
00000360: 084e 113d f099 edbb 96ec 65bc 37e6 d2bc
00000370: d446 c0bc 2c77 103d 7878 053d e03e 983c
00000380: 1e66 0a3d d38d 06bd 981d f43b a89c 583c
00000390: 9b6c 99bc e9b4 12bd 9016 c43b 9a6d 033d
000003a0: ec48 f23c f3f8 8dbc 6897 10bd e0f4 e53c
000003b0: 7a58 18bc 542a 32bc de5e 1dbc b43c 6ebc
000003c0: 18e0 dcbc ba9f be3c cd49 0fbd dc61 ebbb
000003d0: 6cec 013c 8a50 0c3d b243 7dbc ac19 343c
000003e0: 4c78 253c d0da 15bb dc40 053c 8cb2 dc3c
000003f0: 2891 36bc 98e3 773c 909b cebb 6cb0 1d3c

lin1.bias f4 [64]
0.008595578 -0.007645324 0.0103877 -0.033064365 0.0020911247 -0.022022095 -0.030691452 0.03138668
-0.005658813 0.028895453 0.0057792515 -0.022917327 -0.0106070135 0.018219586 -0.03203653 -0.017098172
0.010825522 0.03020899 0.0019214116 -0.0304466 -0.0034414046 -0.0066208243 0.0058062077 -0.018417489
0.018657655 -0.030590162 0.03097301 0.03202243 0.019950926 0.027998373 0.00056817755 -0.029096378
-0.0071167294 -0.01360612 0.011287067 -0.018740745 -0.003518708 -0.031443827 -0.008905768 0.015265133
0.03381814 0.033165276 0.023822248 -0.007337557 0.025809422 -0.03148499 -0.002136279 -0.00530505
-0.0021762587 0.0024199337 -0.007933186 -0.01606461 -0.013942948 0.004225064 -0.02847953 -0.021635627
0.0048287064 -0.01653946 -0.022347473 -0.0326142 0.0251651 -0.02668101 0.018015679 0.026133563
00000000: 78d4 0c3c a085 fabb 2c31 2a3c 806e 07bd
00000010: 400b 093b ae67 b4bc a46c fbbc 528f 003d
00000020: 906d b9bb 28b6 ec3c e05f bd3b 1ebd bbbc
00000030: 0ac9 2dbc 3e41 953c bd38 03bd 7711 8cbc
00000040: 885d 313c d878 f73c e0d7 fb3a 266b f9bc
00000050: 3089 61bb 80f3 d8bb 0042 be3b 46e0 96bc
00000060: f0d7 983c 3898 fabc 1cbb fd3c f429 033d
00000070: 2070 a33c d85c e53c c0f1 143a 875b eebc
00000080: 7433 e9bb 34ec 5ebc 64ed 383c 3186 99bc
00000090: 209a 66bb 3ecb 00bd 80e9 11bc 9c1a 7a3c
000000a0: e484 0a3d 50d8 073d e026 c33c e46f f0bb
000000b0: 486e d33c 68f6 00bd d000 0cbb fcd5 adbb
000000c0: 909f 0ebb c097 1e3b 32fa 01bc ee99 83bc
000000d0: f670 64bc 6872 8a3b e74d e9bc 333d b1bc
000000e0: 203a 9e3b c37d 87bc 0c12 b7bc 7896 05bd
000000f0: 0a27 ce3c 2292 dabc 9e95 933c 0e16 d63c

lin2.weight f4 [16, 64]
-0.05818066 -0.03781788 -0.096248984 -0.057299256 -0.12459928 -0.0049977154 0.10271712 -0.0098146945
0.024470463 0.004010439 0.062464684 -0.11344063 0.04405059 0.04672855 0.06508495 -0.12467414
-0.05537495 0.07417819 0.05802858 0.055125475 0.07801363 -0.08040033 -0.059181824 0.12181941
0.016869739 -0.006963283 0.019599602 0.007030964 0.1210981 0.01205194 -0.0159868 0.0138961375
-0.08221054 -0.029165745 -0.075933754 0.016115218 -0.09014425 0.047696993 0.12230818 -0.04442075
-0.028320462 0.073045075 -0.122945115 0.044076964 0.030086443 -0.11831331 -0.017698437 0.12271102
-0.08787733 -0.0718033 -0.022712514 -0.027681768 -0.072087914 0.123309895 0.088772506 -0.041908115
0.048459575 -0.07842933 -0.07369797 0.025800928 -0.123560324 -0.09817673 -0.06331146 0.027308077
0.08752088 0.08011398 0.063912645 0.037794814 -0.055427372 0.11307378 -0.025805205 0.10240154
-0.032330707 0.037205935 0.040764377 0.022867262 0.001111716 -0.032990173 0.062811986 -0.056154206
-0.035421014 -0.09463872 -0.11088003 0.0042063147 0.027148604 -0.09766315 0.12321551 0.031233639
-0.0027860254 0.12207712 0.10361683 -0.12078731 -0.11132227 0.12106556 -0.058635786 0.0066220313
-0.07235575 -0.007667169 -0.11716646 0.08149214 -0.051158383 0.028252006 0.08168903 0.066449136
-0.12233652 -0.122537196 -0.08163527 -0.014644638 0.06587386 -0.019974887 -0.11881812 -0.0740457
0.021674737 0.05351442 -0.08962135 -0.07375234 0.0926889 0.09463918 0.102061436 0.11196917
0.03629297 0.10686228 0.11998062 -0.111420795 0.073748365 -0.06621392 0.117907226 0.122605905
0.045233116 0.002263993 0.013663501 0.09218159 -0.119646594 0.072157085 -0.06951128 -0.12163521
-0.021702245 -0.027451381 -0.11422847 0.04961431 -0.06315267 0.07527779 0.057077095 -0.12298581
-0.031002253 0.008511066 -0.012011319 0.07347436 -0.08307643 0.047360003 -0.1119058 0.004807979
-0.012226358 0.0004155934 -0.039734617 0.061046317 -0.049935624 -0.039498746 -0.09785204 -0.098460466
0.09838295 -0.07436961 -0.028129607 -0.11195435 -0.018218786 0.08177206 0.1218878 0.053355217
0.052568644 -0.10512218 0.019335672 0.0073768646 -0.1233231 -0.11226715 0.034293696 -0.009520754
0.07309015 0.030439496 0.055132374 -0.052206427 -0.022875875 -0.025055692 -0.080174625 0.11596222
-0.01025489 0.0440152 0.081467584 2.7403235e-05 -0.027588114 0.104388654 -0.07637814 0.122645736
0.123979956 -0.035042495 0.09339078 0.030270934 -0.09807767 0.06850976 -0.07059038 -0.07549991
-0.073014066 -0.0389708 -0.121622175 0.041437387 0.053163365 0.06625447 -0.016399533 -0.040226817
-0.07893701 -0.042407006 0.10209295 -0.024629474 0.061788186 -0.07814917 -0.09266852 0.118452325
0.116804674 0.100450784 -0.04712926 -0.060936734 -0.09084724 -0.10898259 0.09687331 0.0475775
-0.04076606 0.06129153 -0.10770233 -0.036000967 0.034003362 0.067436844 -0.05812995 0.049331516
0.030681372 0.042973474 -0.089098215 0.014107257 -0.059293017 0.09814586 -0.10308607 0.06411876
-0.05343871 -0.09789449 0.011699125 -0.084117934 -0.008062482 0.09675452 0.051962227 0.09299949
-0.016197816 0.10154991 0.062948495 -0.011806071 0.063880086 0.038532272 -0.040078223 -0.0144286305
00000000: d84e 6ebd ece6 1abd 301e c5bd a0b2 6abd
00000010: e82d ffbd e0c3 a3bb 5a5d d23d d0cd 20bc
00000020: 4876 c83c 006a 833b f8da 7f3d 9053 e8bd
00000030: 646e 343d 7066 3f3d 424b 853d 2855 ffbd
00000040: d8d0 62bd bcea 973d 60af 6d3d 40cb 613d
00000050: 9cc5 9f3d eea8 a4bd a468 72bd 747c f93d
00000060: 6832 8a3c 402c e4bb 588f a03c 0064 e63b
00000070: 4802 f83d 8075 453c c0f6 82bc a0ac 633c
00000080: 005e a8bd 00ed eebc 2883 9bbd 1004 843c
00000090: 8c9d b8bd ec5d 433d b67c fa3d 88f2 35bd
000000a0: 5000 e8bc a898 953d a6ca fbbd 0c8a 343d
000000b0: d877 f63c 404e f2bd 50fc 90bc ea4f fb3d
000000c0: 08f9 b3bd 9c0d 93bd 980f babc e0c4 e2bc
000000d0: d4a2 93bd e689 fc3d 5cce b53d d8a7 2bbd
000000e0: 8c7d 463d 8e9f a0bd f6ee 96bd 785c d33c
000000f0: 320d fdbd e210 c9bd 70a9 81bd 30b5 df3c
00000100: 263e b33d cc12 a43d a2e4 823d bcce 1a3d
00000110: d007 63bd 3a93 e73d 7065 d3bc e6b7 d13d
00000120: 346d 04bd 4065 183d 8cf8 263d 2054 bb3c
00000130: 00b7 913a b420 07bd 92a3 803d f401 66bd
00000140: a015 11bd f2d1 c1bd 1215 e3bd 20d5 893b
00000150: c066 de3c 9e03 c8bd 6a58 fc3d b0dd ff3c
00000160: c095 36bb 9203 fa3d 1035 d43d 565f f7bd
00000170: eefc e3bd 38f1 f73d 142c 70bd a0fd d83b
00000180: 402f 94bd e03c fbbb f8f4 efbd 5ae5 a63d
00000190: 748b 51bd c070 e73c 944c a73d 7c16 883d
000001a0: 928b fabd c8f4 fabd 6430 a7bd 10f0 6fbc
000001b0: e0e8 863d 60a2 a3bc ea56 f3bd 46a5 97bd
000001c0: 388f b13c f031 5b3d 668b b7bd 780b 97bd
000001d0: aed3 bd3d 30d2 c13d 9605 d13d 1850 e53d
000001e0: f0a7 143d 9cda da3d 66b8 f53d 9630 e4bd
000001f0: 6209 973d 2a9b 87bd 5879 f13d ce18 fb3d
00000200: 5c46 393d 805f 143b e0dc 5f3c b4c9 bc3d
00000210: 4609 f5bd 18c7 933d ee5b 8ebd e21b f9bd
00000220: e8c8 b1bc b8e1 e0bc 9ef0 e9bd 6038 4b3d
00000230: 3056 81bd 3e2b 9a3d acc9 693d fcdf fbbd
00000240: 70f8 fdbc 0072 0b3c 20cb 44bc ba79 963d
00000250: fa23 aabd 90fc 413d de2e e5bd 408c 9d3b
00000260: 1051 48bc 00e4 d939 c4c0 22bd b40b 7a3d
00000270: 4c89 4cbd 70c9 21bd a666 c8bd a4a5 c9bd
00000280: 007d c93d 184f 98bd 1070 e6bc 5248 e5bd
00000290: 903f 95bc 1c78 a73d 50a0 f93d 008b 5a3d
000002a0: 3852 573d 4c4a d7bd d865 9e3c a0b9 f13b
000002b0: d290 fcbd 52ec e5bd 8c77 0c3d f0fc 1bbc
000002c0: 4ab0 953d 405c f93c 7cd2 613d 68d6 55bd
000002d0: 3066 bbbc 9841 cdbc 9832 a4bd 9a7d ed3d
000002e0: 2004 28bc 4849 343d 7ad8 a63d 00e0 e537
000002f0: 7800 e2bc b8c9 d53d 246c 9cbd b02d fb3d
00000300: 34e9 fd3d b888 0fbd aa43 bf3d c0fa f73c
00000310: f2dc c8bd d84e 8c3d b091 90bd b29f 9abd
00000320: 6688 95bd d89f 1fbd 0c15 f9bd 40ba 293d
00000330: d4c1 593d 6cb0 873d 5058 86bc e0c4 24bd
00000340: baa9 a1bd f8b2 2dbd 1c16 d13d c0c3 c9bc
00000350: 9c15 7d3d ac0c a0bd fec8 bdbd 2297 f23d
00000360: 4a37 ef3d 24b9 cd3d 9c0a 41bd cc98 79bd
00000370: 1e0e babd 4432 dfbd 8465 c63d a0e0 423d
00000380: 50fa 26bd d40c 7b3d 0a93 dcbd c075 13bd
00000390: 1c47 0b3d 541c 8a3d ac19 6ebd d80f 4a3d
000003a0: 8057 fb3c f404 303d 2079 b6bd 2022 673c
000003b0: 3cdd 72bd b200 c93d ca1e d3bd b250 833d
000003c0: 8ce2 5abd e87c c8bd b0ad 3f3c 0646 acbd
000003d0: 8018 04bc 3c27 c63d 58d6 543d 8476 be3d
000003e0: 48b1 84bc 66f9 cf3d 24eb 803d 406e 41bc
000003f0: 90d3 823d 04d4 1d3d 1029 24bd 1066 6cbc

lin2.bias f4 [16]
0.0890737 -0.11505546 -0.073940024 -0.0702977 -0.046042353 -0.050281495 0.07018381 0.0371058
-0.1107122 0.11222465 0.033735484 0.060186684 0.114522725 -0.034013182 -0.12459488 -0.07765685
00000000: 466c b63d 32a2 ebbd de6d 97bd 3ef8 8fbd
00000010: e896 3cbd f8f3 4dbd 88bc 8f3d 40fc 173d
00000020: 14bd e2bd 0ad6 e53d 382e 0a3d 5086 763d
00000030: e48a ea3d 6851 0bbd 9a2b ffbd 8e0a 9fbd

lin3.weight f4 [3, 16]
-0.18733248 -0.1950739 0.18022826 -0.037397355 -0.16898033 -0.21280816 -0.2432707 -0.18848196
-0.005094439 0.15208545 0.023208648 -0.10022721 0.013946325 0.103598565 0.119356096 0.00024706125
-0.015920132 -0.086619675 0.14520761 0.2140648 -0.07172161 -0.08545536 -0.24556261 -0.13237107
-0.15642995 0.21271116 -0.17995062 -0.1269702 0.091774166 0.17641526 0.18403804 -0.1948146
0.24937046 -0.092722386 -0.17450073 0.16398263 0.09626442 -0.19880116 0.08916673 0.028229654
0.13254899 0.09124857 0.12282002 0.18523178 -0.22778016 0.09511411 0.09037399 0.0231812
00000000: 16d4 3fbe 74c1 47be c28d 383e f82d 19bd
00000010: 2e09 2dbe 62ea 59be f41b 79be 6a01 41be
00000020: 40ef a6bb 4abc 1b3e 1020 be3c ec43 cdbd
00000030: 207f 643c 7c2b d43d f870 f43d 0088 8139
00000040: f06a 82bc a865 b1bd 4eb1 143e ce33 5b3e
00000050: c8e2 92bd 3803 afbd c474 7bbe 488c 07be
00000060: 2c2f 20be f4d0 593e fa44 38be 7a04 02be
00000070: 18f4 bb3d 34a6 343e 7874 3c3e 7a7d 47be
00000080: f85a 7f3e 3ce5 bdbd 52b0 32be 10eb 273e
00000090: 4826 c53d 8892 4bbe 0c9d b63d e041 e73c
000000a0: ecba 073e 88e0 ba3d 1089 fb3d 66ad 3d3e
000000b0: 343f 69be 30cb c23d 0016 b93d 80e6 bd3c

lin3.bias f4 [3]
0.15127471 0.04292515 0.096458524
00000000: c2e7 1a3e 48d2 2f3d 0c8c c53d
