dagger_models/model_2.pth (torch, 232098 bytes, 24 tensors)

conv1.weight f4 [4, 1, 5, 5]
0	0xbd2271a4	-0.039659157
1	0x3e1cfb08	0.15330136
2	0x3c753170	0.0149654
3	0xbcc77382	-0.02434707
4	0xbd657643	-0.056020986
5	0x3e216401	0.15760805
6	0xbe3e688a	-0.18594566
7	0xbe28dc97	-0.16490398
8	0xbe352f66	-0.17693862
9	0x3c406df3	0.011744964
10	0xbddd04f8	-0.10791963
11	0xbe308b96	-0.17240748
12	0xbdde76bd	-0.10862491
13	0x3c65da4a	0.014029095
14	0xbe161b48	-0.14658844
15	0x3dce4eaa	0.10073598
16	0xbdab5dc3	-0.08367493
17	0xbde67cbf	-0.11254262
18	0x3e086e92	0.13323429
19	0x3e15893d	0.14603133
20	0xbbd39c47	-0.0064578387
21	0xbd22ea16	-0.039774023
22	0xbddabdb7	-0.106807165
23	0xbd0ce12c	-0.034394428
24	0xbc52d4c2	-0.012868108
25	0x3cf38d7f	0.029730557
26	0x3be6ad57	0.0070397067
27	0xbd515837	-0.05110952
28	0x3c92ec8d	0.017935062
29	0x3e1ed5d7	0.15511261
30	0xbe2a7514	-0.16646224
31	0x3c75e28d	0.015007627
32	0x3ded8f07	0.11599546
33	0x3e35e803	0.17764287
34	0x3db064ae	0.08612953
35	0xbe2b429b	-0.16724627
36	0x3d3da254	0.046297386
37	0xbdbda701	-0.09260369
38	0x3dfacc11	0.12245954
39	0xbd9d98eb	-0.076951824
40	0x3e0160a5	0.12634523
41	0x3cab8303	0.020936495
42	0xbddea7a5	-0.108718194
43	0xbdbf2140	-0.09332514
44	0x3e480003	0.19531254
45	0xbe241683	-0.16024213
46	0x3e169004	0.14703375
47	0x3dc12419	0.09430713
48	0xbdb898e9	-0.0901354
49	0x3cf9459e	0.030428704
50	0x3e403c5f	0.1877303
51	0x3e00299a	0.1251587
52	0xbde46439	-0.111519285
53	0xbe107209	-0.14106001
54	0xbdcab3fd	-0.09897611
55	0x3defba93	0.11705508
56	0x3e2bb5ba	0.16768542
57	0x3e3717f8	0.17880237
58	0x3e20330d	0.15644474
59	0x3e2f778d	0.17135449
60	0x3ca2e707	0.019885553
61	0xbdd57649	-0.10422952
62	0xbd241954	-0.040063217
63	0x3e0a5532	0.13509062
64	0x3df2bb82	0.118521705
65	0xbe0bfa3a	-0.13669673
66	0xbe0fbc1c	-0.14036602
67	0x3e10593b	0.14096539
68	0x3e1dbf91	0.15405108
69	0x3e367acd	0.17820282
70	0x3e221549	0.15828432
71	0xbda42fe4	-0.08016947
72	0xbd9c9e41	-0.07647372
73	0x3d8fffd1	0.07031215
74	0x3e1cf6ed	0.1532857
75	0xbd3934be	-0.045216314
76	0xbd98e6f6	-0.07465927
77	0x3d569ad4	0.05239375
78	0xbe08f6eb	-0.13375442
79	0xbd3acf26	-0.04560771
80	0x3cfbaf48	0.030723229
81	0xbd51f57a	-0.051259495
82	0x3e4ceb95	0.20011742
83	0x3df1ad0b	0.118005835
84	0x3e3eff12	0.18651989
85	0x3d08a006	0.033355735
86	0xbd9ea60b	-0.07746514
87	0x3e46a245	0.19397838
88	0xbe36d6fc	-0.17855448
89	0x3e23dcbc	0.16002172
90	0xbe2a2e39	-0.16619195
91	0x3d2abbd0	0.04168302
92	0xbe07faa5	-0.13279207
93	0xbd061835	-0.03273793
94	0x3daf77e7	0.085677914
95	0xbd2390ae	-0.0399329
96	0x3e26fb2e	0.16306755
97	0xbcfd9fd8	-0.030960009
98	0xbe3feccd	-0.18742676
99	0x3df5a3af	0.11994111

conv1.bias f4 [4]
0	0xbd94cbe0	-0.072654486
1	0xbc8a151a	-0.016855765
2	0xbdf98880	-0.121842384
3	0x3e487aa7	0.19578038

norm1.weight f4 [4]
0	0x3f8003ea	1.0001194
1	0x3f7fd2c7	0.99930996
2	0x3f7ff1c0	0.99978256
3	0x3f8016ba	1.0006936

norm1.bias f4 [4]
0	0x3a0dc522	0.0005408098
1	0x3b0ff936	0.002196861
2	0x39cf47e8	0.0003953569
3	0xb977ceae	-0.0002363275

norm1.running_mean f4 [4]
0	0xc308e5b4	-136.89728
1	0x4276c498	61.691986
2	0x4352324e	210.1965
3	0x41f76282	30.9231

norm1.running_var f4 [4]
0	0x444ceb22	819.67395
1	0x43652b3c	229.16888
2	0x44e33d76	1817.9207
3	0x42b91941	92.549324

conv2.weight f4 [8, 4, 5, 5]
0	0x3c7fb5bd	0.015607295
1	0x3ce2c5fa	0.027682293
2	0xbbd6124d	-0.0065329433
3	0x3ccf7565	0.025324533
4	0xbdc1f384	-0.09470275
5	0x3dd333ae	0.103125915
6	0xbc4a9c3a	-0.012366349
7	0x3cfdd18a	0.030983705
8	0x3bd80250	0.0065920725
9	0x3dbf1cea	0.09331687
10	0xbd8bcc6e	-0.06826101
11	0x3d8362de	0.06415342
12	0x3d530188	0.051515132
13	0xbd571867	-0.052513506
14	0x3daef73f	0.08543252
15	0xbdb85f5e	-0.09002565
16	0x3d527a72	0.051386304
17	0x3d600ce8	0.05469981
18	0xbd54e96b	-0.051980417
19	0xbdc5e94d	-0.09663639
20	0x3da3decf	0.08001482
21	0xbc417ddd	-0.011809793
22	0xbcd5c2c1	-0.026093842
23	0x3d7eeb17	0.062235918
24	0x3cb4cac6	0.022069346
25	0x3d0e0db0	0.034681022
26	0xbd11eec3	-0.03562809
27	0x3d8cf78d	0.06883154
28	0x3db83923	0.08995273
29	0xbd8e0b42	-0.06935741
30	0x3d345753	0.04402859
31	0x3cef65fb	0.029223433
32	0xbcccd6ee	-0.02500483
33	0x3d8a3f13	0.06750312
34	0x3b7093ec	0.0036709262
35	0x3da6b4e5	0.08139972
36	0x3c68fffd	0.014221189
37	0x3ba7dec6	0.005122992
38	0xbce03067	-0.02736683
39	0xb9c3dd26	-0.00037358067
40	0xbdbf76df	-0.09348845
41	0x3d3c348e	0.045948558
42	0xbdc5cd2d	-0.09658275
43	0x3cdfb6ed	0.027308905
44	0x3dc3d75e	0.095625624
45	0xbd7c4d60	-0.061597228
46	0xbd497f47	-0.049193647
47	0xbc8c15ee	-0.0171003
48	0x3dbed13b	0.09317251
49	0x3db8ee86	0.0902987
50	0x3d883cb6	0.06652205
51	0x39b2486a	0.00034004758
52	0x3c34e607	0.011041171
53	0x3d71ef1c	0.059065923
54	0x3b844eca	0.0040377127
55	0xbb3c2e2d	-0.0028714046
56	0xbc7121fb	-0.014717574
57	0x3d378e2f	0.04481333
58	0xbbc79dbf	-0.006091803
59	0x3d727463	0.059193026
60	0xbc45aafa	-0.01206469
61	0xbd4f12e7	-0.050555136
62	0x3d676bba	0.05649922
63	0x3db17474	0.0866479
64	0xbd35997a	-0.04433582
65	0x3d1d4f8d	0.038405944
66	0x3d9a3351	0.07529319
67	0xbd0177bd	-0.031608332
68	0x3dba3188	0.090914786
69	0xbd4d95cc	-0.050191686
70	0xbccf36fa	-0.02529477
71	0xbd04992a	-0.03237263
72	0xbd216a15	-0.03940781
73	0xbd955aa2	-0.072926775
74	0x3d9d3570	0.07676208
75	0x3c502525	0.012704168
76	0x3ca1a49d	0.019731814
77	0xbcc3a0e0	-0.023880422
78	0x3c05f6eb	0.008176546
79	0x3d28d440	0.041218042
80	0xbd00ebaa	-0.031474747
81	0xbd14ed23	-0.036358964
82	0x3ceb9d56	0.028761547
83	0xbb44ed55	-0.0030048687
84	0x3d666e19	0.05625734
85	0xbdbb933c	-0.09158942
86	0x3d1e0157	0.038575497
87	0x3dbd7232	0.09250297
88	0x3da63c23	0.08116939
89	0xbd2536c2	-0.040335424
90	0x3cf2325a	0.029565025
91	0x3cb18023	0.021667546
92	0x3c203846	0.009779042
93	0x3db10b3b	0.0864472
94	0xbd222fe6	-0.03959646
95	0xbd792dbc	-0.06083463
96	0x3d11fddb	0.035642486
97	0xbd2179a3	-0.039422642
98	0x3d017472	0.03160519
99	0xbca3d255	-0.019997755
100	0xbd0c54da	-0.03426061
101	0x3ca14f0e	0.019691017
102	0xbdbc0c98	-0.091820896
103	0xbcff7a74	-0.03118632
104	0xbcc82b4a	-0.024434704
105	0x3daad69e	0.08341716
106	0x3d000f4f	0.0312646
107	0x3cc2a34d	0.023759509
108	0xbd08ac91	-0.033367697
109	0xbc969233	-0.01838026
110	0x3cfceba6	0.030874085
111	0xbd9dc908	-0.07704359
112	0xbcbd9984	-0.023144491
113	0x3dc2f611	0.0951959
114	0x3c03e8e1	0.008051128
115	0x3dd9797f	0.10618877
116	0x3bbfd301	0.005854011
117	0xbd8cdf15	-0.06878487
118	0x3d474a69	0.048654947
119	0x3dc20999	0.09474487
120	0xbdbdee76	-0.092739984
121	0x3d31094b	0.043221753
122	0xbd5a1519	-0.053242777
123	0x3ba8eb06	0.00515497
124	0x3c47acd6	0.012187203
125	0xbcd8c102	-0.02645922
126	0x3dbcb9be	0.09215115
127	0xbdc0c86e	-0.09413229
128	0xbca15598	-0.019694135
129	0xbd58f6d3	-0.052969765
130	0xbd3ae818	-0.045631498
131	0x3cef5bdb	0.029218605
132	0x3d61c21a	0.05511675
133	0xbdc805d8	-0.097667396
134	0xbb4a0100	-0.003082335
135	0x3accc6d4	0.001562322
136	0xbdcb1f32	-0.099180594
137	0x3d516ae2	0.051127322
138	0xbd4f6e41	-0.050642256
139	0xbc00988d	-0.007848871
140	0xbd80674d	-0.06269703
141	0xbd189101	-0.03724766
142	0x3d5bfd30	0.053708255
143	0xbdb40617	-0.08790224
144	0xbce8a589	-0.028399246
145	0xbc0e1e48	-0.008674212
146	0x3dce3d66	0.100703046
147	0xbdb07b6a	-0.08617289
148	0xbd657dfb	-0.056028347
149	0xbd86fd99	-0.06591339
150	0x3dbab2f1	0.091161616
151	0x3d15a136	0.036530696
152	0xbc76ea17	-0.01507046
153	0x3cf068d9	0.02934687
154	0x3d8b5d23	0.06804874
155	0x3da5a31c	0.08087751
156	0xbc21c711	-0.009874121
157	0xbc9efccc	-0.019407652
158	0xbd91772a	-0.07102807
159	0xbd1396ac	-0.036032364
160	0x3d8975bb	0.067119084
161	0xbdaed942	-0.085375324
162	0x3b30a4c2	0.0026953672
163	0xbb7bbe6c	-0.003841306
164	0x3ca32943	0.019917136
165	0xbd7ca576	-0.061681233
166	0xbb6f19a8	-0.0036483798
167	0x3d2ba41e	0.04190456
168	0x3dbf345b	0.09336158
169	0xbd26534c	-0.04060678
170	0x3c9463dc	0.018114023
171	0xbdcbd3dd	-0.09952519
172	0xbdc8a5d4	-0.09797254
173	0x3d9b8f11	0.07595647
174	0x3d690132	0.056885906
175	0x3c968f7a	0.018378962
176	0xbbfcad4f	-0.0077110897
177	0x3bbf5cef	0.005839936
178	0x3ca8a1c6	0.020584952
179	0x3ae11b9e	0.0017174368
180	0x3d4c2c4a	0.049846925
181	0xbac939b2	-0.0015352278
182	0xbda3c790	-0.07997048
183	0x3dc27865	0.0949562
184	0x3caf60b8	0.021408424
185	0x3d3d67eb	0.046241682
186	0x3dbeb7fc	0.09312436
187	0xbc1f63b8	-0.009728365
188	0x3d03b608	0.03215602
189	0x3db8ff42	0.090330616
190	0xbd865cb1	-0.06560648
191	0xbd8a88c9	-0.06764371
192	0x3d066e83	0.032820236
193	0xbd46f6a5	-0.048575062
194	0xbd6ac387	-0.057315376
195	0xbbf8a5d6	-0.0075881286
196	0x3d36689e	0.044533364
197	0xbd3240bb	-0.043518763
198	0xbcabfa8e	-0.020993497
199	0xbd2c9436	-0.042133532
200	0xbcf46ac0	-0.029836059
201	0x3ce0e46e	0.027452674
202	0x3d99e0a5	0.07513551
203	0x3db68560	0.08912158
204	0xbdc2b9c0	-0.09508085
205	0xbd85f89f	-0.06541561
206	0xbdbbcc2a	-0.091698006
207	0xbd7d64d0	-0.06186372
208	0x3d97fe4c	0.0742155
209	0x3db24d1c	0.08706114
210	0x3d843a5b	0.06456443
211	0xbca58e8e	-0.020209577
212	0xbd430b4e	-0.047618203
213	0xbdce6568	-0.100779355
214	0xbdbf3ac9	-0.09337384
215	0xbdb5a579	-0.08869452
216	0x3da4cb0f	0.08046543
217	0x3d70e42c	0.05881135
218	0xbda6e4e4	-0.08149126
219	0xbd101ace	-0.035181813
220	0x3c985b5b	0.01859825
221	0xbda3c9a2	-0.07997443
222	0xbd6941e8	-0.05694762
223	0xbd2bcb8f	-0.041942175
224	0xbd8f8bb5	-0.07009069
225	0xbca045ea	-0.019564588
226	0x3c4d5044	0.012531344
227	0xbd6a99f3	-0.057275724
228	0xbd2e2bfc	-0.042522416
229	0x3bf85f6c	0.0075797345
230	0xbd212bfc	-0.039348587
231	0x3d9d5605	0.076824225
232	0x3db7c722	0.089735284
233	0xbd636423	-0.05551542
234	0x3d3ff6f7	0.046866383
235	0x3d4eebac	0.050517723
236	0x3d2fa114	0.042878225
237	0x3d52b305	0.051440258
238	0xbd994b13	-0.074850224
239	0x3da4d25d	0.08047936
240	0x3d5e4325	0.054263253
241	0x3d13d1c2	0.036088713
242	0x3dc372ab	0.095433556
243	0x3dc5c9d4	0.09657636
244	0x3c58cb47	0.013232059
245	0x3da6ef51	0.08151115
246	0xbdcc8d09	-0.09987838
247	0x3d92d8c0	0.07170248
248	0xbd07066e	-0.032965116
249	0x3d977e8c	0.07397184
250	0x3c24f25a	0.010067547
251	0x3da85c3c	0.08220717
252	0xbd448b4a	-0.0479844
253	0x3d9a60ac	0.0753797
254	0x3d983d43	0.0743356
255	0xbc0a6372	-0.008446561

conv2.bias f4 [8]
0	0x3d8452b0	0.06461084
1	0xbc503596	-0.012708088
2	0x3dbf3d97	0.09337919
3	0x3d2267a3	0.039649617
4	0xbd9fe2a7	-0.078069024
5	0xbd93b568	-0.07212335
6	0xbdccbc38	-0.099968374
7	0x3a4a390c	0.0007714189

norm2.weight f4 [8]
0	0x3f7fbb60	0.99895287
1	0x3f800b35	1.000342
2	0x3f7fffc4	0.9999964
3	0x3f8014fb	1.0006403
4	0x3f7ff9b4	0.9999039
5	0x3f800478	1.0001364
6	0x3f800e76	1.0004413
7	0x3f7fd925	0.9994071

norm2.bias f4 [8]
0	0xba02bed7	-0.0004987544
1	0x397fbbce	0.00024388658
2	0x3a7386e9	0.00092898175
3	0xb864b039	-5.4523556e-05
4	0xb8ce5831	-9.8392724e-05
5	0x3a83ec0f	0.0010064858
6	0x399ea02d	0.0003025545
7	0xb807586c	-3.2268857e-05

norm2.running_mean f4 [8]
0	0x3f0ec5f1	0.55770785
1	0xbdffc250	-0.12488234
2	0x3d9151e4	0.070956975
3	0x3db3d112	0.08780111
4	0x3ec401f3	0.38282737
5	0x3cdd798c	0.027035497
6	0x3e0073f6	0.12544236
7	0xbd2fada3	-0.042890202

norm2.running_var f4 [8]
0	0x3e07801e	0.13232467
1	0x3d4fd113	0.050736498
2	0x3e7cef86	0.24700746
3	0x3dcb5757	0.09928768
4	0x3db3b1ed	0.08774171
5	0x3e79bde4	0.24388844
6	0x3d7e4775	0.062079865
7	0x3d1b12b8	0.03785965

conv3.weight f4 [16, 8, 6, 6]
0	0xbcdbf54c	-0.026850365
1	0x3d18739c	0.03721963
2	0xbd37752b	-0.044789474
3	0xbd202748	-0.03909996
4	0x3d52b103	0.051438343
5	0x3cbc2b83	0.022969967
6	0x3ce30ac6	0.027715098
7	0x3d3ec2c3	0.046572458
8	0xbc713f20	-0.014724523
9	0xb9b85b13	-0.0003516307
10	0xbd3d2f1a	-0.046187498
11	0x3d02cd8e	0.031934313
12	0x3d21df18	0.0395194
13	0xbd6a6627	-0.057226326
14	0xbd6731c3	-0.05644394
15	0x3c46c400	0.012131691
16	0x3d52a159	0.051423404
17	0x3c165996	0.009176632
18	0xbd10cc5e	-0.03535115
19	0xbc2617ca	-0.010137508
20	0x3c4a3d0d	0.012343657
21	0x3c82f944	0.015988
22	0xbd22d89d	-0.03975736
23	0x3d3d2adf	0.046183463
24	0x3d56dfee	0.05245965
25	0xbd46edbd	-0.04856657
26	0x3d31b523	0.043385636
27	0xbc8e82e3	-0.017396396
28	0xbc3d9dd4	-0.011573274
29	0xbd1053ce	-0.035236172
30	0x3d18c894	0.03730066
31	0x3c91c420	0.017793715
32	0x3c00a412	0.007851617
33	0x3ce4bd8f	0.02792242
34	0xbd1eb240	-0.03874421
35	0x3d5f6ce4	0.054547206
36	0xbd2caaa1	-0.042154912
37	0x3d383ab8	0.044977874
38	0xbc931a21	-0.017956795
39	0x3be3d2ca	0.0069526182
40	0xbd44b577	-0.04802462
41	0x3d2ab7ff	0.04167938
42	0x3d186d63	0.037213694
43	0xbc79bc4e	-0.015242649
44	0xb9ea358e	-0.0004467186
45	0xbd339edf	-0.043852683
46	0xbd57892f	-0.052621063
47	0x3d5211ee	0.05128663
48	0x3c80bf70	0.015716285
49	0x3c37c34e	0.011215998
50	0x396b9e93	0.0002247042
51	0x3d0378d2	0.032097645
52	0xbd0a76d0	-0.033804715
53	0xbcdf81c6	-0.02728356
54	0xbd0edfcf	-0.03488141
55	0xbd54ca64	-0.051950827
56	0x3d2c2ce3	0.042034995
57	0xbb731fa1	-0.003709771
58	0x3b69e7d1	0.0035691152
59	0x3d4eea19	0.05051622
60	0x3c86f6c7	0.016475094
61	0xbcca0d38	-0.024664506
62	0x3d651a8d	0.055933524
63	0xbd2ab193	-0.041673254
64	0xbd24e9cf	-0.04026204
65	0xbc785c8f	-0.015158786
66	0x3d2496e2	0.040182956
67	0x3c39f89f	0.01135078
68	0x3ba041a5	0.004890638
69	0x3cbb59e6	0.022870015
70	0x3d179a1e	0.037012212
71	0x3bb81d6b	0.0056187413
72	0x3d3f76f4	0.046744302
73	0xbc8d3dfe	-0.017241474
74	0x3d58c7c0	0.05292487
75	0x3d479fd1	0.048736397
76	0x3d15daa5	0.03658547
77	0xbd67ecbf	-0.056622263
78	0xbd09a172	-0.033601232
79	0x3d11c715	0.03559025
80	0xbd378cf4	-0.044812158
81	0xbd057440	-0.032581568
82	0xbcf907ef	-0.03039929
83	0x3d1fef2d	0.039046455
84	0x3bcd83d1	0.0062718173
85	0x3d42eeaa	0.04759089
86	0x3ca750e1	0.020424308
87	0x3d1e484f	0.038643178
88	0x385d9640	5.2830437e-05
89	0xbbcf919b	-0.006334496
90	0xbd250db8	-0.040296286
91	0xbc9bc270	-0.019013613
92	0xbd443414	-0.047901228
93	0x3cfe61da	0.031052519
94	0x3d2c6491	0.042088095
95	0xbc3c2834	-0.011484195
96	0xbcd444fe	-0.025911804
97	0x3d21e039	0.039520476
98	0xbd1da1c1	-0.03848434
99	0x3c00668d	0.00783695
100	0x3d5d7155	0.05406316
101	0x3aed3c86	0.0018099702
102	0x3d28f3d5	0.04124816
103	0x3d3e30b2	0.04643316
104	0xbce468ec	-0.027882062
105	0x3d144525	0.036198754
106	0xbd0c2386	-0.034213565
107	0x3b5caec2	0.00336735
108	0xbd0f59ef	-0.034997877
109	0x3b3084a1	0.0026934522
110	0xbd682969	-0.056680117
111	0xbcd74209	-0.026276605
112	0xbd33fce3	-0.043942343
113	0x3cecf9fb	0.028927794
114	0xbc1d8325	-0.009613787
115	0xbd22864b	-0.039678853
116	0x3d452e28	0.04813972
117	0xbd59b0a8	-0.05314699
118	0xbd5a4504	-0.053288475
119	0xbd0bdb95	-0.034144957
120	0xbd2cc7fd	-0.04218291
121	0x3d0965ba	0.03354428
122	0x3d27d9b0	0.040979087
123	0xbd087fb9	-0.03332493
124	0xbd4bd56c	-0.04976408
125	0xbd09c164	-0.033631697
126	0x3d2c4649	0.042059217
127	0x3bd3c66f	0.006462864
128	0x3d3a0a59	0.045420025
129	0xbd34fd1c	-0.044186696
130	0xbb2ad789	-0.002606841
131	0xbc6a6aa9	-0.014307656
132	0x3cdd7c05	0.027036676
133	0x3c524e10	0.012835994
134	0xbd562811	-0.052284304
135	0x3cee69e2	0.029103223
136	0xbb8a0aba	-0.0042127045
137	0x3c7939d0	0.0152115375
138	0x3cfe1622	0.031016413
139	0x3c5be4b0	0.013421223
140	0x3d5715b0	0.052510917
141	0x3d53b785	0.05168869
142	0x3d0d5c13	0.034511637
143	0xbbade1e7	-0.0053064707
144	0xbd3e4236	-0.046449862
145	0x3d080d56	0.033215843
146	0x3cb6605c	0.022262745
147	0x3c0f20b5	0.008735825
148	0xbd624a3a	-0.05524657
149	0xbd539227	-0.051653054
150	0xbd0af20d	-0.033922244
151	0xbd69dd6e	-0.057095937
152	0x3d4b28a6	0.049599312
153	0xbd5bf0ae	-0.053696327
154	0xbd4aa5fe	-0.04947471
155	0x3ca006d7	0.019534511
156	0xbc9eb52d	-0.0193735
157	0x3cb357d5	0.021892468
158	0xbbf577e7	-0.0074911
159	0x3a84cce6	0.0010131865
160	0xbcde626a	-0.027146537
161	0xbd41bb62	-0.047297843
162	0xbc228d0a	-0.009921322
163	0x3d54e16b	0.051972788
164	0xbc6e8627	-0.014558352
165	0xbcecc83d	-0.028904075
166	0xbc745d46	-0.014914816
167	0xbcf28e8a	-0.029608984
168	0x3be7b13b	0.007070688
169	0x3cde21e2	0.027115766
170	0xbbbe96c1	-0.005816311
171	0x3d396e1a	0.045271017
172	0xbcc53b7c	-0.024076216
173	0xbd692d4b	-0.05692796
174	0xbd4c85b8	-0.04993221
175	0xbd24374b	-0.040091794
176	0xbc103c24	-0.008803401
177	0xbc79828b	-0.015228878
178	0x3d2e4078	0.04254195
179	0xbb4a821c	-0.0030900305
180	0x3d4d17f0	0.050071657
181	0xbc75b7f5	-0.014997472
182	0x3ca75b5a	0.020429302
183	0x3ca9bf31	0.02072105
184	0xbcbcc7fe	-0.023044582
185	0x3d0afd85	0.03393318
186	0xbd494e81	-0.049147133
187	0x3d425ecc	0.047453687
188	0x3c17956f	0.009251936
189	0xbd175764	-0.036948577
190	0xbd2a017d	-0.041505326
191	0xbcb0f877	-0.021602852
192	0xba2ff4f1	-0.00067122193
193	0xbd53433a	-0.051577784
194	0xbd65f4a0	-0.056141496
195	0x3d310265	0.043215174
196	0x3d4f7612	0.05064971
197	0x3d496c08	0.049175292
198	0xbd66dc36	-0.056362353
199	0xbbfa3a4b	-0.0076363436
200	0x3caa829a	0.020814229
201	0xbcbed93c	-0.023296945
202	0x3d0e4f84	0.0347438
203	0x3d19575a	0.03743682
204	0xbca67945	-0.020321498
205	0xb9866d11	-0.00025639732
206	0xbcfc4ef0	-0.03079936
207	0xbd431d35	-0.047635276
208	0xbd05532c	-0.032550022
209	0xbd62372a	-0.05522839
210	0x3d6872d2	0.056750126
211	0xbcaecebc	-0.021338813
212	0x3d1590c4	0.036515012
213	0x3cea06af	0.02856764
214	0xbd3bfa85	-0.04589321
215	0xbcbd5e6e	-0.023116317
216	0xbbb9e757	-0.00567333
217	0x3d57d044	0.052688852
218	0x3d311916	0.043236814
219	0xbbbb5e1d	-0.0057180063
220	0xbbc22d78	-0.0059258305
221	0x3bb20a3c	0.005433349
222	0x3d0e48d5	0.034737427
223	0x3d657d80	0.05602789
224	0x3cfac3a6	0.03061087
225	0xbcfa2955	-0.030537287
226	0xbd42a6bc	-0.04752229
227	0xbc8b6815	-0.017017404
228	0x3d1a7383	0.037707817
229	0xbcca6f21	-0.024711194
230	0x3c5e1ec8	0.0135571435
231	0xbd114d30	-0.035474002
232	0xbc07e94b	-0.0082953675
233	0xbcb4208c	-0.021988176
234	0xbced2489	-0.028948085
235	0x3d1fc8b5	0.03900977
236	0x3d333ffb	0.04376219
237	0x3c42951b	0.01187637
238	0x3d5fed5d	0.054669727
239	0xbcc4d6d8	-0.024028227
240	0xbc957170	-0.018242568
241	0xbbe93593	-0.0071169822
242	0x3c59d563	0.013295504
243	0x3d6aca19	0.05732164
244	0xbca4d253	-0.020119822
245	0xbd0dd2d9	-0.034624908
246	0xbd02c8e0	-0.03192985
247	0x3d692d8c	0.056928203
248	0xbd23193c	-0.039818987
249	0xbc2d6af0	-0.010584578
250	0xbd0d8e7b	-0.034559708
251	0xbcc20120	-0.023682177
252	0x3c718729	0.014741697
253	0x3d1be25e	0.038057677
254	0xbccd81f9	-0.02508639
255	0xbc9975fe	-0.01873302

conv3.bias f4 [16]
0	0xbd4f41f3	-0.050600003
1	0xbd6d0cef	-0.057873663
2	0xbd38cdff	-0.04511833
3	0xbd0665c5	-0.0328119
4	0xbd2e424b	-0.04254369
5	0x3cc30a7d	0.023808712
6	0x3d06c836	0.03290578
7	0x3c5f5371	0.013630734
8	0x3d611b62	0.054957755
9	0xbc8f6cef	-0.017507998
10	0xbcdeff53	-0.027221357
11	0x3d1d02fa	0.038332917
12	0xbce0d828	-0.027446821
13	0xba9fe97a	-0.0012200319
14	0xbce16340	-0.027513146
15	0x3c23c7fc	0.00999641

norm3.weight f4 [16]
0	0x3f802431	1.0011045
1	0x3f800baa	1.000356
2	0x3f800a20	1.000309
3	0x3f801c96	1.0008724
4	0x3f801464	1.0006223
5	0x3f7ff392	0.99981034
6	0x3f802973	1.0012649
7	0x3f7fd7f9	0.99938923
8	0x3f8046be	1.0021589
9	0x3f800974	1.0002885
10	0x3f803637	1.0016545
11	0x3f807f23	1.0038799
12	0x3f8028fb	1.0012506
13	0x3f8032ab	1.0015463
14	0x3f7fd893	0.9993984
15	0x3f802a7b	1.0012964

norm3.bias f4 [16]
0	0x3a5f2b37	0.00085132144
1	0x3a06ccb7	0.0005142199
2	0x3a7b2b3d	0.0009581333
3	0x3a683303	0.0008857699
4	0x38428f88	4.638688e-05
5	0xb930a072	-0.00016844439
6	0x3a9622bc	0.0011454443
7	0xba4e9e7b	-0.0007881892
8	0x3ad93fdf	0.0016574821
9	0x3952d92b	0.00020108062
10	0x3af4ad69	0.0018667403
11	0x3b2d3581	0.0026429596
12	0x3aa7e039	0.0012807912
13	0x39adae3a	0.0003312694
14	0xb9f8ac09	-0.00047430422
15	0x3a672975	0.0008818128

norm3.running_mean f4 [16]
0	0xbe9e44f0	-0.3091197
1	0x3e45f3b8	0.19331253
2	0x3ce0f7a0	0.027461827
3	0xbf045ccf	-0.51704115
4	0x3c1e3f63	0.009658667
5	0x3e8d6f2e	0.27623886
6	0x3dcb21cf	0.09918558
7	0xbf2818f6	-0.6566309
8	0xbc0430f0	-0.008068308
9	0xbf1761a4	-0.5913336
10	0xbe489ada	-0.19590321
11	0x3e82938d	0.25503197
12	0x3f46e62d	0.7769497
13	0x3e5852ec	0.21125382
14	0x3d02d570	0.03194183
15	0xbda4de9a	-0.080502704

norm3.running_var f4 [16]
0	0x3eb2808a	0.34863693
1	0x3e5585b8	0.20851791
2	0x3e85add0	0.2610917
3	0x3ea99391	0.33120397
4	0x3e70f55e	0.235311
5	0x3e7b79ff	0.24558257
6	0x3eae56a2	0.3405047
7	0x3e9b5c96	0.30344075
8	0x3e8755af	0.2643256
9	0x3ebd7d73	0.37009773
10	0x3e13262a	0.14370027
11	0x3e56c798	0.20974576
12	0x3f1f4e0b	0.6222846
13	0x3e4dd53d	0.20100875
14	0x3ed360e9	0.41284874
15	0x3e544f0e	0.20733282

lin1.weight f4 [64, 768]
0	0xbc27d6e1	-0.010244102
1	0x3cd21269	0.025643544
2	0xbcb489e0	-0.0220384
3	0xbd0c22e7	-0.034212973
4	0x3d0966d4	0.03354533
5	0x3cd63c10	0.026151687
6	0xbcf77eba	-0.030211795
7	0x3c860871	0.016361447
8	0x3d0a5d49	0.03378037
9	0x3c79d423	0.015248331
10	0x3c4dd06c	0.012561899
11	0x3b8633ff	0.004095554
12	0x3bfff3f5	0.0078110644
13	0xbcce3268	-0.02517052
14	0xbcbb6e40	-0.02287972
15	0x3c1a20b0	0.009407207
16	0x3b2289b5	0.0024801318
17	0x3c1f0dce	0.009707881
18	0xbccb1895	-0.024791995
19	0x3cf70683	0.030154472
20	0xbc30e9ca	-0.010797927
21	0xbceb6b5a	-0.028737713
22	0x3cb7076b	0.022342404
23	0xbafde388	-0.0019370178
24	0xbcd29397	-0.025705142
25	0x3d0ee0f1	0.03488249
26	0x3cd70829	0.026249008
27	0x3c2c66a7	0.010522521
28	0x3cc5c53d	0.024141902
29	0xbc5e6a25	-0.0135751115
30	0x3ba23a44	0.0049507935
31	0x3c401486	0.011723643
32	0x3c9b77be	0.018977996
33	0xbccf6a81	-0.02531934
34	0x3bb95f35	0.0056571015
35	0x3d105fe0	0.035247684
36	0x3b90e1f6	0.004421468
37	0xb8a9c499	-8.095167e-05
38	0x3cdce018	0.026962325
39	0x3cdbda8e	0.026837613
40	0x3cfb8a6c	0.030705653
41	0x3cc0c5d4	0.023531832
42	0x3d13c9f1	0.03608126
43	0x3d0cde9c	0.034391984
44	0x3cbf3369	0.023339944
45	0x3ca3db8f	0.020002155
46	0x3c43f38a	0.01195992
47	0xbcbfe83a	-0.023426164
48	0x3cc3f3bf	0.023919938
49	0xbced01a1	-0.02893144
50	0xbd04b0a2	-0.032395013
51	0xbcb89a5a	-0.022534538
52	0xbbd3d63c	-0.0064647477
53	0xbd12eae9	-0.03586856
54	0x3b78f165	0.003798568
55	0x3c7f1a0f	0.015570178
56	0xbc0fc9a4	-0.008776102
57	0xbd0abad2	-0.033869572
58	0x3cf6f93b	0.03014814
59	0xbc78ea3a	-0.015192563
60	0x3cd21041	0.025642516
61	0xbbe86399	-0.007091951
62	0x3ce89788	0.028392568
63	0x3d08f5ad	0.03343742
64	0xbc9ff63a	-0.01952659
65	0x3cd488af	0.025944082
66	0x3c821b0c	0.015882038
67	0x3c93aead	0.018027628
68	0x3d01b70b	0.031668704
69	0xbd022245	-0.031770963
70	0x3cd4d22f	0.02597913
71	0x3c3adaf3	0.011404741
72	0xbcc804ac	-0.02441629
73	0xbcdf9eff	-0.027297495
74	0xba6df02d	-0.00090766215
75	0x3ca59495	0.020212451
76	0xbb297cd4	-0.0025861757
77	0x3c5e1cee	0.013556702
78	0xbbe0f9dd	-0.0068657235
79	0x3c0162d6	0.0078970995
80	0xbcab90af	-0.020943014
81	0x3d0305e8	0.031988055
82	0xbc89f73f	-0.016841529
83	0x3bcbc13f	0.006218105
84	0xbd0547bc	-0.032539114
85	0x3ce9a87e	0.028522726
86	0xbca3ead3	-0.020009434
87	0xbb1d7782	-0.002402753
88	0x3be3608b	0.006938999
89	0x3b222e6d	0.002474691
90	0xbd035036	-0.032058917
91	0xbcc98ce7	-0.02460332
92	0x3ce2413b	0.027618995
93	0x3c9701e3	0.018433517
94	0x3ceddf24	0.029037066
95	0x3c1fe885	0.009760027
96	0x3d048f4b	0.032363217
97	0xbc8011f4	-0.01563356
98	0xbd02a481	-0.031895164
99	0xbc57cde5	-0.013171648
100	0xbcd62136	-0.026138883
101	0x3c8438ab	0.016140303
102	0x3c97fdfc	0.018553726
103	0xbcb6efee	-0.022331204
104	0xbc989e5c	-0.0186302
105	0x3c9ac817	0.018894238
106	0x3c9f1594	0.019419469
107	0xbc6cc4eb	-0.014451246
108	0xbcad0f26	-0.021125387
109	0x3c567ec5	0.013091748
110	0x3be88c9e	0.007096841
111	0x3c787183	0.015163782
112	0xbc3bf468	-0.011471845
113	0xbcbca0ee	-0.023025956
114	0xbc1c7194	-0.0095485635
115	0xbcfab8b6	-0.030605655
116	0x3bbb74cb	0.00572071
117	0x371e36aa	9.430261e-06
118	0x3cc4c02e	0.02401742
119	0x3cddd728	0.027080134
120	0x3cc618aa	0.024181683
121	0x3cb3ff02	0.021972183
122	0x3b102dcc	0.0021999953
123	0xbbb9cdec	-0.0056702998
124	0x3c8762ea	0.016526658
125	0xbbdbaf1e	-0.006704225
126	0xbd037ba7	-0.032100346
127	0xbb92fcfb	-0.004485724
128	0x3c9d2f86	0.0191877
129	0x3c0a83f4	0.008454312
130	0x3c86392c	0.016384684
131	0xbcdd4f06	-0.02701522
132	0x3ce0da35	0.0274478
133	0xbbd26d0b	-0.0064216903
134	0x3acc6b48	0.0015595937
135	0xbbed4ceb	-0.0072418354
136	0xbc6e863f	-0.014558374
137	0xbcca2807	-0.02467729
138	0x3b9bce7a	0.0047548385
139	0x3caff051	0.021476896
140	0xbc238d0b	-0.009982358
141	0x3bcafa18	0.0061943643
142	0xbb2e8986	-0.0026632263
143	0xbc689ea9	-0.014197984
144	0x3d1042ab	0.03521983
145	0xbc9cb517	-0.01912932
146	0xbc29fb5c	-0.01037487
147	0xbb11fce1	-0.0022275972
148	0xbceb6127	-0.02873285
149	0x3c156425	0.009118115
150	0x3c89c631	0.016818138
151	0x3c52584e	0.012838436
152	0xbbbb0830	-0.005707763
153	0x3cd5b309	0.026086347
154	0x3c9d40a6	0.019195866
155	0x3cbe3b42	0.023221616
156	0xbc21cd36	-0.009875586
157	0x3ca669a2	0.020314042
158	0xbb0831da	-0.0020781667
159	0xbd0af188	-0.03392175
160	0xbb9881e7	-0.0046541574
161	0xbb15699b	-0.0022798541
162	0x3c1162fd	0.008873698
163	0xbc939309	-0.018014448
164	0xbcf75669	-0.03019257
165	0x3d0d2883	0.034462463
166	0xbc1533ec	-0.009106617
167	0xbd078020	-0.033081174
168	0xbc04371a	-0.008069778
169	0x3b90e798	0.0044221394
170	0x3c2831d5	0.010265787
171	0x3bbd9c7a	0.0057864757
172	0x3cb82d0f	0.022482423
173	0xbc3b7d13	-0.011443394
174	0x3d011474	0.031513646
175	0x3bd05a5f	0.0063584293
176	0xbb145973	-0.0022636324
177	0x3cc49bda	0.024000097
178	0xbbf8660b	-0.007580524
179	0xbcfaa81a	-0.030597735
180	0xbcc197e6	-0.023632001
181	0xbc349e75	-0.011024107
182	0x3d0089b5	0.031381328
183	0x3d037830	0.03209704
184	0x3d03ef4a	0.032210626
185	0xbc73a8c4	-0.01487178
186	0xbca986e8	-0.020694211
187	0xbc3c477f	-0.011491655
188	0x3d073022	0.033004887
189	0xbc7fbf2b	-0.015609543
190	0xbcf88de8	-0.030341104
191	0x3c69631b	0.01424482
192	0xbcd345a2	-0.02579004
193	0xbc8bfac5	-0.01708735
194	0x3b0be26a	0.002134467
195	0xba5a3ee4	-0.00083254115
196	0xbcf9224d	-0.030411864
197	0x3c59664b	0.013269017
198	0x3c8c0c38	0.01709567
199	0x3c9f0dfb	0.019415846
200	0xbc2c2ca6	-0.010508692
201	0x3ca89f84	0.020583875
202	0xbc39b571	-0.011334763
203	0xbd0a5cad	-0.03377979
204	0x3b47dbd9	0.003049603
205	0xbcecbb87	-0.028898014
206	0xbc912a1f	-0.01772028
207	0x3c362319	0.011116766
208	0xbc15f31d	-0.009152201
209	0x3cacdec6	0.02110232
210	0x3c902b91	0.0175989
211	0xbcb4b345	-0.022058139
212	0xbcc6eb1b	-0.024282029
213	0x3c1267e0	0.008935899
214	0xbc5133cc	-0.012768697
215	0x3ced21f2	0.02894685
216	0x37f44d2b	2.9123e-05
217	0xbcdbd18c	-0.026833318
218	0xbc469819	-0.012121224
219	0xbb186c7c	-0.002325802
220	0xba3018a7	-0.00067175407
221	0x3a73c745	0.0009299408
222	0x3cf4adf5	0.029868105
223	0x3d085e03	0.03329278
224	0x3b86122b	0.0040915213
225	0x3befef2b	0.007322212
226	0x3cf02c88	0.02931811
227	0x3c86ba6b	0.016446313
228	0x3c6c5e30	0.014426753
229	0x3b6b048b	0.0035860862
230	0x3ba98b21	0.005174056
231	0xbcb4a15a	-0.022049595
232	0x3cc34628	0.023837164
233	0xbcd1b497	-0.025598807
234	0x3cc5d406	0.024148952
235	0x3d10e53a	0.035374857
236	0xbcb74e31	-0.022376152
237	0xbc6bb03c	-0.014385279
238	0x3c4f19bb	0.012640412
239	0xbcd66a99	-0.026173877
240	0x3cd1a3d4	0.025590815
241	0xbc3244e5	-0.010880684
242	0xbbece5c4	-0.0072295386
243	0xbc871aa1	-0.01649219
244	0xbc64fa32	-0.013975667
245	0xbcc86046	-0.02445997
246	0xbc83de83	-0.016097313
247	0x3c944924	0.018101282
248	0x3b850521	0.0040594493
249	0x3c867bc2	0.016416434
250	0x3cae008a	0.021240491
251	0xb9c74169	-0.00038004972
252	0x3c4c1498	0.012456082
253	0xbcec2f81	-0.028831245
254	0x3ce1a559	0.027544664
255	0xbcdbdc5c	-0.026838474

lin1.bias f4 [64]
0	0xbc56a770	-0.013101444
1	0xbc19ef4c	-0.009395432
2	0xbca668bc	-0.020313613
3	0xbc940f10	-0.018073589
4	0xbc9b5160	-0.018959701
5	0xbd0f9015	-0.035049517
6	0x3aabf35c	0.0013118791
7	0xbbd52de3	-0.0065057143
8	0x3cb28b87	0.021795047
9	0xbb02b678	-0.0019945186
10	0x3ca234fe	0.01980066
11	0x3bcf28c8	0.006322
12	0xbba9dd9f	-0.00518389
13	0x3c102d30	0.008799836
14	0xbbc6794a	-0.0060569393
15	0x3cb500d9	0.02209513
16	0xbbe2d1b7	-0.0069219726
17	0x3ccf7805	0.025325784
18	0x3d122fa3	0.03568996
19	0xbc775b1c	-0.015097406
20	0xbbc51e79	-0.0060155955
21	0x3bad1d26	0.005283016
22	0xbbb211b4	-0.0054342393
23	0xbd127a6d	-0.035761286
24	0x3c55511c	0.013019826
25	0x3d0dd6df	0.034628745
26	0xbc86d493	-0.016458785
27	0x3cab7f97	0.020934863
28	0xbbfe90e8	-0.007768739
29	0x3cc0d41b	0.02353864
30	0x3bf91e19	0.007602465
31	0x3d02005d	0.031738628
32	0xbd0744e1	-0.033024672
33	0xbbffc656	-0.007805626
34	0x3b3acbe9	0.0028502888
35	0x3c9f0d55	0.019415537
36	0xbb9ed091	-0.0048466404
37	0x3c0856f0	0.008321509
38	0xbc9c0adc	-0.019048147
39	0xbada714e	-0.0016665848
40	0xbc7bc777	-0.01536738
41	0x3c99fd0b	0.018797418
42	0xbcae3054	-0.021263279
43	0xbce5ec20	-0.028066695
44	0x3c7ac690	0.01530613
45	0xbd06863c	-0.03284286
46	0x3cdc2d5b	0.026877096
47	0xbcdb48f1	-0.02676818
48	0xbc23faf0	-0.010008559
49	0x3ccbd804	0.024883278
50	0xbc5abf0c	-0.013351213
51	0xbcb3985f	-0.021923242
52	0xbd07e307	-0.033175495
53	0x3d07ad50	0.033124268
54	0xbbe9633c	-0.0071224254
55	0xbcfb14de	-0.030649599
56	0xbd084ea8	-0.033278137
57	0x3bb2a857	0.0054521966
58	0xbc82be44	-0.015959866
59	0xbd163b7d	-0.036677826
60	0x3c2c47ae	0.010515137
61	0x3c8bd0d1	0.017067345
62	0xbc0ce259	-0.008598887
63	0x3bca57f0	0.0061750337

lin2.weight f4 [16, 64]
0	0x3ca3fa3a	0.020016778
1	0x3d887bbe	0.06664227
2	0xbd9824dd	-0.07428906
3	0x3ce90edf	0.028449474
4	0x3c131501	0.008977176
5	0xbd9c9d49	-0.07647187
6	0xbd263c22	-0.04058469
7	0x3d34eda2	0.044171937
8	0xbd9e0864	-0.07716444
9	0x3da7b344	0.08188489
10	0x3d7058e9	0.05867854
11	0xbdc06db1	-0.09395922
12	0x3db3292e	0.08748089
13	0x3bb70c33	0.005586171
14	0xbda6a11d	-0.08136199
15	0x3dd12b70	0.10213363
16	0xbd3dcec2	-0.046339758
17	0x3d36a8f5	0.044594724
18	0x3de927e1	0.113845594
19	0xbdb53703	-0.08848383
20	0x3d8ea04f	0.0696417
21	0x3d3394e1	0.043843154
22	0x3d64f5ea	0.055898584
23	0xbd9d905d	-0.07693551
24	0xbd4935f1	-0.04912371
25	0xbdca8d40	-0.098902225
26	0x3de840b8	0.11340469
27	0xbcb37a0b	-0.02190878
28	0xbd3e3521	-0.046437386
29	0x3d949bc8	0.072562754
30	0xbdb1bc5f	-0.08678507
31	0x3d4c7dde	0.049924724
32	0x3ddda000	0.10821533
33	0x3d858f3d	0.06521461
34	0xbdd8ad38	-0.10579914
35	0xbdc65a77	-0.096852235
36	0xbd9c916b	-0.07644924
37	0xbd7d093a	-0.061776377
38	0x3df140bd	0.11779926
39	0x3d7d0e30	0.06178111
40	0x3dc079ab	0.09398206
41	0x3d8a0249	0.06738717
42	0xbdcbe404	-0.099556
43	0x3db202e2	0.08691956
44	0xbb8a342c	-0.004217645
45	0x3da8e635	0.082470335
46	0x3deabb65	0.11461524
47	0x3c959eac	0.018264137
48	0xbd5c56b5	-0.053793628
49	0x3c1c9272	0.0095564
50	0x3bb1b339	0.0054229763
51	0x3cb365c8	0.021899119
52	0x3ca42c6a	0.02004071
53	0x3c461ad1	0.0120913545
54	0x3df1ee3f	0.1181302
55	0x3d1beacb	0.038065713
56	0x3ddad7a5	0.10685662
57	0xbd68c014	-0.056823805
58	0xbdc2fbf9	-0.09520716
59	0xbdc8c94f	-0.098040216
60	0xbddfcede	-0.10928129
61	0xbdcc9dd0	-0.09991038
62	0x3dda6b51	0.10665
63	0xbcf10a9c	-0.029424004
64	0xbd9258ce	-0.071458444
65	0xbc11ea33	-0.008905935
66	0x3b8a0fc3	0.0042133047
67	0x3d8ef053	0.06979432
68	0x3dec4d9e	0.11538242
69	0x3bec3ddd	0.007209523
70	0x3bc27a2b	0.0059349737
71	0x3e0a470b	0.13503663
72	0x3b9e7ce0	0.0048366636
73	0xbdc1f923	-0.09471347
74	0x3d98187d	0.07426546
75	0x3b60683e	0.003424182
76	0x3d153ed7	0.036436882
77	0xbda9f726	-0.08299093
78	0xbcc8a6ab	-0.024493536
79	0x3db91407	0.09037023
80	0x3c8ffd49	0.01757683
81	0xbdcfbf7f	-0.10143947
82	0xbd90925f	-0.07059168
83	0x3d4b8118	0.04968366
84	0xbd9a6e30	-0.07540548
85	0xbd3b597b	-0.045739632
86	0x3da67cb2	0.081292525
87	0xbd6d3cf0	-0.057919443
88	0xbdb37b89	-0.08763797
89	0x3de1b23f	0.11020326
90	0x3dab3dd3	0.083614014
91	0xbd4caae4	-0.04996766
92	0xbcdf73e6	-0.027276944
93	0xbd4842a1	-0.048891667
94	0xbd8dbb79	-0.06920523
95	0x3d89c946	0.06727843
96	0x3c8ce538	0.017199144
97	0xbdfe2d25	-0.124109544
98	0xbda5abd7	-0.080894165
99	0x3d945eed	0.07244668
100	0xbd0f04c0	-0.03491664
101	0xbd74c735	-0.05976029
102	0x3de40e45	0.11135534
103	0xbd7a41e2	-0.061097987
104	0x3da68105	0.08130077
105	0xbc9163f9	-0.017747866
106	0x3cfdc606	0.030978214
107	0xbafbea41	-0.0019219593
108	0x3e0129e2	0.12613633
109	0x3d87ebc8	0.066367686
110	0xbdbc03a8	-0.09180385
111	0x3d2fa4a8	0.042881638
112	0xbd27466e	-0.04083865
113	0x3d93941d	0.07205985
114	0xbd5e1986	-0.05422356
115	0xbc0b6cfb	-0.00850987
116	0x3dea658d	0.114451505
117	0x3d747445	0.059681196
118	0x3d82efd3	0.06393399
119	0xbdf56ca0	-0.11983609
120	0xbb6daca2	-0.0036266227
121	0x3de4ef07	0.11178403
122	0x3d43f7cf	0.04784375
123	0x3d3ec568	0.04657498
124	0x3d67b0fd	0.056565274
125	0xbc8d58fe	-0.017254349
126	0xbd6f983c	-0.05849479
127	0x3d91eafe	0.07124899
128	0xbdb40616	-0.08790223
129	0xbdd4df0c	-0.10394105
130	0xbda050e5	-0.078279294
131	0x3d472baf	0.048625644
132	0x3d151472	0.03639645
133	0xbdb1e1e6	-0.08685665
134	0xbd670817	-0.0564042
135	0xbd330268	-0.043703467
136	0x3dd0a849	0.10188348
137	0xbc35e6d3	-0.011102396
138	0xbdc78c60	-0.09743571
139	0x3cfa556c	0.03055831
140	0x3d6e0462	0.05810965
141	0xbde9c4d7	-0.11414497
142	0xbd00d132	-0.031449504
143	0x3d9e784e	0.0773779
144	0x3dd5b011	0.104339726
145	0xbda350ff	-0.07974433
146	0xbdac40a9	-0.084107704
147	0xbd468c91	-0.0484739
148	0x3d9e87ed	0.077407695
149	0x3d39b8e1	0.04534233
150	0x3ccb58ff	0.02482271
151	0xbc860c23	-0.01636321
152	0xbd7f5a73	-0.06234212
153	0xb9109d16	-0.00013791429
154	0x3d052cac	0.032513306
155	0x3dd2f864	0.10301283
156	0x3d88ad56	0.06673686
157	0x3d2b008c	0.04174857
158	0x3df13ced	0.11779199
159	0x3dd0a18f	0.10187065
160	0x38b037c2	8.40272e-05
161	0x3ce10242	0.027466897
162	0x3dea75dd	0.11448262
163	0x3da176f8	0.078840196
164	0xbb9abda2	-0.004722313
165	0x3dc95786	0.09831147
166	0xbcfcfeac	-0.030883156
167	0xbd3514a5	-0.04420914
168	0xbd9f46f8	-0.07777208
169	0x3dbd6c5f	0.09249186
170	0xbd1c7d1c	-0.03820525
171	0xbdadc53e	-0.084848866
172	0xbdedb3a3	-0.116065286
173	0xbd94f642	-0.072735325
174	0x3d6c2c20	0.05765927
175	0xbbfa7b84	-0.0076441187
176	0xbd866316	-0.06561868
177	0xbd597e64	-0.05309905
178	0x3cf6ad02	0.030111793
179	0xbd918f20	-0.07107377
180	0xbde47fdc	-0.111572
181	0x3d35d9e2	0.044397242
182	0xbdb70716	-0.089368984
183	0x3d035f9d	0.032073606
184	0xbccaa56f	-0.024737088
185	0xbdb2da4e	-0.087330446
186	0xbdc372fb	-0.09543415
187	0x3dd64490	0.10462296
188	0xbd96cf08	-0.07363707
189	0xbddfc269	-0.10925753
190	0x3dcaf75a	0.0991046
191	0x3ccaa228	0.024735525
192	0xbdc03bb8	-0.093863904
193	0xba07d3a8	-0.00051813805
194	0x3d3ada0d	0.045618106
195	0xbc06e858	-0.008234106
196	0x3d7bda4b	0.061487477
197	0xbcb41d57	-0.021986647
198	0xbdfad9b2	-0.12248553
199	0x3d985685	0.07438377
200	0xbd2379cc	-0.039911076
201	0x3d102373	0.035190057
202	0xbd812f69	-0.06307871
203	0x3d62eacb	0.055399697
204	0xbdb53a7d	-0.088490464
205	0xbde1d219	-0.11026401
206	0x3cefdbf8	0.029279694
207	0x3dc06e5c	0.093960494
208	0xbb8e809d	-0.004348828
209	0x3dbdaddc	0.09261677
210	0xbd8b4db1	-0.06801928
211	0x3d815ce0	0.063165426
212	0xbdd9e277	-0.10638898
213	0xbd132043	-0.03591944
214	0x3d8cfbd6	0.068839714
215	0x3d936c27	0.07198363
216	0xbdaf7c77	-0.08568662
217	0xbde5de48	-0.112240374
218	0xbd56bd6a	-0.052426733
219	0xbc180d61	-0.0092805335
220	0x3cc5cbbc	0.024145
221	0x3d7b9bf6	0.061428033
222	0xbd0c2dbe	-0.03422331
223	0x3d91b34e	0.07114278
224	0x3d1043d7	0.035220947
225	0xbdee78c0	-0.11644125
226	0x3dde6c29	0.10860474
227	0xbcaf34d6	-0.021387499
228	0xbd306431	-0.0430643
229	0x3b011595	0.0019696702
230	0x3b2bf5a9	0.0026238954
231	0xbd7d6789	-0.061866317
232	0x3d999f84	0.07501128
233	0x3df3fbca	0.11913259
234	0x3d12a727	0.03580394
235	0xbc3513e0	-0.011052102
236	0x3da6f6b1	0.081525214
237	0xbde6818e	-0.11255179
238	0x3de594dc	0.11210033
239	0xbc2bf84c	-0.01049621
240	0xbccfb933	-0.025356865
241	0xbdc2e6d1	-0.09516681
242	0x3d09613c	0.033539996
243	0x3bba6572	0.0056883628
244	0xbdd3c6bc	-0.1034064
245	0x3d60dc27	0.054897454
246	0x3dd9855b	0.10621139
247	0x3d8a024b	0.067387186
248	0x3cd37b34	0.025815584
249	0xbd5f1dbc	-0.054471716
250	0x3dcae79a	0.09907456
251	0xbd565bda	-0.05233369
252	0x3dbe8a7d	0.09303758
253	0xbdfe9971	-0.124316104
254	0xbd940587	-0.07227617
255	0xbdc8fa94	-0.09813419

lin2.bias f4 [16]
0	0xbdb28f7e	-0.08718775
1	0xbd60bbf5	-0.05486675
2	0x3dffe27c	0.1249437
3	0xbdab94f4	-0.0837802
4	0x3de05b8d	0.10954962
5	0x3d7e766d	0.06212466
6	0x3cb85656	0.022502106
7	0x3cd9effa	0.026603688
8	0xbce4edd0	-0.02794543
9	0xbdd12e36	-0.10213892
10	0x3c64428a	0.01393188
11	0x3d3c4d21	0.045971993
12	0xbbd00296	-0.0063479645
13	0x3d908023	0.0705569
14	0x3dd4236a	0.10358317
15	0xbd93d56f	-0.072184436

lin3.weight f4 [3, 16]
0	0x3d9b6c83	0.07589056
1	0xbe86c3ba	-0.26321203
2	0x3b47bba9	0.0030476844
3	0xbe1aa511	-0.1510203
4	0x3e6ff795	0.23434289
5	0x3e4c1b0c	0.19932193
6	0xbbb4f02a	-0.005521794
7	0x3dcd2c83	0.100182556
8	0x3e376756	0.17910513
9	0x3e027aea	0.127422
10	0xbe6bc727	-0.2302519
11	0xbbba762e	-0.0056903576
12	0x3c84920c	0.016182922
13	0x3e329676	0.17440209
14	0xbe48b9ad	-0.1960208
15	0xbe4a00b9	-0.19726838
16	0x3e62121f	0.22077225
17	0xbe06ff4e	-0.13183329
18	0x3d215efb	0.03939722
19	0xbe1ebe17	-0.15502201
20	0x3ca58b66	0.020208072
21	0x3c92024d	0.017823363
22	0x3e22b645	0.15889843
23	0x3e2e82b5	0.17042048
24	0xbe65a44f	-0.2242596
25	0xbe74f2dc	-0.23920768
26	0x3e713483	0.23555188
27	0x3e3a867a	0.18215361
28	0xbcaa16b9	-0.020762788
29	0x3e35b495	0.17744668
30	0x3aa6c6b7	0.0012724017
31	0x3ce2105e	0.027595695
32	0xbda4d8ca	-0.08049162
33	0x3e312ecf	0.17303012
34	0x3e186a73	0.14884357
35	0x3e168451	0.14698912
36	0xbdf28d5a	-0.11843367
37	0xbdd5d058	-0.10440129
38	0x3da608cf	0.08107149
39	0xbde11d87	-0.1099196
40	0xbe64b335	-0.22333987
41	0xbe0b6254	-0.13611728
42	0xbdae012b	-0.084963165
43	0x3b867667	0.00410347
44	0xbde681ad	-0.112552024
45	0x3dbf992a	0.093553856
46	0xbe512634	-0.2042473
47	0x3d7930d2	0.060837574

lin3.bias f4 [3]
0	0x3e4e7203	0.2016068
1	0xba604e5e	-0.00085565995
2	0xbc6b449a	-0.014359618
