dagger_models/model_5.pth (torch, 232098 bytes, 24 tensors)

conv1.weight f4 [4, 1, 5, 5]
00000000: 2975 9a3d 06bd 423e b67b 35be 55d3 163e
00000010: 774d 2fbe ec44 a63d b46a 43be e502 0a3e
00000020: c0e2 d83d b7f6 973d cd46 3bbe 2376 ee3d
00000030: 0978 0a3c d4a9 2a3d e7b7 f53d 1728 cf3c
00000040: 6bb4 ef3d 9850 6a3d fd42 e53c 71e7 05be
00000050: 41e7 0b3d 5208 7abc c49a 3dbe 758c 59bd
00000060: 52ea 533d 9705 d6bd dbc5 05be 732c b0b9
00000070: 26a7 2bbe d04d 083e 9d83 273e c335 3dbe
00000080: b6af 123e bb29 b13d 16ef e9bc 5938 ac3c
00000090: 36f1 b4bd f0f0 46be 527f 1f3d 69d7 11be
000000a0: f99a 183e e4d5 813d fa45 03be f958 f03c
000000b0: 5896 a13d 8f92 a3bd 7e54 fb3d 3b63 05be
000000c0: 2373 043d d10d 8abd 1ae3 eb3d ab62 fd3d
000000d0: 6464 2c3d 2f1f 093e d6f9 41be c37d ff3d
000000e0: ea90 0fbe f973 313e 7541 883d 2e6e c43d
000000f0: 63b2 2e3e e58c 673c 3dd4 a03d 01c9 2b3d
00000100: 9f25 54bd 7d31 f9bd 7a8e 54bd 0e0e ab3d
00000110: 44bb 443d 2d72 343e 2a40 04be 655d ad3d
00000120: 21cf 303e 8bd0 2b3e ae75 123e e464 79bd
00000130: 78ba 99bd ee3a 92bd b918 eabd 5237 fabd
00000140: 4b8d 9abc 57bf 1bbe 5a26 ef3d 455c a5bc
00000150: 1016 19be acb6 dbbb 7c6f 7f3c a20b 95bd
00000160: 4871 59bd ed9a 203e 109a 2f3e 71d8 8abd
00000170: d90f ea3d 5605 4cbe eab8 23be beaf ec3c
00000180: 7f0a 323c 41cc eebc 06f5 8f3d 77d1 31be
0.07541878 0.19017419 -0.17722973 0.14729054 -0.17119394 0.081186146 -0.19083673 0.13477667
0.10590124 0.07420104 -0.18288727 0.116436265 0.00845147 0.041665867 0.11997967 0.025287671
0.11704334 0.057205766 0.027986044 -0.13076569 0.034156088 -0.015260773 -0.1851607 -0.053112466
0.051737137 -0.10450285 -0.13063757 -0.00033602453 -0.16762981 0.13310933 0.163588 -0.1847754
0.14324841 0.086505376 -0.028556388 0.021022962 -0.0883507 -0.19427848 0.03893978 -0.14242329
0.14902867 0.063396245 -0.12819663 0.0293393 0.07890004 -0.07986938 0.12271975 -0.13026135
0.032336365 -0.067409165 0.115179256 0.12372335 0.042087927 0.13390802 -0.18942961 0.12475159
-0.14020124 0.17329396 0.0665311 0.095913276 0.17060237 0.014132713 0.07852981 0.04193974
-0.05179369 -0.12167642 -0.05189369 0.0835229 0.048030153 0.1762168 -0.12915102 0.08465079
0.17266513 0.16778772 0.14302704 -0.060887232 -0.07506269 -0.07140146 -0.11430497 -0.12217583
-0.018866202 -0.15209709 0.11677237 -0.0201856 -0.14949822 -0.006705126 0.015590545 -0.072776094
-0.05308655 0.156841 0.17148614 -0.06779564 0.11428804 -0.1992391 -0.15988508 0.028892394
0.01086676 -0.02915013 0.070291564 -0.17365061

conv1.bias f4 [4]
00000000: d779 2fbb 7ada 48be e787 443c e791 b53d
-0.0026775503 -0.19614592 0.011995292 0.08865719

norm1.weight f4 [4]
00000000: 8cd6 7f3f 6e61 7f3f baff 7f3f 375c 803f
0.9993675 0.9975804 0.9999958 1.0028142

norm1.bias f4 [4]
00000000: de8d 513b c43e c7b9 e2a6 013b 414f 373b
0.0031975429 -0.00038003002 0.0019783308 0.0027970823

norm1.running_mean f4 [4]
00000000: fbdb 4142 e183 77c2 b634 5c43 1432 0ac3
48.464825 -61.878788 220.2059 -138.19562

norm1.running_var f4 [4]
00000000: 5c4d ee42 d85c 4343 6236 0245 ab3e 5344
119.15109 195.36267 2083.399 844.9792

conv2.weight f4 [8, 4, 5, 5]
00000000: d844 edbc d42d c9bd 0c1a b5bd 4ab1 783c
00000010: 5815 833b 6c5b f13a e87a 24bd 2963 aa3d
00000020: db8e a13d bc70 693b 1170 ab3c 23e4 c9bc
00000030: c7a9 ab3d 0252 cabd f95a 1d3d 36c5 4ebd
00000040: 1248 863d f42a c33d 05b4 93bd ccc4 85bd
00000050: 3f38 89bd 735e bb3d c6a4 08bd 6c0f ae3d
00000060: 26fb e23c bead 2b3d 61fe c0bd d84c 8c3b
00000070: 3847 c43d c469 a53d cc14 2dbd 6222 54bc
00000080: aa71 c23d b854 83bd b134 9e3c d7f1 e93c
00000090: 1aa5 6bbc a29e 3fbd df8b 3cbd 5765 74bc
000000a0: 085b 4ebd 2bfa 4bbd 3cf7 cb3c 68b2 743d
000000b0: 2fe9 553c d085 b53d 32bf ab3d a353 92bd
000000c0: b58b 0abd 42c9 c23c c790 dc3c 9653 98bc
000000d0: 7c3f 96bd f74f 453d 99d5 d83c 8649 c7bd
000000e0: 141e b4bd 5217 8ebd 9d75 52bd b8dc bbbc
000000f0: 5868 2cbd 4539 1abd 7cb6 9b3c bdd0 3ebd
00000100: 7a14 a0bd fabc d83b 57d6 c2bc 7801 923d
00000110: 6544 8dbd 5e72 323c 11a1 3d3d a995 40bd
00000120: 3013 aebd c158 e2bc 8021 9cbd df24 2c3d
00000130: 20ae 83bc 4ead e7bc 574c 393b 0d0b 12bd
00000140: 3ab8 eabb 099b 37bd 1507 8c3d c905 8cbc
00000150: 4a20 09bc 9a80 dc3c a776 c53d 5463 cb3d
00000160: 3755 f43c 7a2f 8d3d f3be 49bd bb3b 863d
00000170: db76 9abc b17e c03d dfb8 70bc a667 b8bd
00000180: bb2f 453d 158e 82bd 36a3 1d3d 419a 76bd
00000190: bb8c b93d 87f9 b3bd 855b 3bbd d185 1e3d
000001a0: a737 65bc 3691 4abd 089a 3abc 27b3 f2bb
000001b0: 6764 c0bd 9fee 11bd 4ddf 5a3d 71f6 9b3d
000001c0: 90a8 56bd 30f2 6abc 71d7 083c 3f95 7b3d
000001d0: 7b56 be3c c993 acbd 2619 1bbd 4688 e8bc
000001e0: d804 f13b 9940 f4bc c03c 56bd 767f cd3c
000001f0: 440a 9c3d 30ad 843d 8f12 303c 4678 cbbd
00000200: cb29 823d f0d1 04bd e74b 2cbc 5769 343c
00000210: 9f67 013c 3355 af3d c21e 36bc b591 83bc
00000220: 80e4 91bd 0326 a63d eb78 91bc 1507 bf3d
00000230: 5712 b43d 1955 55bd 5ddf 9dbd 1d4d 6dbd
00000240: f70e e5bc 6544 143c 99ca e13c b567 2a3c
00000250: ab40 843d 6cc7 533d 9da4 8abd abfe bd3d
00000260: 93da 0e3d ec27 9b3c f0d7 c83c 004e 21bd
00000270: 04bf ca3c 5d1b a3bd a42c b8bc 42fa e7bb
00000280: c860 e8bc ec50 8cbd eb61 f1bc 93db c3bd
00000290: 72f2 6b3d 0310 babc 51cd b9bd 8f88 87bd
000002a0: cca6 57bd 78ef bc3d 6832 5bbc 351b 863c
000002b0: a2b3 b7bc 9794 9e3d 73a7 7d3d 3b9a 96bd
000002c0: b948 6e3d 4f3e e4bc 5b40 17bc fb8a c2bd
000002d0: 259b bdbd cc1e a939 33be 9bbb 7ef8 e23b
000002e0: c46c c23d df05 633b 13ad 353d fd19 993d
000002f0: 5693 913c b9f8 ea3c 22b5 95bb b5a3 d43d
00000300: f033 6cbd 87e6 773a 4638 b3bd ef94 b73d
00000310: 7cd8 423d 0659 4a3d f5e6 9fbd 83c3 a83d
00000320: 78c1 723d d441 67bd 8cf8 cbbd a144 40bd
00000330: 95e4 27bd aed5 2bbd 7f21 573d 333c 01ba
00000340: fd77 2bbb bf80 a93a 217e 5ebd 40eb d73b
00000350: 2f37 663d ac22 c63a 0e39 5cbd c6ec bf3d
00000360: eaaa a2bd 60ee 87bc dfec 863d 3237 60bd
00000370: efa9 9abd 2ed9 10bd 6d0c a9bc a07a 94bc
00000380: 215b 013d 84a0 793d c009 d2bc a628 b73d
00000390: 83b7 e43c 3daf 783d 0f1a 503d f213 ed3c
000003a0: d4ac bd3d 545b 01bc d1f6 6fbd f940 643d
000003b0: 73e3 df3b 1b91 3d3c 438e c83c e900 003c
000003c0: e4cd 503b dbc8 523d 4cde 1e3d 2d5e 283c
000003d0: 571e 8a3d 807d 87bd abc9 b73d b22c bcbd
000003e0: bc47 3c3d 34e3 41bd 4956 adbd 8577 e73b
000003f0: f4d7 c03d f9e3 70ba f51b 4fbd 8710 bdbc
-0.028963491 -0.09823194 -0.08842859 0.015178988 0.004000347 0.0018414087 -0.040156275 0.083196945
0.07888576 0.0035620173 0.02092746 -0.024644917 0.08381992 -0.09878923 0.038416836 -0.050481044
0.06556715 0.09529677 -0.072120704 -0.06531677 -0.06700181 0.09148874 -0.033360265 0.08499035
0.027707648 0.04191374 -0.09423519 0.0042816214 0.095838964 0.08076814 -0.04225616 -0.012947651
0.09494336 -0.06412643 0.019312235 0.028557701 -0.014382625 -0.046782143 -0.04603183 -0.014916739
-0.050379783 -0.049799126 0.024898164 0.059740454 0.013056084 0.08863413 0.08386077 -0.07144859
-0.03382464 0.023777608 0.026924504 -0.018594544 -0.073363274 0.048171964 0.026469039 -0.0973082
-0.087947994 -0.06938042 -0.051381696 -0.022932395 -0.042091697 -0.037652273 0.019007914 -0.046585787
-0.078164056 0.0066143246 -0.023783846 0.071291864 -0.06897811 0.010891525 0.046296183 -0.047017727
-0.084997535 -0.027630212 -0.07623577 0.04202735 -0.01607424 -0.02828088 0.0028274262 -0.03565507
-0.007163075 -0.044825587 0.06837288 -0.017092602 -0.008369515 0.02691679 0.09641772 0.09931055
0.02982579 0.06893821 -0.04925437 0.065543614 -0.018855503 0.093991645 -0.014692514 -0.09004144
0.048141222 -0.06374756 0.03848573 -0.0602057 0.09060045 -0.08787828 -0.045741577 0.038701836
-0.013990319 -0.04945489 -0.011389263 -0.0074066105 -0.0939415 -0.035627957 0.053435612 0.07615364
-0.052406847 -0.014339969 0.0083521465 0.06142163 0.023234596 -0.08426625 -0.03786578 -0.028385293
0.0073553137 -0.029815959 -0.05230403 0.025085192 0.076191455 0.064783454 0.010746612 -0.0993505
0.063556276 -0.032426775 -0.010516143 0.011011443 0.00789824 0.08561172 -0.011115732 -0.01606069
-0.07123661 0.08112719 -0.017757853 0.09327523 0.087925605 -0.05208311 -0.07708619 -0.05793487
-0.027961237 0.00904951 0.027562426 0.010400702 0.06457647 0.051703855 -0.06769679 0.0927709
0.034876417 0.018939935 0.02451703 -0.039381027 0.024749286 -0.079642035 -0.022482224 -0.0070793936
-0.028366461 -0.06851372 -0.029465636 -0.09563365 0.05760426 -0.022712713 -0.09072364 -0.06617843
-0.052649304 0.092253625 -0.013378717 0.016370395 -0.022424523 0.07743185 0.06192727 -0.07353636
0.058174822 -0.027861742 -0.009231652 -0.09499165 -0.09258107 0.00032257137 -0.004752898 0.0069265952
0.09493402 0.003464095 0.04435451 0.0747566 0.01777045 0.028683053 -0.004568712 0.10382787
-0.05766672 0.00094566535 -0.08750968 0.08963954 0.047569737 0.049401306 -0.078077234 0.08240416
0.059266537 -0.056459263 -0.09959516 -0.04694045 -0.040989477 -0.041951828 0.05252218 -0.000492993
-0.0026164048 0.0012932046 -0.054319505 0.0065893233 0.05620497 0.0015116534 -0.05376535 0.09371333
-0.079427555 -0.016593158 0.06588148 -0.05474014 -0.075519435 -0.03536337 -0.020635808 -0.018124878
0.031581048 0.060944095 -0.025639415 0.089433 0.027919536 0.060713995 0.0508061 0.028940175
0.0926148 -0.0078953095 -0.05858499 0.055726025 0.006832534 0.01157024 0.024481898 0.007812717
0.0031861002 0.051461082 0.038786218 0.0102763595 0.06744068 -0.06615734 0.08974012 -0.091882125
0.04596685 -0.04733582 -0.08463723 0.0070638084 0.0941619 -0.0009189244 -0.05056377 -0.02307917

conv2.bias f4 [8]
00000000: 0704 1fbd 4c62 4a3d 2d5e a83c 20a0 44bd
00000010: 5558 823d c2f3 aa3d b7b3 70bc 49fb 0a3d
-0.0388222 0.04941015 0.020552719 -0.04800427 0.06364504 0.08347274 -0.014691285 0.03393105

norm2.weight f4 [8]
00000000: 90db 7f3f d022 803f b644 803f 0ae9 7f3f
00000010: 16ba 7f3f 1810 803f ddba 7f3f 2eb9 7f3f
0.999444 1.0010624 1.0020969 0.99964964 0.9989332 1.0004911 0.99894506 0.99891937

norm2.bias f4 [8]
00000000: 08c8 f4b8 b287 a53a d53d b63a 204e dd38
00000010: 82a3 08ba bd69 6b3a 7db4 3e39 0497 b03a
-0.000116720854 0.0012628941 0.0013903925 0.00010552653 -0.0005212353 0.0008980295 0.00018187049 0.001347274

norm2.running_mean f4 [8]
00000000: 3b38 1dbe ed2b 853d 3ecd ae3e 9d41 b6be
00000010: c241 a0be c4d8 eabd 501a b1bd 0d13 74bd
-0.15353481 0.06502519 0.34140962 -0.35596934 -0.3130017 -0.11467126 -0.08647597 -0.05958848

norm2.running_var f4 [8]
00000000: 580c 523e c299 273e 96c8 333f bac5 f73e
00000010: dbb5 e83d 27a4 963d d208 ae3d 38f2 5a3d
0.20512521 0.16367248 0.70227945 0.4839304 0.11362811 0.07355528 0.08497776 0.053453654

conv3.weight f4 [16, 8, 6, 6]
00000000: 0ee1 75bd e7f9 36bd 28a5 bebc 1b4e 603d
00000010: 6d5b 5a3d c4fd 893c 0dcc ba3a 226b b43b
00000020: b2b4 4a3d a2d3 39bd 8733 af3c fc85 673b
00000030: afe8 1638 2320 75bd 4049 2a3d faf6 773c
00000040: 5f06 953c 65a8 63bd 5e66 843c c5c9 dd3c
00000050: c28a 8f3c 740c 583d 8531 643c 4d26 233c
00000060: fcaf 9a3c ce9b bbbc 58a8 19bd 1a9a d1bb
00000070: 24eb 773c 027d b33b 074b c3bb dbbf 963c
00000080: 4b1f 0e3d ce38 8fbc ca51 a0bc 4714 493d
00000090: 3f6d 413c 71fa 0cbc 3a3f f93c e85c 163d
000000a0: 5137 ca3c 53a5 0abd d301 70bc 7999 66bd
000000b0: f663 b6bb 273d 3e3d 6fba b43c 7794 73bd
000000c0: 960b 2ebd 7c33 deba 9e10 593d 55b4 28bd
000000d0: c07c 14bb 1316 9fbb 4456 d1bc 3812 43bd
000000e0: 1e75 a5bc 1f11 fabc abdb 6bbc 42ca 12bc
000000f0: 1e0e 3d3c 2c5f 75bd d408 a13c a8e8 1c3d
00000100: 37be 1c3d fb0e cbbc 1693 2d3d 7b5b 3cbd
00000110: b942 103d 4f85 5dbc af38 b2bc 05bc ed3c
00000120: ad9b 0fbd f43f 0d3d 87db c9bc 8c9a aebc
00000130: 4571 8dbb 0085 27bd e446 af3c 415f 623d
00000140: ea2f 583d 0b63 1cbd 4ea7 47bc 85c3 6dbd
00000150: fcce 61bd bbe9 dabc b855 5cbd 1fbe 0cbd
00000160: b8a8 c1bc b1b6 f23c e72f 58bd dab5 3ebd
00000170: 8f0d 6dbd d8d2 52bd 3d7d 243b 3add 0c3d
00000180: 1718 fe3c 8a9f 07bd 7790 6a3c f9ad 9b3c
00000190: a6a3 a5b5 9bc3 5fbd 808c 4a3d 7a21 323d
000001a0: 5971 18bd b1d8 b13b 7dc2 e5bb 9e1b 623d
000001b0: 7646 b3bc 87d3 f73c 51a4 1bbd 3bac 24bb
000001c0: a097 b6bc f2a4 58bc 63b4 8c3c 4caa 5cbd
000001d0: 6868 8f3b f56f febc 46b5 1abd 7678 443d
000001e0: edf9 473d f4f9 123d 0db3 db3b 6254 0fbd
000001f0: b94b d7bc 9c42 04bd 102b 663d 566d 043d
00000200: 5053 993c ad46 56bd 39d7 a23a 674e 65bc
00000210: 10a4 0bbd 67fe 113c 6e67 16bc 5734 6ebc
00000220: f6c5 1cbd 6bf5 763c 331e e63c 5b26 4eb8
00000230: 6f2a f03c f58e c93c b484 2b3d ac45 3b3b
00000240: 97e3 533d 3984 d13c f796 6cbc 6e0e 2dbd
00000250: a900 013d e77d 683d d517 67bd c5b7 43bd
00000260: 2da1 79bc bb9b 4dbc 0793 4a3c 0ffb 4e3c
00000270: 9fa8 173d 40c8 323c 9610 4a3d 0a88 5d3d
00000280: 0d8b 4e3d 177d 14bc ad5c 46bc b0e9 c7bc
00000290: 9f52 4dbd 2fe4 593d c5dd 0a3c 20af 44bd
000002a0: 5e50 04bd e3ea 553d 06be 6f3d 5d12 20bd
000002b0: 9d3c 52bd 110d 24bd 967d 38bd 1fe1 383d
000002c0: c7be 92bc 8c48 f2bb 447d 48bd 10ca 16bd
000002d0: 3149 07bc df9b e03c e667 0dbd 397a 03bd
000002e0: a9ba 613d 9cf1 2c3d e6f1 2dbc 18ad f2bc
000002f0: 7540 37bd cf6f 1cbd aa43 533c 2bf3 b53b
00000300: bf00 51bd c7dc 533d 5beb 33bb e639 28bd
00000310: 1538 6e3d b446 36bd 4e2e eb3c 5ec9 4e3d
00000320: 1230 03bd f3a4 a43c b4d7 4d3d 80e9 5e3b
00000330: c2d8 27bd e3dd 253c 4edb 413d 295d d93c
00000340: 04a2 5f3d 575d 0abd 8a1b a7bc 67b3 0c3d
00000350: 3d7f 2bbd 663a e03a 89b7 50bc 549e eabc
00000360: ee12 39bd 4e90 363d 5525 5f3c 5ec0 92bc
00000370: 0fc7 09bd 6e72 36bd e044 79bd 515e 833c
00000380: b73e 04bd 2c1b b83b a72b c0bc 4e39 05bd
00000390: 14b0 4c3d d4ed 11bd b165 24bc 3318 de3c
000003a0: e075 353d 3d37 14bd 0fe8 1dbd 9e11 273d
000003b0: 4bd4 6ebd 32ce 68bd c7a9 4d3d 9f72 4fbd
000003c0: 5008 16bd ac43 6cbd 13ad 143d 169f 2a3d
000003d0: bb0b 803c 5585 26bd 47f1 3fbd 6537 e8bc
000003e0: f241 1a3d 11a4 1bbd f856 6fbd e981 dc39
000003f0: e3cc fb3c d062 623c 83ae 1abd 1790 253d
-0.060029082 -0.04467192 -0.023272112 0.054761987 0.053309847 0.016844638 0.0014251486 0.0055059353
0.04948873 -0.045367844 0.021386875 0.0035327664 3.597949e-05 -0.0598451 0.041573763 0.015134567
0.018191515 -0.055580515 0.016162094 0.02707375 0.01752222 0.05274625 0.013927822 0.009957862
0.018882744 -0.022901442 -0.03751406 -0.006396544 0.0151317455 0.0054775486 -0.0059598717 0.01840203
0.034697812 -0.017483141 -0.01957025 0.049091604 0.011805831 -0.008604632 0.030425657 0.036709696
0.02468458 -0.03384907 -0.014648872 -0.056298707 -0.0055661155 0.04644504 0.022061555 -0.05946776
-0.042491518 -0.0016952599 0.052994363 -0.041187603 -0.0022657365 -0.0048549264 -0.02555383 -0.047624797
-0.020197447 -0.030525742 -0.014395635 -0.008959355 0.01153901 -0.059905216 0.01965753 0.038307816
0.03826734 -0.024787417 0.0423766 -0.04598568 0.03521988 -0.013520553 -0.021755544 0.029020319
-0.035060573 0.03448482 -0.024640812 -0.021313928 -0.0043164813 -0.040898323 0.021396108 0.055266622
0.05278007 -0.038180392 -0.012185885 -0.05804779 -0.055129036 -0.02672278 -0.053792685 -0.034361
-0.023640022 0.02962813 -0.05278006 -0.046560146 -0.05787426 -0.051470608 0.0025099062 0.034390666
0.031017346 -0.033111133 0.01431667 0.019003855 -1.2341086e-06 -0.054629903 0.049450397 0.043488957
-0.03721747 0.005427443 -0.00701171 0.05520212 -0.021884184 0.030252231 -0.0379985 -0.0025127071
-0.022289097 -0.01322292 0.017175859 -0.053873345 0.00437646 -0.031059245 -0.037770532 0.047966443
0.048822332 0.035882905 0.006704694 -0.034992583 -0.026281225 -0.032290086 0.05619341 0.032330833
0.018716484 -0.052313495 0.001242376 -0.013995743 -0.03409201 0.008910752 -0.009179933 -0.014538846
-0.038274728 0.015073161 0.028090572 -4.914995e-05 0.029317109 0.0246043 0.041874602 0.0028575463
0.05173072 0.025575744 -0.01444029 -0.04225009 0.03149477 0.056760695 -0.056419212 -0.04778268
-0.015236181 -0.012549336 0.012364156 0.012633099 0.037026044 0.010912001 0.049332224 0.054084815
0.050425578 -0.009063027 -0.012107057 -0.024403423 -0.05012762 0.05319613 0.008475726 -0.048018575
-0.032303207 0.05222596 0.05853083 -0.039080013 -0.051327337 -0.040051524 -0.045041643 0.045136567
-0.017913235 -0.007393902 -0.048947588 -0.036813796 -0.008257196 0.027418075 -0.034522913 -0.032098982
0.055109654 0.042222604 -0.010616755 -0.029623553 -0.044739205 -0.038192566 0.01289455 0.0055526695
-0.051026102 0.05172422 -0.0027453515 -0.04107084 0.058158953 -0.04450102 0.028708603 0.050485007
-0.032028265 0.020098185 0.05025454 0.0034013689 -0.0409782 0.010123703 0.047328286 0.02653368
0.05459787 -0.033780422 -0.020398874 0.03435078 -0.04186939 0.0017107248 -0.012739071 -0.02863995
-0.04518407 0.044571213 0.0136197405 -0.017913993 -0.033637103 -0.044542722 -0.0608567 0.016036185
-0.032286372 0.0056184735 -0.023458315 -0.032525353 0.04997261 -0.0356272 -0.010034011 0.027111148
0.044301867 -0.03618549 -0.038551386 0.040788285 -0.058307927 -0.05683727 0.05021074 -0.05064642
-0.03662902 -0.057681724 0.03629787 0.041655622 0.015630594 -0.0406545 -0.04686096 -0.028346727
0.037660547 -0.037998263 -0.05843255 0.0004205846 0.030737346 0.013817504 -0.037764084 0.040420618

conv3.bias f4 [16]
00000000: 8043 0f3d fa0c 4fbd 0116 2cbd aff4 2f3d
00000010: 31e1 703c c307 493c 24f6 543c 403b 51bd
00000020: 9672 4c3d 1ac4 57bd 98a8 213d afea dd3c
00000030: 016b 173d 5e26 3e3d 1622 643d e2fb 493d
0.034976482 -0.050549485 -0.042013172 0.042957958 0.014702127 0.012269917 0.012998138 -0.051081896
0.049913965 -0.05267725 0.039467424 0.027089445 0.03696728 0.04642331 0.05569657 0.04931248

norm3.weight f4 [16]
00000000: 14ac 7f3f f322 803f 0924 803f 0518 803f
00000010: 2b11 803f 7e44 803f 6a45 803f b320 803f
00000020: e16d 803f f94d 803f 3a21 803f 1232 803f
00000030: 3a2b 803f 51a8 7f3f 8267 803f c0d3 7f3f
0.99871945 1.0010666 1.0010997 1.000733 1.0005239 1.0020902 1.0021183 1.0009979
1.0033532 1.0023795 1.001014 1.001528 1.0013192 0.99866205 1.0031588 0.9993248

norm3.bias f4 [16]
00000000: caa1 25ba 3121 373a 71a4 b43a 6d26 003b
00000010: b0d2 333a 82af da3a c9d7 9f3a 4cfd 5b3a
00000020: cb54 993a f972 c33a 123f 4d39 c6fe ca3a
00000030: c22a 553a 56b6 4fb9 d537 123b 5e4f 04b9
-0.0006318359 0.0006985842 0.0013781918 0.0019554154 0.0006859703 0.0016684385 0.0012195046 0.0008391931
0.0011698244 0.0014911584 0.00019573819 0.0015487305 0.00081316766 -0.00019808984 0.002231111 -0.00012618068

norm3.running_mean f4 [16]
00000000: 6e91 ddbe 4a71 ac3d e93e d5be b8f4 02be
00000010: 321d 65bd b595 293d 28bc 6bba 1fb4 3b3f
00000020: d602 0c3e ce86 093e 2e75 c63c dbca 583d
00000030: fb26 93bd 1d3b b7be 9334 6d3e 9671 8dbe
-0.43275017 0.08420046 -0.4164956 -0.12788665 -0.055936046 0.041402537 -0.0008992576 0.7332172
0.13672957 0.1343033 0.024225798 0.052927833 -0.07185169 -0.35787287 0.23164587 -0.27625722

norm3.running_var f4 [16]
00000000: 3ff8 7b3e 5096 053f 9625 c53e 2985 483e
00000010: 967e cb3d 9dd7 b73d 53c3 0b3e fc49 0a3f
00000020: 47ec 9a3d 975e d43d 199b 973d d958 c63d
00000030: 12b6 8a3e ce8d c73d 6db4 053e f338 5f3e
0.24606417 0.52182484 0.38505238 0.19582047 0.09936254 0.08976672 0.13648729 0.5401914
0.075645976 0.10369604 0.074026294 0.09684915 0.27092034 0.09743844 0.13057108 0.21799068

lin1.weight f4 [64, 768]
00000000: ad0d 023d 1c89 c2bc f9f0 893c 3e70 bdbc
00000010: 29d7 8fbb 5ad2 8a3c 8b45 e2bc 9bc6 bc3c
00000020: 8b8c 93bc 1dcb 103d e00a 3bbc 4594 f9bc
00000030: 97f8 4f3c 8c28 f43c cf40 823c c81c 4dbc
00000040: 2418 a03c d915 24bc b4a8 a93c b8d4 7e3b
00000050: 511b 5f3c 55a8 a53c 9543 fdbc 176c f7bc
00000060: 6e8f 32bc 8a81 c0bc 3d00 bf3c 7120 e8bc
00000070: 6dcf a1bc e946 dabc 5976 ac3b 0717 053d
00000080: 9efc 80bc 82a8 763a b448 2e3c 4a43 f43c
00000090: 8fa0 abbc 1a8d 7fbc ac62 5f3c ed4a da3b
000000a0: b52f 18bc 6205 3cbc 7ca2 fc3b 5225 903c
000000b0: 478a 543c ec55 bc3c 235c 0dbd 3d14 70bb
000000c0: ed52 44bb 6116 723c c2b4 803c ac39 22bb
000000d0: 346c f6bc 60f1 873b 9e60 133c ee27 403c
000000e0: 345b 693c e8bd 053d a1f5 003d 36c8 8f3c
000000f0: 6e20 bb3c 7de2 a63b 0ab5 923c 2819 b9bc
00000100: 6abf f7bc e760 4a3b a5a8 e23c 518d 773c
00000110: 58f6 5cbc 52a3 d03c 2d2e 80bc d005 3f3c
00000120: 874d 55bb fd90 403b 4659 d73b 5ea4 233b
00000130: 969a f3bc 1f70 b7bc b793 8cbc badd c93c
00000140: f6ac 153b 2eef 7d3c 371b 023d 6693 fabb
00000150: a0f6 f0bc ba30 e1bc e3b3 ccbb 2e9c 483c
00000160: 7790 03bd 54e7 9bbb 4de0 e1bc 1edb 12bd
00000170: 6abe 0f3d 1b6c c9bc 6582 573c 70ec d2bc
00000180: 212f 383b da91 fdbb 64e3 fdbc 32d1 f13c
00000190: ba61 00bd d0a6 4ebc 275b 703b 3d20 f3bc
000001a0: 8c1e 413c 5483 753c 9895 efbc a4f1 583c
000001b0: f885 e23c 0a8c 513c a80c c2ba e483 803c
000001c0: 6e38 27bb 1b7d 0bbd 773a 3a3b 2c42 78bc
000001d0: dafa b9bc 4cee 46bb d8db dd3b 23b4 fc3c
000001e0: d735 08bd fdd3 71bc c75e 7f3c ad9f d9bc
000001f0: 7c2f e9bc e082 71bc 4824 be3b dbb0 dcbb
00000200: 4df2 843c ccc3 6b3c 4c7b 20ba 424a ef3c
00000210: 320c aabc b37c d6bc 3c93 343c 0d27 103d
00000220: 1e1c f8b9 abed ce3c 789d f7bc 2233 073d
00000230: 5869 613b 7cc2 ae39 47da 0e3c a37c 6a3b
00000240: 09dd ac3a 6b0c 70bc 4430 033c 6641 963c
00000250: e7c9 5ebc 1da6 153c 3814 96bc 91b8 b8bc
00000260: 79dd 123c 8e46 bb3c a29c debc 809d 03bc
00000270: 91fd d63a fbbf 0a3c dfac bdbc d408 8e3c
00000280: 16ce d93c a78c 9c3b 823a 36bc 12c1 e23c
00000290: a358 ecb9 722d 13bb c8d1 bcba ff8a 043d
000002a0: 9370 9d3b 1795 e7bc 338d 0abd 1830 cf3c
000002b0: 1434 6ebb d926 ccbc 6a00 513c 514c 9c3c
000002c0: 1e92 e43c dc7f 93bc 815a 603c 2427 b33c
000002d0: c1d2 1f3a 00d9 d23b 52be b5bc d651 2c3c
000002e0: 2bdd bbbb 83d9 acbc 1653 5bbc c58b b0bc
000002f0: d199 353c 3348 403c d4b8 3c3c df74 5d3c
00000300: 541d 13bc f9b1 6b3c 8094 8c3c 8cc4 a33b
00000310: 5909 12bd 7d3a a8bc e846 39bc 79a3 21bb
00000320: fa17 cfbb 541a 913c 5032 cf3c 08d8 88bb
00000330: 1c98 e83c 7b27 ff3c 2681 d03c d2c3 123d
00000340: 2e7d cd3c fb89 803b a55b 013d 6f53 14bd
00000350: 3f55 413b e8fc c939 ca70 0cbd 88bf 883c
00000360: 5c79 a23b 024b 5bbc 7b09 513c a4e1 9c3c
00000370: 24dc 98bb f028 733b 4308 263c a8dc b13c
00000380: 8be1 2ebc f3ac 30bb e4a3 b43c 60c1 0dbc
00000390: e74e bebc ad54 313c 10eb 19bc 4305 c33c
000003a0: f2cb 863c da64 5dbc 1ae6 08bd 33fb ca3c
000003b0: bfdf a4bc 0591 b0ba 63d9 03bd 3629 dd3c
000003c0: ce81 1f3c 6e93 f8bc 5b60 9c3c 2756 e13c
000003d0: 0f63 033d cce0 0fbd 73a3 9a3c 589c ac3c
000003e0: a72a b83c 7e96 82bc 0ea6 a4ba b98f 59bb
000003f0: f649 b03c 7048 84bc 15cc a03a 4cd7 793c
0.031751323 -0.02374702 0.016838538 -0.02312481 -0.0043896628 0.016946007 -0.027621051 0.023043921
-0.018011352 0.035349954 -0.011416167 -0.030466208 0.012693546 0.02980449 0.015900044 -0.012519069
0.019542761 -0.0100149745 0.020710327 0.0038884114 0.013617353 0.020221869 -0.030916015 -0.030202908
-0.010898454 -0.023499269 0.023315543 -0.028335782 -0.019752229 -0.02664514 0.0052631316 0.032492664
-0.015745457 0.0009409265 0.010637451 0.029817242 -0.020950584 -0.015597606 0.013634365 0.006661764
-0.009288718 -0.011475893 0.0077097993 0.01759592 0.012972421 0.02299019 -0.034511697 -0.0036633157
-0.0029956654 0.014775843 0.015711192 -0.0024753613 -0.030080892 0.004148647 0.008995203 0.01172827
0.014242936 0.03265181 0.03148425 0.017551523 0.022842612 0.0050929175 0.017908592 -0.022595003
-0.03024264 0.0030880512 0.027668307 0.015109376 -0.013486467 0.025468502 -0.015647018 0.011659101
-0.003254743 0.0029383295 0.0065719215 0.0024969797 -0.029736798 -0.02239233 -0.01716028 0.02464186
0.0022838688 0.015498919 0.031764235 -0.007646966 -0.029414475 -0.027489055 -0.00624703 0.012244267
-0.032120194 -0.004757801 -0.027572775 -0.035853498 0.035093702 -0.024587682 0.013153647 -0.025747508
0.0028104263 -0.007738334 -0.030992217 0.029518697 -0.0313432 -0.012613013 0.0036675425 -0.029678458
0.011787068 0.014984924 -0.029246137 0.013241205 0.027651772 0.012789736 -0.0014804797 0.01568789
-0.0025515812 -0.034054857 0.0028416195 -0.015152495 -0.022702623 -0.0030354438 0.006770592 0.030847615
-0.03325447 -0.014760015 0.0155865615 -0.026565397 -0.028465025 -0.014740676 0.005802665 -0.00673495
0.01622882 0.014389943 -0.00061218883 0.029210214 -0.020757768 -0.026182508 0.011021432 0.03519349
-0.00047323195 0.025259813 -0.030226454 0.03300775 0.0034395065 0.00033332768 0.008719034 0.0035779856
0.0013188432 -0.014651398 0.008007113 0.018341731 -0.013597942 0.009133843 -0.018320188 -0.022548946
0.008963936 0.022860792 -0.027174298 -0.008033156 0.0016402473 0.008468623 -0.02315372 0.017338194
0.026587527 0.0047775093 -0.011122348 0.027679954 -0.00045079467 -0.0022457507 -0.0014405781 0.03235912
0.0048046797 -0.028269334 -0.033826064 0.025291488 -0.003634696 -0.024920868 0.012756446 0.01907936
0.027901705 -0.018005304 0.013693453 0.02186925 0.00060967734 0.00643456 -0.022185478 0.010517558
-0.0057331524 -0.021099811 -0.013386508 -0.021551022 0.011084036 0.011735964 0.011518676 0.013516634
-0.00897916 0.014385694 0.017160654 0.0049977954 -0.035653446 -0.020535702 -0.011308409 -0.0024664088
-0.006319997 0.01771275 0.025292546 -0.0041761436 0.028392844 0.031146755 0.025452208 0.03583128
0.025084104 0.0039226986 0.03158154 -0.03621238 0.0029500274 0.00038526137 -0.03428725 0.016692892
0.004958315 -0.0133845825 0.012758608 0.019150563 -0.0046649147 0.0037103258 0.010133806 0.021711662
-0.010673891 -0.0026958555 0.022050805 -0.008652061 -0.023230983 0.010823411 -0.009394422 0.02380622
0.01645467 -0.013512814 -0.033422567 0.024777984 -0.020126222 -0.0013470954 -0.032189738 0.02699719
0.009735538 -0.030343737 0.019088915 0.027506901 0.03207689 -0.035126492 0.018876767 0.021070644
0.022481276 -0.0159409 -0.0012561695 -0.0033197238 0.021519642 -0.016147822 0.0012267852 0.015249085

lin1.bias f4 [64]
00000000: 9051 f0bc ea39 9bbb 713a cb3c 7021 593c
00000010: ccf2 cc3c 3d1c b6bc 36f8 50bc 609d bebb
00000020: cd5f 043d aef2 bcbc 4476 93bc 73f9 a1bc
00000030: b25a 0b3d 5dd3 90b9 f4b7 863c a5dd 07bd
00000040: 0185 f13c df66 4e3c 2458 e7bc bec3 dbbc
00000050: d3cf 683c 1286 61bc 62d4 983c ee2b c93c
00000060: 9029 3bbc 5e81 f13b bf9e d13c 4f25 f2bc
00000070: 7f35 94bc a3f0 0bbd 8b0c 94bc 6189 0ebd
00000080: 7c10 88bb 601b 463c af64 a4bb 0eaa c0bc
00000090: fce4 133c 7853 33bc 4ffd 023d 8947 ddba
000000a0: 9915 fb3c ef41 21bb 02dc a13b 5a79 913c
000000b0: 4d38 afbc 1065 f43c 81c5 f83a 8328 cc3c
000000c0: a2e9 5abc c891 f53c 60da 31bc e93d 333c
000000d0: 38a9 a33c 1776 0fbd ccd8 b03b 946a a4bc
000000e0: 47b9 60bc 4390 cfbc 880d 09bd 6e90 a2bc
000000f0: a166 b33c 6838 eebc 9085 74bb 8cc0 adbc
-0.029335767 -0.0047371285 0.02480814 0.013252601 0.025018118 -0.022230262 -0.012754491 -0.0058171004
0.032317925 -0.023064937 -0.01800073 -0.019772267 0.03402204 -0.00027623298 0.016445138 -0.03317036
0.029482367 0.012597769 -0.02824027 -0.026826736 0.014209705 -0.013764875 0.01865596 0.02455708
-0.0114234835 0.007370158 0.025588391 -0.029558806 -0.018091915 -0.034165036 -0.018072387 -0.034798983
-0.0041523557 0.012091488 -0.005016885 -0.023518588 0.009026762 -0.0109451935 0.031979855 -0.0016882281
0.030649947 -0.002460595 0.004939557 0.01775806 -0.021389151 0.029833347 0.0018979759 0.024921661
-0.0133613665 0.02997674 -0.010855287 0.0109400535 0.01997815 -0.03502473 0.005396938 -0.020070352
-0.013716049 -0.025337344 -0.03346017 -0.01984426 0.021899523 -0.029079631 -0.0037311055 -0.021209978

lin2.weight f4 [16, 64]
00000000: 2905 b8bd 32e6 e23d f07a adbc d1b3 fb3d
00000010: b5c4 b73c f8ac 85bd 558d 9cbd 78ca 5c3d
00000020: c150 2c3d 95cf 70bd 9eb1 2dbd 8bfb d83d
00000030: 900a 143d 1cb3 b73d b0bf b7bd a719 ee3b
00000040: 9e82 0d3d eb42 98bd 4975 cdbc 4414 133d
00000050: ec1c 86bd 232a b23d 52b9 28bd 1449 b3bd
00000060: 91a9 51bd 1774 233d 10fd ae3b 6f28 eabd
00000070: a072 d13c 3f2f 603d 53cc 9dbd f6ca 97bd
00000080: c24b 99bb 4d78 ebbd 75ec 383d 7e6c b9bd
00000090: fec5 01bb 5d0b 623d 1ca8 dabd f44d 3fbd
000000a0: 13a6 81bd 8dcf 0d3d 41f2 2a3a 87d5 a33d
000000b0: 5ac5 413d 2057 8abc 7fe2 68bc 79e1 9cbd
000000c0: 7cb1 5b3d d632 cdbd 27d6 f5bd 8d33 2bbd
000000d0: 7a0c d2bd e5c0 b3bd 2eb2 bebc 7ced 2bbd
000000e0: 56be 93bd aaaf f13d aef7 db3d 5546 8dbc
000000f0: aa82 35bd 6bab 69bc 47fd aabd 7cd8 e83d
00000100: 171b 9dba e8dd 9bbd cfbf a1bb 95af a8bd
00000110: eff9 83bd b3b2 bdbd 9313 ef3d 3061 a23d
00000120: 826b 25bd 00fc 11bd e3be 30bb 5469 0f3d
00000130: 59f4 67bd d69b 0f3d 6553 efbc a2c6 2cbd
00000140: 44aa 913d 955c c9bd 35b2 a7bd 4580 bfbc
00000150: 321e c93d ab2b 3d3d 10a1 0f3e fb62 e83d
00000160: 7c6a a3bd 1f88 9e3c 4ac7 1e3d 1286 c13c
00000170: 8d40 f7ba 3065 8a3d 554c 89bd b53e 23bd
00000180: d924 dd3d 4a01 6d3d d704 4b3d 1011 8c3c
00000190: c06c 403d 4381 c9bc c96f 0ebd 1a11 9eba
000001a0: 2a06 5b3d 2854 c93d 53df 85bc 1a6e 70bb
000001b0: 7a51 043c 62c4 ed3d 8e1d 23bd ce5a afbc
000001c0: e7e2 edbc c5c7 bbbd e3d2 b8bd 659f fabd
000001d0: 2b74 353c 4e63 e3bd f835 c53d dd7d 983d
000001e0: 1ddd 163d 897a 923d 9330 c2bd 511b fd3d
000001f0: c01f 913c ff15 c03d 58dc 85bc 08f7 f5bd
00000200: a2e9 eabc a1ca b93d da1b d23d 239f d1bd
00000210: eab6 c9bd f6cf b4bc 8d04 e1bd d6e7 f5bd
00000220: 8610 ee3c 09c7 643c 08b6 c5bc 6ffc 82bd
00000230: 8e91 b73d 6fd5 50bd 7a0b 8d3d a34f c4bd
00000240: adb3 ed3d ed8e e5bc 53d5 cbbc 430c d63d
00000250: 1a07 e9bd 2deb a53c 58cb bc3d ec42 643d
00000260: ac03 1abd 6d03 d13c 32f6 2fbd 929a 8b3d
00000270: df9f 21bb 252a acbd 09c2 2ebd 38ec e6bd
00000280: 5898 bf3d 27cd 95bd 6dfa a33d af77 b7bd
00000290: 93fc 133d cbfe 953d 3e4e 2a3d 9919 80bd
000002a0: 925e 4ebd 43d5 913d bea5 9a3d a968 a8bd
000002b0: 6e68 d3bd 83a2 233b 076e f9bd 16cc b93b
000002c0: 93f9 733d 112e f3bd 5750 ca3d bf36 433b
000002d0: 59f6 7d3d 7e32 a5bc 1c7e 253d aa84 223d
000002e0: e918 173d d3bb d43c 2808 0dbd 8fed 74bd
000002f0: e174 aa3d efe5 e93d a309 b2bd b5c1 f73d
00000300: 0d80 9f3d 0db1 08bd 2bdd d13c 5881 b43c
00000310: 9399 623c 0479 8a3d ed16 0dbd 5d49 1b3a
00000320: 6f5d 6a3d 222d 5cbc dd5f 4ebd 742a 783d
00000330: 318e 293d 8632 45bd 47b7 cf3d c5f4 82bd
00000340: f185 173b 2da1 fa3b bb23 18bd c694 f83c
00000350: 1144 d8bd 3bc3 84bc df94 ebbd 8b39 d5bd
00000360: 3ab8 df3d 5815 e9bb b32b c6bc 807b c9bc
00000370: b749 853c 3922 783d 62d6 413d 78c2 e83c
00000380: 5c8d ea3d 0552 4b3d ecc6 65bd ad07 e7bc
00000390: bfb2 d9bd 6292 913d 6fa2 9cbd 33d4 79bc
000003a0: f46c a6bd c234 5bbd 2036 eebc 76ee b8bd
000003b0: a25e f9bd 80e1 4f3c 7ef8 c43c 984f 90bd
000003c0: 0ace 89bd 6ab5 c8bc d730 6bbd 444e c8bd
000003d0: d2b0 b23d ad28 cf3d 7dc8 493d f0c0 f53d
000003e0: 8b37 5c3d 586d f7bc 0e77 c9bd c823 913d
000003f0: e117 2a3c 31bd 86bd 13c6 d63d 0334 ba3d
-0.08985359 0.110790625 -0.021176785 0.12290157 0.022432664 -0.06527132 -0.076441444 0.053904027
0.0420692 -0.058791716 -0.042405717 0.10594853 0.036142886 0.08969709 -0.08972108 0.0072662416
0.034548394 -0.074346386 -0.02508034 0.035908 -0.06548485 0.08699443 -0.04119236 -0.08754173
-0.0511871 0.039905634 0.005340226 -0.11433493 0.025567353 0.054732557 -0.077049874 -0.074117586
-0.0046782205 -0.11497555 0.045147378 -0.09053896 -0.001980185 0.055186618 -0.106765956 -0.0467052
-0.06330504 0.034621764 0.0006521084 0.079997115 0.04730735 -0.016887248 -0.014214157 -0.07660193
0.05363606 -0.10019462 -0.12003737 -0.04179721 -0.10256286 -0.08777026 -0.023278322 -0.04197453
-0.07214038 0.118010834 0.107406005 -0.017245451 -0.044314064 -0.014262061 -0.0834909 0.11369416
-0.0011986223 -0.07610685 -0.0049361954 -0.082366146 -0.064441554 -0.092626 0.11673655 0.07928693
-0.04038573 -0.035640717 -0.0026969246 0.035012558 -0.056629512 0.035060726 -0.02921457 -0.04218162
0.07112554 -0.09832112 -0.08188287 -0.023376593 0.098202124 0.046184223 0.14026284 0.11347004
-0.07979295 0.019352017 0.038764276 0.0236235 -0.0018863842 0.06757581 -0.06704012 -0.039854724
0.10798044 0.057862557 0.049565163 0.01709798 0.046978712 -0.02459777 -0.034774575 -0.001205954
0.053472675 0.09830505 -0.01634184 -0.003668672 0.008076066 0.11609723 -0.039823107 -0.021405604
-0.02903886 -0.091689624 -0.090245984 -0.12237433 0.01107506 -0.11102925 0.09629434 0.074458815
0.036831964 0.07152278 -0.09481921 0.12358726 0.017715335 0.093791954 -0.01634042 -0.12010008
-0.028675858 0.090718515 0.102592185 -0.10235431 -0.09849341 -0.02207182 -0.10987196 -0.1200711
0.029060613 0.013963469 -0.02413465 -0.06395804 0.08963309 -0.050984796 0.068869546 -0.09585502
0.11606536 -0.028022254 -0.024881994 0.104515575 -0.11378308 0.020253742 0.09218472 0.055727884
-0.037601158 0.025514329 -0.0429594 0.06816591 -0.002466194 -0.08406476 -0.042665515 -0.11275524
0.09355229 -0.0731452 0.08006749 -0.08958375 0.036129545 0.073239885 0.041578524 -0.06254882
-0.050383158 0.071207546 0.07551144 -0.08223087 -0.10322653 0.002496869 -0.12179189 0.005670081
0.059564184 -0.11874021 0.09878605 0.002978727 0.062002514 -0.020165678 0.04040347 0.0396773
0.03688899 0.025968468 -0.034431607 -0.059796866 0.08323074 0.114208095 -0.08693244 0.120974936
0.077880956 -0.033371974 0.025618156 0.022034332 0.01383056 0.06761363 -0.03444569 0.0005923713
0.05721801 -0.013438495 -0.05038439 0.06058736 0.04139537 -0.048143886 0.10142379 -0.06394342
0.0023120607 0.007648608 -0.03714345 0.030344378 -0.10559858 -0.016206374 -0.11503004 -0.10411366
0.1092381 -0.00711314 -0.02419076 -0.024595022 0.016270502 0.060579512 0.047323592 0.028413042
0.114527434 0.049638767 -0.05609791 -0.028201902 -0.10629796 0.071079984 -0.07648169 -0.015248346
-0.0812625 -0.05351711 -0.029078543 -0.09029858 -0.12176253 0.012688041 0.024044272 -0.07046431
-0.06728752 -0.024500567 -0.057419624 -0.09780553 0.08725132 0.1011518 0.049263466 0.119996905
0.053763907 -0.030203506 -0.09837161 0.07086903 0.01038167 -0.06579054 0.104869984 0.09091952

lin2.bias f4 [16]
00000000: 9832 9fbd 8988 a83b 04e8 66bc 6c83 febb
00000010: ff43 823d 0028 edbd 4e36 663d c585 873d
00000020: 331b 7cbd 1511 053d 93b2 643c 9b84 47bd
00000030: 7d48 fdbd 1d9e 8a3d f75b c43d 3bf7 4dbd
-0.07773322 0.0051432294 -0.014093403 -0.0077671316 0.063606255 -0.11579895 0.056204133 0.066173114
-0.061549377 0.032486994 0.013958591 -0.048710447 -0.12367342 0.06768439 0.095878534 -0.050284605

lin3.weight f4 [3, 16]
00000000: a986 e4bd 1ac0 633e 1832 37be ded7 583e
00000010: 834e 383e 59ce 3b3e 0dd1 f53d b258 c13c
00000020: 9ebf 53bd bbee fc3d d5f7 693e 7168 383e
00000030: 06cf 60be 40e2 2cbe 04ea 00be b5d1 b83d
00000040: a21c de3d b260 673e 2d6a 2bbe a73f e73c
00000050: 8eaa 90bd 2f56 53be dacf 46be 2003 26be
00000060: f0cd e7bd cab7 c4bd f1d2 d43d 61f1 6bbe
00000070: 1cc9 883d 08b5 1f3e e2e6 d1bc b54f 5bbe
00000080: 7f00 563e 5050 863d bf08 bc3d 17d6 273e
00000090: 1fc2 a6bd ce3d f0bc 9e86 0ebd c873 e83d
000000a0: 4fff 273e 7639 c83d 76cb bcbd 60d5 813d
000000b0: 145b e1bc 982b 25be 2878 123e a1c9 28bd
-0.11158497 0.2224125 -0.17890203 0.21176097 0.179987 0.18340434 0.12002764 0.023601864
-0.051696412 0.12350222 0.22848447 0.18008591 -0.21953973 -0.16883183 -0.1258927 0.090243734
0.10845305 0.2259548 -0.16739722 0.028228594 -0.07063781 -0.20638345 -0.19415227 -0.1621213
-0.11318576 -0.096053675 0.103917964 -0.23041297 0.066789836 0.15596402 -0.025622789 -0.21417125
0.20898627 0.06558287 0.09181356 0.16390263 -0.081424944 -0.029326346 -0.03479635 0.113502085
0.16405986 0.09776585 -0.092184946 0.06339526 -0.02750925 -0.16129911 0.14303648 -0.041207913

lin3.bias f4 [3]
00000000: 5dca b6be d352 3b3d 5ee2 1a3c
-0.35701266 0.045733284 0.009453384
