dagger_models/model_1.pth (torch, 232098 bytes, 24 tensors)

conv1.weight f4 [4, 1, 5, 5]
-0.17200482 -0.11205889 -0.09700933 -0.057769105 0.1073481 -0.078644626 -0.094196714 -0.12033458
0.096883446 -0.1748661 0.18579139 -0.07081788 0.1257043 0.057250813 0.19436762 0.08528973
-0.052045107 -0.11241922 -0.066062935 0.0046028285 -0.17706865 -0.09932312 -0.13896562 0.09456771
0.0879328 0.034901638 -0.17892767 -0.018700292 -0.048606105 0.09341038 -0.12339738 -0.020961376
0.18786713 -0.08218505 -0.18214001 -0.009744036 -0.17974457 -0.04669634 -0.1531553 0.06795557
-0.14633626 0.034103718 -0.10086998 0.057090122 -0.11495814 -0.14614694 -0.09627015 -0.047952898
0.031162351 0.18027103 0.089280166 0.022449438 -0.02014164 0.138406 0.116440244 0.027880017
0.09062753 -0.09314387 0.14892699 -0.036699936 -0.09092858 0.0314123 -0.06764037 -0.17299862
0.05758399 -0.045127623 -0.12716612 0.18185845 0.066315606 -0.08460269 -0.023145864 0.11743461
0.053988993 -0.06689138 -0.08158868 -0.045399304 0.064710066 -0.19094501 -0.14719881 -0.11156766
-0.032100387 0.18195367 0.013976111 0.18208802 -0.13065515 -0.005866384 -0.17944717 -0.0959615
-0.15752749 0.021977475 -0.055121925 -0.037170194 -0.14615215 0.1908343 0.08490598 0.016775813
0.06909128 0.17598294 0.14431392 -0.01550675
00000000: 0822 30be 227f e5bd d4ac c6bd 4c9f 6cbd
00000010: 52d9 db3d 6f10 a1bd 35ea c0bd fa71 f6bd
00000020: d46a c63d 1910 33be 1940 3e3e f708 91bd
00000030: a1b8 003e d47f 6a3d 4e08 473e 62ac ae3d
00000040: 402d 55bd 0c3c e6bd 014c 87bd 53d3 963b
00000050: 7c51 35be ec69 cbbd 014d 0ebe b7ac c13d
00000060: 1d16 b43d 05f5 0e3d d138 37be 5b31 99bc
00000070: 3217 47bd f14d bf3d c4b7 fcbd 31b7 abbc
00000080: 3e60 403e a350 a8bd e982 3abe 73a5 1fbc
00000090: f60e 38be a944 3fbd bed4 1cbe 4a2c 8b3d
000000a0: 2cd9 15be 57b0 0b3d ec94 cebd 55d7 693d
000000b0: 2c6f ebbd 8ba7 15be 4929 c5bd 426a 44bd
000000c0: 3048 ff3c f898 383e 85d8 b63d e2e7 b73c
000000d0: 1500 a5bc 4dba 0d3e 3978 ee3d a264 e43c
000000e0: ed9a b93d 37c2 bebd 5180 183e ac52 16bd
000000f0: c338 babd 2faa 003d 0987 8abd 8d26 31be
00000100: 31dd 6b3d bed7 38bd d637 02be 1a39 3a3e
00000110: 7ad0 873d 2d44 adbd 659c bdbc 8f81 f03d
00000120: 9023 5d3d 59fe 88bd f717 a7bd 9ff4 39bd
00000130: b686 843d 1787 43be 49bb 16be 967d e4bd
00000140: b27b 03bd 1052 3a3e 0ffc 643c 4875 3a3e
00000150: 77ca 05be cc3a c0bb 00c1 37be 7787 c4bd
00000160: e34e 21be 1b0a b43c 87c7 61bd c63f 18bd
00000170: e9a8 15be 116a 433e 30e3 ad3d 6e6d 893c
00000180: bb7f 8d3d df34 343e 07c7 133e 0610 7ebc

conv1.bias f4 [4]
-0.09387534 0.06002858 -0.19516829 -0.08695572
00000000: b741 c0bd 87e0 753d 32da 47be d715 b2bd

norm1.weight f4 [4]
1.0018201 1.0006747 0.99928725 0.99816805
00000000: a43b 803f 1c16 803f 4ad1 7f3f f187 7f3f

norm1.bias f4 [4]
0.001258649 0.00031656458 0.00053372385 -0.000349907
00000000: 41f9 a43a 94f8 a539 9ae9 0b3a b973 b7b9

norm1.running_mean f4 [4]
-93.61279 -161.83281 37.04498 -32.99831
00000000: c039 bbc2 33d5 21c3 0f2e 1442 45fe 03c2

norm1.running_var f4 [4]
452.46878 1128.9218 77.65112 81.22589
00000000: 013c e243 7f1d 8d44 604d 9b42 a873 a242

conv2.weight f4 [8, 4, 5, 5]
-0.07323422 0.0049804365 0.058205992 0.07437882 0.03849697 0.009886186 -0.020349389 -0.045482796
-0.036203217 -0.083791845 -0.03424167 0.051928006 0.08077901 0.05783203 -0.07646316 0.070876814
0.08066828 0.051492516 0.05463247 -0.0017593522 -0.04913154 0.005335776 -0.046342935 -0.09417984
-0.054399535 0.019365052 -0.0904032 0.01808552 -0.08639799 0.0961728 -0.009434661 -0.08407194
-0.05943494 -0.027663168 -0.101340175 0.016039768 -0.04052682 0.07242694 -0.0023930452 0.078676
-0.05560929 0.07194557 -0.088030756 -0.045288987 -0.08859338 -0.045580998 -0.02410839 -0.019620126
0.07855808 -0.04422887 0.023845281 0.06759444 0.06911107 -0.08742822 0.057598323 0.05565582
0.09646878 0.08799591 0.015776386 -0.05886901 -0.06865302 -0.0049473257 0.07824466 -0.01022764
-0.095565945 -0.06381497 0.04825567 0.046260864 0.06679628 0.010995337 -0.06103276 0.00804564
0.050692648 -0.011879273 -0.0163751 -0.061446868 0.031269822 0.050043967 0.07474008 -0.09450919
-0.04809791 0.0668419 0.011197728 -0.10025779 0.06613589 0.02822696 -0.061432727 -0.004104351
0.08207061 0.017527368 -0.07229171 0.008682274 -0.045415465 -0.066369236 0.022073038 0.096807845
-0.08232899 0.061623864 -0.02848928 0.011644017 -0.06445836 -0.067288704 -0.06637209 -0.01924665
-0.015866498 0.08686236 -0.033990767 -0.101899326 -0.06224373 -0.022856532 0.027546836 0.08913342
-0.08090502 -0.0033085877 0.011011797 -0.10114946 -0.020821782 0.08053632 -0.020577291 0.06260225
-0.08730547 0.059318006 -0.05989289 0.0064400076 -0.081747055 0.07748105 -0.08102661 0.025695715
-0.07500735 -0.06646435 -0.06507847 0.024823034 -0.044486467 0.05350733 -0.04099906 -0.07730281
0.008389972 0.07343615 0.031610332 0.043726522 -0.08202586 0.047129154 -0.048973776 -0.050606072
0.08552803 0.092740215 -0.05958721 0.061526697 0.03718644 -0.005071935 0.08737735 -0.09257228
-0.060475707 0.022142602 -0.06109212 0.05264536 0.074485876 0.008334643 0.02627657 0.041793898
0.030275594 0.054360326 0.016743945 -0.014435958 -0.03064229 -0.077977106 0.05029172 -0.09762441
0.031449173 0.027565176 0.045987446 -0.06110477 0.06405667 0.0035653752 -0.07966988 0.04926427
-0.022174159 0.0614052 0.031978756 0.06467243 -0.05349419 -0.01775448 -0.015936697 0.08137399
-0.03751958 -0.06337354 -0.084915265 0.06945056 -0.0031014374 -0.03751961 0.03774911 -0.039819565
-0.018616932 0.09582913 0.085698105 0.024984892 0.08873524 0.035438593 -0.061302643 0.01892416
-0.09208546 0.0799761 -0.0814745 -0.083695926 -0.046716485 -0.054958552 0.027225075 -0.013306174
-0.0053352783 0.0072352225 -0.02402165 0.037631933 0.07230897 -0.02863492 0.09624788 0.0649185
-0.04853082 0.020593058 -0.04899362 0.09754569 0.063812666 0.078594685 -0.03154955 -0.07055883
0.08294449 0.01236521 0.079232916 -0.04324165 -0.08604517 0.013020949 -0.04774966 -0.096423626
-0.037335936 -0.02973653 0.043990146 -0.045582704 0.014462349 -0.050100073 -0.09236764 0.06759194
-0.0119187245 -0.0977343 0.0017802821 0.08961946 0.05906383 0.04785992 0.09611533 -0.0032513188
-0.026027711 -0.0067577576 0.01737881 -0.07700834 0.021908542 0.068674915 -0.076866075 0.08455586
00000000: d3fb 95bd ee32 a33b 6869 6e3d ec53 983d
00000010: 00af 1d3d abf9 213c c3b3 a6bc 2b4c 3abd
00000020: d349 14bd 0f9b abbd fe40 0cbd 76b2 543d
00000030: 776f a53d 47e1 6c3d b898 9cbd dd27 913d
00000040: 6935 a53d d1e9 523d 4cc6 5f3d 109a e6ba
00000050: 273e 49bd bcd7 ae3b 17d2 3dbd 5ce1 c0bd
00000060: 0cd2 5ebd 75a3 9e3c 5025 b9bd 1628 943c
00000070: 6ef1 b0bd 3ff6 c43d d693 1abc e92d acbd
00000080: 0d72 73bd de9d e2bc 708b cfbd d565 833c
00000090: 73ff 25bd 9354 943d a3d4 1cbb e220 a13d
000000a0: 91c6 63bd 3358 933d 7849 b4bd f280 39bd
000000b0: 7270 b5bd 24b3 3abd f57e c5bc 63ba a0bc
000000c0: 0fe3 a03d 5529 35bd 2e57 c33c f46e 8a3d
000000d0: 1b8a 8d3d 910d b3bd 38ec 6b3d 5bf7 633d
000000e0: 6c91 c53d 3337 b43d 7b3d 813c a220 71bd
000000f0: f499 8cbd 2d1d a2bb bc3e a03d d591 27bc
00000100: 14b8 c3bd 6cb1 82bd bda7 453d 087c 3d3d
00000110: 7dcc 883d c925 343c 7dfd 79bd dcd1 033c
00000120: 18a3 4f3d 48a1 42bc 1325 86bc b6af 7bbd
00000130: c914 003d e7fa 4c3d 5411 993d 098e c1bd
00000140: 5002 45bd 68e4 883d ad76 373c f553 cdbd
00000150: 4172 873d 3a3c e73c e2a0 7bbd cb7d 86bb
00000160: a314 a83d 8e95 8f3c ad0d 94bd 1940 0e3c
00000170: 9105 3abd 98ec 87bd 84d2 b43c 3143 c63d
00000180: 1a9c a8bd 4e69 7c3d 5a62 e9bc 8cc6 3e3c
00000190: bf02 84bd a9ce 89bd 17ee 87bd 27ab 9dbc
000001a0: 75fa 81bc e5e4 b13d e739 0bbd 98b0 d0bd
000001b0: 48f3 7ebd 9f3d bbbc e7a9 e13c 958b b63d
000001c0: 88b1 a5bd e4d4 58bb d36a 343c 7327 cfbd
000001d0: 7192 aabc 3af0 a43d b591 a8bc 9c35 803d
000001e0: 36cd b2bd 70f7 723d 3f52 75bd b306 d33b
000001f0: 006b a7bd 62ae 9e3d 48f1 a5bd d27f d23c
00000200: 749d 99bd 761e 88bd dc47 85bd ad59 cb3c
00000210: 7137 36bd 812a 5b3d a1ee 27bd f050 9ebd
00000220: 1876 093c b165 963d d679 013d 951a 333d
00000230: 2dfd a7bd 800a 413d ba98 48bd 5048 4fbd
00000240: 5229 af3d 95ee bd3d b811 74bd 6b03 7c3d
00000250: cf50 183d 7932 a6bb e5f2 b23d 8996 bdbd
00000260: 60b5 77bd 6764 b53c bb3b 7abd a9a2 573d
00000270: 0d8c 983d 078e 083c f641 d73c 1430 2b3d
00000280: 8604 f83c efa8 5e3d 992a 893c cc84 6cbc
00000290: 8a05 fbbc 76b2 9fbd b1fe 4d3d 4fef c7bd
000002a0: d9d0 003d 5dd0 e13c 555d 3c3d ff48 7abd
000002b0: 2530 833d 12a9 693b f629 a3bd 55c9 493d
000002c0: 95a6 b5bc 0584 7b3d 28fc 023d fb72 843d
000002d0: b91c 5bbd d871 91bc ad8d 82bc 68a7 a63d
000002e0: 22ae 19bd fdc9 81bd 0ee8 adbd 183c 8e3d
000002f0: 7c41 4bbb 2aae 19bd d09e 1a3d d719 23bd
00000300: 8982 98bc 1042 c43d 7d82 af3d 1ead cc3c
00000310: d2ba b53d 0f28 113d 7b18 7bbd d706 9b3c
00000320: 4d97 bcbd 82ca a33d 1adc a6bd c568 abbd
00000330: c959 3fbd 381c 61bd 1f07 df3c 2402 5abc
00000340: 8fd3 aebb 7215 ed3b 0dc9 c4bc f123 1a3d
00000350: ba16 943d c893 eabc 9c1d c53d fef3 843d
00000360: 41c8 46bd c6b2 a83c 89ad 48bd 09c6 c73d
00000370: 37b0 823d 40f6 a03d 1a3a 01bd 2681 90bd
00000380: cdde a93d 7397 4a3c de44 a23d 281e 31bd
00000390: 7338 b0bd d255 553c 2695 43bd c079 c5bd
000003a0: 91ed 18bd 069a f3bc 032f 343d eeb4 3abd
000003b0: 7df3 6c3c bc35 4dbd 3f2b bdbd a56d 8a3d
000003c0: c146 43bc ec28 c8bd 5b58 e93a 688a b73d
000003d0: eaec 713d c308 443d 1dd8 c43d 1414 55bb
000003e0: 1138 d5bc 2e70 ddbb 025e 8e3c 8cb6 9dbd
000003f0: 8b79 b33c 6fa5 8c3d f66b 9dbd 9f2b ad3d

conv2.bias f4 [8]
0.05294008 0.07008233 -0.070052184 -0.035741057 -0.014094412 0.05874007 0.09702952 -0.008448002
00000000: b3d7 583d 5387 8f3d 8577 8fbd 3765 12bd
00000010: 40ec 66bc 6d99 703d 6ab7 c63d 7d69 0abc

norm2.weight f4 [8]
0.99949306 0.9995383 1.0000606 0.99953955 1.0007697 0.9999626 1.0001206 1.0004226
00000000: c7de 7f3f bee1 7f3f fc01 803f d3e1 7f3f
00000010: 3919 803f 8dfd 7f3f f403 803f d90d 803f

norm2.bias f4 [8]
-0.00010471968 2.8753006e-05 -0.0004150322 -0.00074792333 0.0004089696 -0.00011286154 0.0003708764 2.074312e-05
00000000: f39c dbb8 9c32 f137 ae98 d9b9 4910 44ba
00000010: f86a d639 14b0 ecb8 3072 c239 8301 ae37

norm2.running_mean f4 [8]
-0.041900244 -0.00914957 -0.31098232 0.054164466 0.52834594 -0.38473544 -0.15589492 0.1601969
00000000: 979f 2bbd 14e8 15bc 1339 9fbe 8fdb 5d3d
00000010: ae41 073f 0bfc c4be eba2 1fbe a80a 243e

norm2.running_var f4 [8]
0.20915185 0.11292761 0.1505451 0.08033516 0.8410713 0.20595282 0.109793045 0.09238517
00000000: e72b 563e 9746 e73d 7f28 1a3e c386 a43d
00000010: 7350 573f 4ce5 523e 2ddb e03d 7034 bd3d

conv3.weight f4 [16, 8, 6, 6]
0.055960577 -0.043584183 0.053045873 0.030714896 0.032222163 -0.055419948 -0.03315927 0.004029434
-0.004595255 -0.02674626 -0.046968635 -0.006137548 0.013432842 -0.05372969 -0.0478444 -0.021150332
-0.05899713 -0.023779152 -0.025035685 0.057993468 0.057335377 -0.00928228 -0.003185213 0.036760565
-0.015174329 0.025440617 -0.052135307 0.006691224 -0.017904028 0.0029508793 0.004716098 0.05229839
0.02469269 -0.04395874 0.02430294 0.0018707156 -0.028087055 0.043386184 0.015225808 0.0064476007
-0.05201501 0.05210771 -0.001038599 0.010307165 0.028122809 -0.056105416 0.040824674 -0.05150533
-0.050494723 0.021580234 -0.04204221 -0.0045825513 -0.042495172 0.042805325 -0.034267098 0.034845553
-0.05129465 -0.04667754 0.0041279914 0.040224873 0.0021154112 -0.034267973 -0.035947565 0.02801571
-0.029173119 0.042483788 0.039609462 -0.04502689 -0.03111903 -0.03526581 0.04011592 -0.031902395
-0.0131324995 -0.019875413 -0.05305637 -0.05361816 0.010130638 0.051809676 0.05264104 0.010832664
0.010309863 -0.056832187 -0.033897012 -0.018389376 0.05319823 0.04339253 0.051054623 -0.020123359
-0.019065827 0.058316275 0.03533948 0.0027405831 0.026420662 -0.023988627 -0.054527424 -0.03227377
-0.017236391 -0.04317902 -0.017325485 -0.05395321 0.012854784 -0.034921754 -0.053506106 -0.043989114
0.045826502 0.027222354 -0.0432596 0.05252627 -0.047956895 0.002268345 -0.025642619 -0.05399478
-0.040667012 -0.011741741 -0.049710255 -0.02595907 0.03849698 -0.029909305 -0.058653325 -0.0033523394
-0.032150414 0.022115795 0.0013146279 0.034805402 0.013964577 0.025495509 0.05702672 0.056837402
0.028116364 -0.037826333 -0.054502215 -0.014034106 -0.014538203 0.050136883 0.045952156 -0.030665731
-0.048397522 -0.0310789 -0.025327545 -0.038841527 -0.018086532 -0.037687737 0.00041028927 -0.029362923
0.03716018 0.029843181 0.02774097 0.001031229 0.0064790254 0.013557493 0.020315599 -0.0038030893
0.03426091 0.050058432 -0.029078001 0.016718088 -0.0091994805 0.049510024 -0.0034214512 0.0176083
-0.05334553 -0.057411727 -0.0025474685 -0.047448117 0.007960446 0.048443098 -0.011811034 -0.05786649
-0.015416939 -0.033631068 -0.021356424 0.03486205 -0.005049997 -0.021285785 -0.03237665 -0.028641488
0.029270647 0.041406766 -0.0009593374 -0.005289982 0.030859662 0.051641114 0.026843542 -0.014412064
0.053975403 -0.029990064 -0.025538329 -0.04570844 -0.02984005 -0.003662257 0.037375852 0.022018673
0.0014759212 -0.02976877 0.0436849 0.058483727 -0.032197636 -0.046574052 -0.008823524 0.02548293
0.026032722 -0.0076305177 0.004585329 -0.04018187 -0.040343046 0.010039112 -0.007304253 -0.044807203
0.029537933 0.019131258 -0.018423919 0.02038629 -0.029336693 0.030524781 -0.044343572 -0.0036071972
0.04883539 -0.008985648 -0.053723533 0.046658557 -0.023144087 0.050091024 -0.037526958 0.022785114
-0.028778117 0.005365315 -0.003482203 -0.0018204936 0.053189285 -0.055035144 -0.05820751 0.0019457832
-0.008679305 -0.032561682 0.016743347 0.04549564 0.038450595 0.012044964 -0.050117318 0.0020696975
-0.0028489097 0.0004548751 -0.007186993 0.04217207 0.046322003 0.036306985 -0.013299329 -0.046476252
-0.02938395 0.057502978 0.020788487 -0.031168258 -0.054497126 -0.008733379 0.021726204 0.0044740723
00000000: eb36 653d 5485 32bd a146 593d ce9d fb3c
00000010: 63fb 033d 0700 63bd 04d2 07bd 5809 843b
00000020: cb93 96bb f91a dbbc 2f62 40bd 7c1d c9bb
00000030: 6c15 5c3c aa13 5cbd 7df8 43bd 7643 adbc
00000040: f9a6 71bd 7fcc c2bc a317 cdbc 8f8a 6d3d
00000050: 80d8 6a3d b414 18bc 02bf 50bb 3f92 163d
00000060: c09d 78bc d768 d03c d58b 55bd 0e42 db3b
00000070: 78ab 92bc 8a63 413b 7f89 9a3b d636 563d
00000080: 5348 ca3c 140e 34bd f616 c73c cd32 f53a
00000090: d316 e6bc b6b5 313d ab75 793c 6546 d33b
000000a0: b10d 55bd e56e 553d 9921 88ba 62df 283c
000000b0: ce61 e63c cbce 65bd c637 273d 41f7 52bd
000000c0: 8ed3 4ebd 08c9 b03c 7434 2cbd 3a29 96bb
000000d0: 6b0f 2ebd a354 2f3d a85b 0cbd 36ba 0e3d
000000e0: 571a 52bd f330 3fbd 1a44 873b d6c2 243d
000000f0: b6a2 0a3b 935c 0cbd c13d 13bd 3481 e53c
00000100: 77fc eebc 7b03 2e3d 883d 223d 1e6e 38bd
00000110: 56ed febc e272 10bd 9750 243d 16ac 02bd
00000120: b229 57bc c3d1 a2bc a351 59bd b79e 5bbd
00000130: fafa 253c 6236 543d 229e 573d 7c7b 313c
00000140: b3ea 283c dec8 68bd 98d7 0abd 51a5 96bc
00000150: 63e6 593d 5ebc 313d a71e 513d bed9 a4bc
00000160: f02f 9cbc 0cdd 6e3d 21c0 103d 5b9b 333b
00000170: 2570 d83c cc83 c4bc 2658 5fbd 8031 04bd
00000180: 5533 8dbc 7cdc 30bd 2dee 8dbc 0bfe 5cbd
00000190: df9c 523c 1d0a 0fbd 3829 5bbd ee2d 34bd
000001a0: 92b4 3b3d 6a01 df3c fa30 31bd c925 573d
000001b0: 736e 44bd 84a8 143b 7810 d2bc a129 5dbd
000001c0: 7492 26bd 6e60 40bc fb9c 4bbd 1ea8 d4bc
000001d0: 02af 1d3d 5c04 f5bc 783e 70bd ecb2 5bbb
000001e0: 27b0 03bd 2f2c b53c 984f ac3a 1c90 0e3d
000001f0: aecb 643c f5db d03c da94 693d 56ce 683d
00000200: 4a54 e63c c9ef 1abd b73d 5fbd 4fef 65bc
00000210: a531 6ebc 555c 4d3d 5438 3c3d b336 fbbc
00000220: 7b3c 46bd 2d99 febc b67b cfbc 4b18 1fbd
00000230: 352a 94bc 755e 1abd 181c d739 838a f0bc
00000240: 4635 183d b079 f43c 0841 e33c 4e2a 873a
00000250: 014e d43b 3f20 5e3c e66c a63c 403d 79bb
00000260: 2b55 0c3d 120a 4d3d fd34 eebc 5ff4 883c
00000270: 6bb9 16bc 06cb 4a3d 6d3a 60bb 483f 903c
00000280: d880 5abd 8f28 6bbd 6ef3 26bb f558 42bd
00000290: 886c 023c 456c 463d 1183 41bc 6a05 6dbd
000002a0: 5497 7cbc bbc0 09bd abf3 aebc 82cb 0e3d
000002b0: 727a a5bb 875f aebc 619d 04bd 8ea1 eabc
000002c0: ffc8 ef3c 249a 293d 0b7c 7bba 9657 adbb
000002d0: 67cd fc3c a285 533d fde6 db3c 9420 6cbc
000002e0: 5015 5d3d b9ad f5bc c235 d1bc c638 3bbd
000002f0: 1f73 f4bc 7a02 70bb 6c17 193d 8160 b43c
00000300: b373 c13a a3dd f3bc f0ee 323d a28c 6f3d
00000310: abe1 03bd 6fc4 3ebd 8b90 10bc 94c1 d03c
00000320: 9342 d53c 6c09 fabb 8740 963b bf95 24bd
00000330: c03e 25bd 167b 243c 8458 efbb c287 37bd
00000340: 89f9 f13c 28b9 9c3c c2ed 96bc 2601 a73c
00000350: 8153 f0bc 1b0f fa3c 9ba1 35bd ba66 6cbb
00000360: 9e07 483d 8a38 13bc 350d 5cbd 0b1d 3f3d
00000370: ab98 bdbc 3f2c 4d3d deb5 19bd d9a7 ba3c
00000380: 16c0 ebbc 86cf af3b ac35 64bb a19d eeba
00000390: 02dd 593d 886c 61bd ff6a 6ebd a609 ff3a
000003a0: a533 0ebc 665f 05bd 5829 893c a359 3a3d
000003b0: 5f7e 1d3d 3e58 453c d147 4dbd c3a3 073b
000003c0: c6b4 3abb 4d7c ee39 de80 ebbb 9fbc 2c3d
000003d0: 24bc 3d3d a2b6 143d 6ee5 59bc e25d 3ebd
000003e0: 9cb6 f0bc 3e88 6b3d 9e4c aa3c 9354 ffbc
000003f0: 6138 5fbd 7216 0fbc 27fb b13c 3d9b 923b

conv3.bias f4 [16]
-0.006120256 0.0022793438 -0.028562983 -0.016627908 0.008065467 -0.039505765 -0.056524865 0.003557208
-0.03569307 0.015732506 0.0050443946 -0.01513787 -0.002615205 -0.0070051784 -0.026269196 0.058117673
00000000: 6e8c c8bb 0b61 153b ebfc e9bc 4037 88bc
00000010: 0525 043c ccd0 21bd 9e86 67bd 0c20 693b
00000020: e632 12bd 75e1 803c 734b a53b d404 78bc
00000030: dc63 2bbb b28b e5bb 7f32 d7bc cc0c 6e3d

norm3.weight f4 [16]
1.0003726 1.0014133 1.0004085 1.000484 1.0001915 1.000559 1.001681 0.9991008
1.0001683 1.0009378 1.0001296 0.99929386 1.0010699 1.0002513 0.999514 1.0013852
00000000: 360c 803f 502e 803f 630d 803f dc0f 803f
00000010: 4606 803f 5112 803f 1537 803f 12c5 7f3f
00000020: 8405 803f bb1e 803f 3f04 803f b9d1 7f3f
00000030: 0f23 803f 3c08 803f 26e0 7f3f 642d 803f

norm3.bias f4 [16]
0.00019824454 0.0010335057 0.00026751624 0.0005647412 5.742963e-05 0.00043914173 0.0013104988 -0.0005414757
0.00047670864 0.00085014163 0.00018337111 -0.00025808613 0.00081781286 7.366307e-05 -0.00025587765 0.00095763616
00000000: dddf 4f39 b276 873a 6c41 8c39 240b 143a
00000010: 98e0 7038 9b3c e639 0bc5 ab3a d2f1 0dba
00000020: c0ee f939 0adc 5e3a 4f47 4039 bc4f 87b9
00000030: 7e62 563a 8f7b 9a38 5127 86b9 e009 7b3a

norm3.running_mean f4 [16]
-0.53706807 0.48475426 -0.4642055 0.33774003 0.20065159 0.18064912 0.28381476 -0.005738218
0.16071816 -0.15236619 0.43806472 0.4287604 -0.21286698 0.64205754 0.030445123 -0.046208374
00000000: 4b7d 09bf b631 f83e 58ac edbe 43ec ac3e
00000010: 9c77 4d3e 15fc 383e 2b50 913e a907 bcbb
00000020: 4d93 243e e205 1cbe 054a e03e 7c86 db3e
00000030: cdf9 59be e25d 243f 0d68 f93c fe44 3dbd

norm3.running_var f4 [16]
0.23707563 0.19867626 0.14600064 0.18251531 0.25172377 0.18118858 0.14191747 0.11079838
0.14162473 0.18617639 0.26620117 0.16628808 0.0971014 0.16780445 0.073364936 0.16253628
00000000: f4c3 723e ca71 4b3e 3181 153e 4be5 3a3e
00000010: f0e1 803e 8089 393e d052 113e 43ea e23d
00000020: 1306 113e 06a5 3e3e 854b 883e 6c47 2a3e
00000030: 19dd c63d eed4 2b3e 5b40 963d e96f 263e

lin1.weight f4 [64, 768]
0.02360812 0.007891462 0.0021042847 -0.01496829 -0.0037555678 -0.026618248 -0.03195806 -0.008504667
-0.00035862986 0.029439205 -0.026986307 -0.021764988 -0.034240734 0.020155914 0.034345333 -0.03502526
0.028551785 -0.0068053533 0.0059083574 -0.013794414 -0.02284545 0.022090102 0.010279427 0.035945997
-0.019064488 0.03353172 0.03315687 0.010560689 -0.028670507 -0.008820098 0.0345399 -0.019845353
-0.028810177 0.014612284 -0.029940505 0.030752853 -0.019631602 0.0077241478 -0.010815121 0.0015492354
0.027287912 0.029901672 0.027430896 -0.022130858 -0.010236017 -0.0122306235 -0.0076756347 -0.0042622034
-0.02367412 0.02403653 0.0034464437 -0.02973546 0.027399886 0.0048434744 -0.0282979 -0.018988824
0.02327735 -0.024577163 -0.003065953 0.021759763 0.011686943 -0.03430326 0.0069392 0.024714097
0.0009154712 -0.011743688 0.006903576 0.019315833 -0.033544328 -0.007157849 0.0029845939 0.024683662
-0.009640056 0.00066290534 0.02116931 -0.03296182 0.014429241 -0.0037582049 -0.029693102 0.002034413
-0.028697856 0.006987249 -0.014254815 -0.020024724 -0.018602267 0.027659554 0.027039409 -0.035697397
0.009035837 -0.011613575 -0.033141725 -0.008889217 -0.02623205 0.03595913 0.027393596 -0.028638547
-0.032319374 -0.034782745 -0.03440715 -0.0133483615 0.03544169 0.003118356 -0.026917357 -0.0049116546
0.021103365 0.03259828 -0.02808428 0.034287374 -0.028099256 -0.010741094 -0.025759015 -0.03181937
-0.0064104972 0.0009942219 -0.0044952943 0.03524035 -0.026736442 0.016360499 -0.009301908 0.023327569
0.01048024 -0.022269782 0.021829173 0.0346899 -0.03447058 0.0072051813 -0.008147392 -0.02934636
-0.026017234 0.03583201 0.025201282 -2.9142345e-06 -0.026979933 -0.03334494 -0.023132905 0.015898567
0.014945932 -0.031393413 -0.03587848 -0.004802265 -0.024368586 0.01891669 -0.017955996 0.027603995
0.030611265 -0.020454632 -0.0025875377 0.0009545376 -0.016611006 -0.035002563 -0.010924775 0.016089672
-0.0072455634 -0.02855325 0.00090675993 0.0045515182 0.0016622071 -0.024922587 -0.028117409 -0.02129632
0.003340931 0.014393632 -0.017240273 -0.008643254 0.017341487 0.03160004 -0.026786571 -0.007475933
-0.023867263 -0.00065611146 0.010220531 0.027403394 -0.017551037 -0.021401048 -0.032472387 -0.017234717
0.012761493 0.0074185086 -0.03450171 0.027163578 0.003296349 -0.011950174 0.0026250386 0.026706269
-0.029696586 0.027030526 -0.030698499 -0.0017687357 -0.0344976 -0.0015149208 0.022126902 0.0039608832
-0.0062291143 -0.0044724485 -0.03035522 0.029551173 0.01847725 0.012028397 0.0062308493 -0.016123358
0.011998559 -0.030067518 -0.026103139 -0.03170169 -0.0025567461 0.021302985 0.0096373735 0.015540043
0.0018140287 0.0033388094 0.026828283 -0.01143372 0.010146005 -0.017765349 -0.016727999 0.008992769
-0.02471007 -0.0072086887 -0.025355114 0.03403739 -0.011113496 0.01300269 0.026262658 -0.0038109084
-0.033593986 0.02025878 0.026292594 -0.0066283564 -0.01021589 -0.019960193 0.00260879 0.008608617
-0.009029584 -0.0067113047 0.016748156 -0.020556442 -0.009907215 0.009966023 -0.01124866 0.031186046
0.031217625 -0.0010483261 0.033324968 0.01829883 0.025467277 -0.03303965 -0.01554844 0.016196785
-0.009243234 0.012670915 0.010002246 -0.0069988235 0.012439477 -0.019785363 0.025682403 -0.01838356
00000000: d165 c13c 314b 013c 0ae8 093b 8f3d 75bc
00000010: f91f 76bb 830e dabc 74e6 02bd 2957 0bbc
00000020: 7c06 bcb9 7d2a f13c 6312 ddbc 7d4c b2bc
00000030: 0340 0cbd 041e a53c b1ad 0c3d a676 0fbd
00000040: 6fe5 e93c 71ff debb e59a c13b f701 62bc
00000050: 6226 bbbc 4df6 b43c 0b6b 283c 1c3c 133d
00000060: 212d 9cbc 8f58 093d 80cf 073d bd06 2d3c
00000070: 69de eabc 2c82 10bc b679 0d3d b992 a2bc
00000080: 5203 ecbc 5c68 6f3c ca45 f5bc 68ed fb3c
00000090: 74d2 a0bc d91a fd3b e831 31bc b70f cb3a
000000a0: e68a df3c 5af4 f43c c2b6 e03c c64b b5bc
000000b0: f8b4 27bc f462 48bc e483 fbbb f4a9 8bbb
000000c0: 3af0 c1bc 42e8 c43c bbdd 613b c897 f3bc
000000d0: ba75 e03c 02b6 9e3b ffd0 e7bc 738e 9bbc
000000e0: 24b0 be3c 0c56 c9bc 28ee 48bb 8841 b23c
000000f0: 977a 3f3c 9381 0cbd 3b62 e33b 3875 ca3c
00000100: 3bfc 6f3a 9968 40bc 6537 e23b 3d3c 9e3c
00000110: c765 09bd 648c eabb 2d99 433b 6435 ca3c
00000120: 53f1 1dbc d3c6 2d3a 436b ad3c f902 07bd
00000130: a068 6c3c 374c 76bb f33e f3bc c953 053b
00000140: c417 ebbc 4bf5 e43b 078d 69bc e40a a4bc
00000150: c863 98bc 4a96 e23c c081 dd3c 6f37 12bd
00000160: 0c0b 143c dd46 3ebc 9ebf 07bd 14a4 11bc
00000170: 99e4 d6bc e149 133d 8968 e03c 639b eabc
00000180: 5261 04bd 5a78 0ebd 83ee 0cbd 16b3 5abc
00000190: 4e2b 113d 555d 4c3b ca81 dcbc f2f1 a0bb
000001a0: f7e0 ac3c c685 053d 0111 e6bc eb70 0c3d
000001b0: 6930 e6bc 6afb 2fbc 9204 d3bc 0755 02bd
000001c0: 260f d2bb 8d50 823a 434d 93bb 2f58 103d
000001d0: 6206 dbbc 7406 863c 0867 18bc 7519 bf3c
000001e0: 50b5 2b3c 1e6f b6bc 18d3 b23c ff16 0e3d
000001f0: 0631 0dbd 7119 ec3b a47c 05bc c767 f0bc
00000200: 1822 d5bc 96c4 123d eb72 ce3c 2b92 43b6
00000210: 0505 ddbc b494 08bd 3881 bdbc b63d 823c
00000220: c8df 743c 6196 00bd 50f5 12bd 525c 9dbb
00000230: a1a0 c7bc 2df7 9a3c 7418 93bc c621 e23c
00000240: 7ac4 fa3c 7990 a7bc ae93 29bb ef39 7a3a
00000250: ce13 88bc d95e 0fbd d4fd 32bc 7dce 833c
00000260: 316c edbb 81e8 e9bc a1b3 6d3a e724 953b
00000270: 6ade d93a 742a ccbc 7b56 e6bc 9f75 aebc
00000280: 85f3 5a3b 45d3 6b3c 793b 8dbc 6f9c 0dbc
00000290: bc0f 8e3c 0b6f 013d 836f dbbc acf8 f4bb
000002a0: 4785 c3bc e5fe 2bba 0474 273c 157d e03c
000002b0: 31c7 8fbc 4051 afbc c401 05bd d22f 8dbc
000002c0: 9515 513c f616 f33b aa51 0dbd 2786 de3c
000002d0: 8f07 583b aaca 43bc d708 2c3b 1bc7 da3c
000002e0: 4146 f3bc 1f6f dd3c 6b7b fbbc ecd4 e7ba
000002f0: 5b4d 0dbd 4f90 c6ba 7a43 b53c 4cca 813b
00000300: 991d ccbb 9e8d 92bb 83ab f8bc 4d15 f23c
00000310: 9a5d 973c c112 453c 272c cc3b 2215 84bc
00000320: 9b95 443c 2850 f6bc 40d6 d5bc a2d9 01bd
00000330: 158f 27bb 9983 ae3c 13e6 1d3c aa9b 7e3c
00000340: b4c4 ed3a edcf 5a3b fdc6 db3c 7f54 3bbc
00000350: 6e3b 263c a388 91bc 2809 89bc 6856 133c
00000360: c66c cabc dd36 ecbb 87b5 cfbc ca6a 0b3d
00000370: 6115 36bc 3c09 553c c924 d73c 6fc0 79bb
00000380: d999 09bd bef5 a53c 9163 d73c af32 d9bb
00000390: 8c60 27bc 8f83 a3bc 3cf8 2a3b 280b 0d3c
000003a0: d2f0 13bc 81ea dbbb 6e33 893c fc65 a8bc
000003b0: df51 22bc 8848 233c 4d4c 38bc e179 ff3c
000003c0: 1bbc ff3c fd67 89ba c37f 083d 6ee7 953c
000003d0: c0a0 d03c 9654 07bd e2be 7ebc 1faf 843c
000003e0: ef70 17bc ab99 4f3c 76e0 233c 6356 e5bb
000003f0: f3ce 4b3c ea14 a2bc e763 d23c 1f99 96bc

lin1.bias f4 [64]
0.026012685 0.021395525 0.003960624 0.0140532525 0.017134856 -0.0008541642 0.017010838 -0.027415043
0.02387515 -0.0165839 -0.03568921 -2.6998128e-05 0.010219009 -0.02235462 0.01539084 0.034158707
-0.034042425 -0.0031531595 0.00821632 -0.024587473 0.031584248 -0.0027489017 -0.009409688 -0.026200496
0.02971618 -0.02485994 -0.007590005 0.031248678 -0.0122291325 0.03253153 0.009284078 -0.026999474
0.027196685 -0.011322612 0.029890314 0.028913276 0.012861719 0.036336068 0.029567052 -0.01685162
-0.00021158985 -0.024327653 1.1234942e-05 0.02586522 -0.03472853 -0.0015246685 0.00991541 -0.027197024
-0.011026904 -0.011676984 0.01937081 0.0072194464 0.025670389 -0.023458837 -0.010120923 -0.014912672
0.025041949 0.014897938 0.0017850955 0.018024275 0.01651118 -0.03134699 0.006076521 0.0053440025
00000000: 8e18 d53c ab45 af3c 1fc8 813b 9d3f 663c
00000010: 665e 8c3c fde9 5fba 505a 8b3c 8395 e0bc
00000020: d295 c33c f6da 87bc d92e 12bd 0a7a e2b7
00000030: a16d 273c 0921 b7bc dd29 7c3c 00ea 0b3d
00000040: 1270 0bbd 3da5 4ebb be9d 063c ab6b c9bc
00000050: 7c5e 013d eb26 34bb 182b 1abc 6ca2 d6bc
00000060: 596f f33c 13a7 cbbc 94b5 f8bb 3afd ff3c
00000070: b35c 48bc c83f 053d 3f1c 183c 002e ddbc
00000080: 95cb de3c 7a82 39bc 88dc f43c 89db ec3c
00000090: f6b9 523c 21d5 143d 9a36 f23c 690c 8abc
000000a0: 38de 5db9 c94a c7bc b57d 3c37 4ce3 d33c
000000b0: 813f 0ebd 63d7 c7ba 3e74 223c 4bcc debc
000000c0: 30aa 34bc d250 3fbc 88af 9e3c 1b91 ec3b
000000d0: b54a d23c bf2c c0bc 3ad2 25bc 4854 74bc
000000e0: c624 cd3c 7b16 743c def9 e93a a5a7 933c
000000f0: 7442 873c b465 00bd 8d1d c73b be1c af3b

lin2.weight f4 [16, 64]
-0.06752601 -0.027720833 0.10616306 -0.084562525 0.06203989 -0.028227849 0.05223052 0.0834341
-0.0158916 0.058732573 -0.009673226 0.022923691 0.065500766 0.11192654 0.10734231 0.03243702
0.0301309 0.12230099 -0.005942499 -0.072941154 -0.07681527 -0.045420107 0.040019326 -0.019724911
-0.020890689 0.08974697 -0.12298187 -0.11669875 -0.024622377 -0.04281335 -0.005622012 -0.077341095
-0.020201607 -0.060778797 -0.019507887 0.020996641 -0.109167606 -0.04232027 -0.12161359 -0.10412356
0.083810434 0.11405711 0.06052978 -0.013339692 -0.07300374 0.08864881 0.12185087 0.05422323
0.09722273 -0.079565026 -0.008811045 0.07010124 0.017257636 -0.010479451 0.06866535 -0.075736016
-0.05957621 -0.0376031 -0.09492666 -0.05779192 -0.0659875 -0.033970617 -0.05876305 -0.1142488
-0.120410286 -0.109605655 -0.08998792 -0.0031785378 0.10010922 0.07138025 -0.002470653 0.124389894
-0.09118112 -0.03751733 0.11853588 -0.11233864 0.0553913 -0.05326873 0.10452699 0.09554813
-0.04387699 0.05282872 -0.115632616 -0.11793755 0.119353324 0.042269826 -0.11948562 -0.07801873
0.110090084 -0.008998311 -0.09138635 0.08596885 -0.0675771 0.084346995 -0.029762791 -0.08036378
0.016823187 0.05723817 -0.01667683 -0.06517078 0.063020326 -0.0027588962 -0.053279992 -0.02303343
-0.11968823 0.009425792 0.069372065 0.09867248 0.028262004 0.019488635 0.115560755 -0.035282396
-0.06626033 -0.041857496 -0.04516284 0.08716736 -0.045499288 -0.105400555 0.041240245 0.039543767
0.023768503 -0.07973786 -0.06473723 -0.065949775 0.0054766564 0.008192353 0.018262066 0.049093794
-0.092581786 0.022417458 0.042361006 0.048591238 -0.09310311 0.0005109459 0.044537146 0.073613524
0.041011997 -0.06311468 0.117624655 -0.11141956 -0.023217596 -0.017612074 0.11355503 -0.07379756
-0.10468684 0.122195475 0.10528073 -0.017189633 -0.07577238 -0.051575758 -0.09750302 0.030278765
0.049449563 -0.091398805 -0.12455396 -0.07692372 0.1103128 -0.0724551 0.10030818 -0.042360067
0.041043397 0.07907582 -0.038961425 0.06346984 0.044293925 0.08682583 0.0022998385 -0.086155705
-0.11050067 -0.090698764 -0.048558082 0.10581303 -0.0029095735 -0.028744968 0.05137965 0.049611505
-0.11016666 -0.012639712 -0.103271276 -0.014543158 0.11460404 0.07278959 -0.05517291 0.061952148
0.033753835 0.117838964 -0.016371815 0.01491384 0.09008991 0.06258211 0.013938509 -0.059416767
0.11464252 -0.06456585 0.015689047 0.05419179 -0.10732609 -0.040849097 -0.033045318 -0.052071624
0.016414832 -0.06418293 -0.070683844 0.06349278 -0.093536414 0.05911076 -0.055338953 -0.11835563
0.0056953668 -0.08122939 0.047706716 0.04287322 -0.04851141 -0.024669588 0.027728077 -0.10772231
0.02942548 0.0031577016 0.04781303 -0.07430043 0.026147423 -0.09531286 0.09693569 -0.1128352
-0.01792572 -0.10300942 -0.060352445 0.08908498 -0.049728997 -0.009428833 0.017381253 0.102659605
0.055183217 -0.08173328 -0.079512246 0.1217696 0.06782242 -0.06813974 -0.08942333 0.053371686
0.04001597 -0.12166017 0.11931013 0.067401014 -0.10222217 -0.019069737 0.06886025 0.09585857
-0.044921137 -0.10657203 0.021508813 0.042002585 0.061875645 -0.07449694 0.01576758 0.12204429
00000000: 144b 8abd cd16 e3bc 056c d93d 1e2f adbd
00000010: 8a1d 7e3d 173e e7bc abef 553d 7fdf aa3d
00000020: 1a2f 82bc 9191 703d 737c 1ebc 77ca bb3c
00000030: 4425 863d be39 e53d 49d6 db3d aedc 043d
00000040: 14d5 f63c f178 fa3d 4bb9 c2bb 2c62 95bd
00000050: 5351 9dbd 6f0a 3abd 4eeb 233d 2396 a1bc
00000060: f322 abbc 42cd b73d ebdd fbbd c1ff eebd
00000070: deb4 c9bc 0d5d 2fbd db38 b8bb 0265 9ebd
00000080: d77d a5bc 30f3 78bd 01cf 9fbc 2601 ac3c
00000090: 4493 dfbd 0558 2dbd 8c10 f9bd bc3e d5bd
000000a0: cea4 ab3d c696 e93d 13ee 773d b98e 5abc
000000b0: fc82 95bd 828d b53d f38c f93d 2d19 5e3d
000000c0: b61c c73d fdf2 a2bd 345c 10bc 3d91 8f3d
000000d0: e35f 8d3c 01b2 2bbc 6ba0 8c3d 7c1b 9bbd
000000e0: 2f06 74bd b505 1abd e968 c2bd 38b7 6cbd
000000f0: 7424 87bd c624 0bbd 86b1 70bd 46fb e9bd
00000100: ab99 f6bd ee78 e0bd 964b b8bd 044f 50bb
00000110: 1006 cd3d cf2f 923d aeea 21bb 21c0 fe3d
00000120: 2bbd babd c6ab 19bd f1c2 f23d cd11 e6bd
00000130: fde1 623d 5030 5abd 3f12 d63d bdae c33d
00000140: 5cb8 33bd ee62 583d cbd0 ecbd 3e89 f1bd
00000150: 846f f43d 2023 2d3d e0b4 f4bd 49c8 9fbd
00000160: e976 e13d a76d 13bc c428 bbbd 7010 b03d
00000170: dd65 8abd 1ebe ac3d 19d1 f3bc c495 a4bd
00000180: c8d0 893c 9272 6a3d d99d 88bc 4278 85bd
00000190: cd10 813d 99ce 34bb 1f3c 5abd 9bb0 bcbc
000001a0: 1a1f f5bd a36e 1a3c f112 8e3d cc14 ca3d
000001b0: b885 e73c a1a6 9f3c 1eab ec3d 4684 10bd
000001c0: 7fb3 87bd c472 2bbd acfc 38bd cd84 b23d
000001d0: 765d 3abd 3fdc d7bd 88eb 283d a5f8 213d
000001e0: 2ab6 c23c 9a4d a3bd f494 84bd ad10 87bd
000001f0: 8675 b33b 3839 063c 549a 953c 9316 493d
00000200: 859b bdbd d1a4 b73c bc82 2d3d 9b07 473d
00000210: d8ac bebd 00f1 053a 956c 363d b0c2 963d
00000220: 32fc 273d 4542 81bd 32e5 f03d f02f e4bd
00000230: d432 bebc 3247 90bc 8a8f e83d 2d23 97bd
00000240: 0e66 d6bd 9f41 fa3d 6c9d d73d 46d1 8cbc
00000250: 8d2e 9bbd 1a41 53bd aaaf c7bd 2c0b f83c
00000260: a08b 4a3d 4c2f bbbd 2616 ffbd 2f8a 9dbd
00000270: adeb e13d 5763 94bd 606e cd3d c081 2dbd
00000280: 1f1d 283d 81f2 a13d 0496 1fbd 7afc 813d
00000290: 8c6d 353d bed1 b13d e3b8 163b 6772 b0bd
000002a0: 2d4e e2bd 46c0 b9bd d7e4 46bd 80b4 d83d
000002b0: 8bae 3ebb 917a ebbc 7873 523d 6f35 4b3d
000002c0: 0f9f e1bd cb16 4fbc e47f d3bd 6d46 6ebc
000002d0: 86b5 ea3d b512 953d fdfc 61bd 89c1 7d3d
000002e0: 7641 0a3d 8e55 f13d 2f1e 86bc 2e59 743c
000002f0: 0f81 b83d 0d2b 803d 585e 643c ff5e 73bd
00000300: b3c9 ea3d 1a3b 84bd 5186 803c 36f8 5d3d
00000310: c8cd dbbd 6251 27bd 875a 07bd 0e49 55bd
00000320: 6678 863c 5772 83bd b1c2 90bd 8108 823d
00000330: 0590 bfbd 201e 723d 19ab 62bd 7064 f2bd
00000340: 33a0 ba3b 985b a6bd 1e68 433d d49b 2f3d
00000350: e6b3 46bd e017 cabc fe25 e33c 849d dcbd
00000360: b40d f13c 71f1 4e3b 99d7 433d d32a 98bd
00000370: 1f33 d63c 6433 c3bd 3886 c63d 2416 e7bd
00000380: f6d8 92bc 9af6 d2bd 2034 77bd 3072 b63d
00000390: a2b0 4bbd 647b 1abc 2163 8e3c 333f d23d
000003a0: cc07 623d c763 a7bd 51d7 a2bd 5762 f93d
000003b0: 7be6 8a3d d98c 8bbd 9423 b7bd 459c 5a3d
000003c0: c9e7 233d f828 f9bd df58 f43d 8b09 8a3d
000003d0: db59 d1bd 2338 9cbc 9a06 8d3d 7f51 c43d
000003e0: 3aff 37bd 7042 dabd 4033 b03c e70a 2c3d
000003f0: 5171 7d3d da91 98bd 032b 813c 5bf2 f93d

lin2.bias f4 [16]
-0.017146753 -0.06174229 -0.029398456 0.090596154 -0.08483456 -0.045002215 -0.09348962 0.11698605
0.03704953 0.061142802 0.061262876 0.016969658 0.06482878 0.11702933 0.014750279 -0.0124677345
00000000: 5977 8cbc 7ce5 7cbd 08d5 f0bc 7a8a b93d
00000010: bebd adbd 3e54 38bd 7c77 bfbd 6296 ef3d
00000020: 3fc1 173d e070 7a3d c8ee 7a3d f403 8b3c
00000030: f4c4 843d 13ad ef3d 27ab 713c 7845 4cbc

lin3.weight f4 [3, 16]
0.21040371 0.20916402 -0.22044738 -0.11747444 -0.036497165 0.1245978 0.22327703 -0.102284156
0.09406637 0.101889044 -0.10222048 -0.043986525 0.23766099 0.17782833 0.24427553 -0.099496596
0.15151091 -0.24043094 -0.124996066 0.15320684 0.1469275 -0.11432037 -0.031371962 -0.16270506
-0.072200194 -0.08113867 0.23226114 -0.038415495 -0.1904642 0.16458078 -0.011217099 -0.12771977
-0.017329402 0.06480591 0.24547428 0.04396224 0.0075249905 -0.025320206 0.055259828 -0.007455577
0.20749646 0.1884322 0.041172497 0.012342203 0.02262695 -0.041305587 0.031719003 -0.030768072
00000000: 1274 573e 182f 563e f5bc 61be 7096 f0bd
00000010: 0d7e 15bd 222d ff3d bca2 643e 5b7a d1bd
00000020: dea5 c03d 34ab d03d f958 d1bd 372b 34bd
00000030: 675d 733e a118 363e 5d23 7a3e dfc4 cbbd
00000040: ad25 1b3e 8733 76be f0fd ffbd 41e2 1c3e
00000050: 2a74 163e cc20 eabd e37f 00bd 289c 26be
00000060: b2dd 93bd 082c a6bd ddd5 6d3e 9159 1dbd
00000070: 0c09 43be dd87 283e ecc7 37bc f9c8 02be
00000080: 64f6 8dbc f6b8 843d 9c5d 7b3e c011 343d
00000090: 3294 f63b 526c cfbc 2158 623d ea4d f4bb
000000a0: f479 543e 5ff4 403e 7ea4 283d f436 4a3c
000000b0: 275c b93c 0c30 29bd c9eb 013d 530d fcbc

lin3.bias f4 [3]
-0.19980264 0.027898984 0.0796233
00000000: 1099 4cbe 698c e43c 8a11 a33d
