dagger_models/model_6.pth (torch, 232098 bytes, 24 tensors)

conv1.weight f4 [4, 1, 5, 5]
0	0xbcf432fa	-0.029809464
1	0x3e1d89b5	0.15384562
2	0x3c8f3011	0.017478975
3	0x3e33c945	0.17557247
4	0xbe1b2a9f	-0.15152977
5	0x3d174219	0.03692827
6	0x3c40c3fa	0.011765474
7	0xbcf23d76	-0.029570322
8	0xbe0cd0bf	-0.13751505
9	0x3d5d3901	0.05400944
10	0xbe02f5f5	-0.12789138
11	0xbd98cc8a	-0.07460888
12	0x3e2197f3	0.1578062
13	0x3ded37b9	0.11582894
14	0xbda7d5a8	-0.081950486
15	0x3db42118	0.08795375
16	0xbe40fc69	-0.18846287
17	0xbdba783e	-0.091049656
18	0x3d5925a9	0.05301443
19	0xbcfe7ffb	-0.031066885
20	0xbd2c522e	-0.04207056
21	0x3c24889d	0.010042337
22	0xbde60fe9	-0.11233503
23	0x3e1404b1	0.14454915
24	0xbdb98400	-0.0905838
25	0xbe0ecd85	-0.13945587
26	0xbe4ec3fd	-0.20191951
27	0x3dcf75de	0.10129903
28	0xbe0bed31	-0.136647
29	0x3e368f6d	0.1782815
30	0x3df15a3d	0.1178479
31	0x3d8352af	0.06412255
32	0xbdbd2b09	-0.09236724
33	0x3ddf139a	0.108924106
34	0xbc37e047	-0.0112229055
35	0xbe245ff8	-0.16052234
36	0x3e336974	0.17520696
37	0x3e470468	0.19435275
38	0x3d1ec479	0.03876159
39	0x3e3c2866	0.18374786
40	0xbe523952	-0.20529678
41	0xbcf61127	-0.030037476
42	0x3e19dca1	0.1502557
43	0xbd1a364a	-0.03764943
44	0x3db9783b	0.09056135
45	0x3d627baa	0.055293716
46	0xbdf2d3e9	-0.11856825
47	0x3d30587e	0.043053143
48	0x3e28def5	0.16491301
49	0xbcc753fd	-0.02433204
50	0xbe3c9784	-0.18417174
51	0x3e19b15d	0.15009065
52	0xbe344ff5	-0.17608626
53	0x3d81cb29	0.06337578
54	0x3d2d184d	0.042259503
55	0x3d9e1003	0.07717898
56	0xbdb25557	-0.087076835
57	0x3dfe4be4	0.12416819
58	0x3e127e1f	0.14305924
59	0xbd81a36d	-0.06329999
60	0x3d32a689	0.04361585
61	0xbe0e718e	-0.13910505
62	0xbd546716	-0.051856123
63	0x3d1dfbb3	0.038570117
64	0x3e263614	0.16231567
65	0x3e245a60	0.160501
66	0x3d14e2cf	0.036349114
67	0xbd876b5b	-0.06612273
68	0x3e441d10	0.19151711
69	0xbd8d9002	-0.06912233
70	0x3e112b46	0.14176664
71	0x3dc5f6cf	0.09666216
72	0xbe0a7d17	-0.1352428
73	0xbddf97db	-0.10917636
74	0x3dc316a8	0.09525806
75	0x3e3ebd9c	0.18627018
76	0xbe0616f9	-0.13094701
77	0x3df1af7f	0.11801051
78	0x3d6acd85	0.057324905
79	0xbd57a2ad	-0.052645374
80	0x3e0ed21d	0.1394734
81	0xbc9c7ae9	-0.019101577
82	0xbc7e44d8	-0.015519343
83	0x3e3649a1	0.17801525
84	0x3c6bc0ee	0.01438926
85	0x3d62b1db	0.055345397
86	0xbd52ddfe	-0.05148124
87	0xbc83d53d	-0.01609289
88	0xbe17c999	-0.14822997
89	0x3d6858b0	0.056725204
90	0xbd6d18e2	-0.05788506
91	0x3c686346	0.014183825
92	0x3dfa66f0	0.12226665
93	0xbe3fc245	-0.18726452
94	0x3df9621e	0.121769175
95	0x3e40029f	0.18751
96	0xbd33d7b6	-0.04390689
97	0xbc0b2dfb	-0.008494849
98	0x3d7ec8ce	0.06220322
99	0x3c3db0ca	0.011577794

conv1.bias f4 [4]
0	0xbcfd4d09	-0.030920522
1	0x3cc8c84d	0.024509573
2	0x3e1446e7	0.14480172
3	0xbe0ee4f5	-0.13954528

norm1.weight f4 [4]
0	0x3f809ed7	1.0048474
1	0x3f800f86	1.0004737
2	0x3f7f0d09	0.99629265
3	0x3f7f8280	0.998085

norm1.bias f4 [4]
0	0x3b884b92	0.0041593993
1	0x3b71cf56	0.0036897263
2	0x3ad39c7b	0.0016144657
3	0xba9791af	-0.0011563803

norm1.running_mean f4 [4]
0	0xc1d7c009	-26.968767
1	0x42a2ee9f	81.46606
2	0x429bf770	77.98328
3	0x42bdcc2e	94.89879

norm1.running_var f4 [4]
0	0x4258bcbc	54.18431
1	0x43e469dd	456.82706
2	0x43961fb6	300.24774
3	0x43d5204f	426.2524

conv2.weight f4 [8, 4, 5, 5]
0	0x3d67cdc7	0.05659273
1	0x3be6f599	0.0070483205
2	0x3dcd57f1	0.10026539
3	0x3d968931	0.07350386
4	0xbd06e6ea	-0.03293506
5	0x3d9d0b9a	0.076682284
6	0xbd3d67d4	-0.046241596
7	0xbd9ac75b	-0.07557555
8	0xbc6d31de	-0.014477221
9	0x3daee627	0.08539992
10	0x3d1baab8	0.038004607
11	0x3ac35608	0.0014902959
12	0xbd58d9ee	-0.05294221
13	0x3d973fde	0.073852286
14	0xbda654cb	-0.08121642
15	0x3d728760	0.059211135
16	0x3bf8d018	0.007593166
17	0xbd7d8bdf	-0.06190097
18	0x3d160b29	0.036631737
19	0xbdac609b	-0.084168635
20	0x3d86d50a	0.06583603
21	0xbdc3719e	-0.09543155
22	0xbbae027f	-0.005310356
23	0xbccca793	-0.02498225
24	0x3d4a4de0	0.049390674
25	0xbd679a44	-0.056543604
26	0x3c213fb8	0.009841852
27	0x3b53da9b	0.0032326344
28	0xbdc6256b	-0.09675106
29	0xbdc12100	-0.094301224
30	0x3bf19d2f	0.007373474
31	0x3d061721	0.0327369
32	0x3db586f5	0.08863632
33	0xbdae7f38	-0.08520359
34	0xbdc58677	-0.09644788
35	0x3cdddd2b	0.027083
36	0xbd94f21a	-0.0727274
37	0xbd4503e7	-0.048099425
38	0x3bead4f2	0.0071664983
39	0x3ce8687f	0.02837014
40	0xbce9f2ba	-0.028558124
41	0x3d8209ba	0.063495114
42	0xbdb36a69	-0.087605305
43	0xbda25436	-0.07926218
44	0x3daca749	0.084303446
45	0x3d9b4c8e	0.07582961
46	0xbdc4364d	-0.095806696
47	0xbc06ff76	-0.008239618
48	0xbd73bc7b	-0.05950592
49	0xbcb30196	-0.021851342
50	0xbd42b20d	-0.047533084
51	0xbcc3a018	-0.02388005
52	0x3d52a74a	0.05142907
53	0x3da49904	0.08036998
54	0xbc31119a	-0.010807419
55	0xbd4accdf	-0.049511787
56	0x3d853d20	0.06505799
57	0xbd89bb85	-0.0672522
58	0x3d8ebd04	0.069696456
59	0xbd01b38c	-0.03166537
60	0x3d7651d6	0.06013664
61	0x3d8e76b9	0.06956238
62	0xbd4c6011	-0.049896304
63	0x3d98f40e	0.07468425
64	0xbdaf6d91	-0.0856582
65	0x3d52a087	0.051422622
66	0x3d3886f2	0.04505057
67	0x3d323795	0.04351004
68	0x3d0e8feb	0.03480522
69	0xbdc3594c	-0.095385164
70	0xbdc214f3	-0.09476652
71	0xbcc6be1c	-0.024260573
72	0xbd039562	-0.032124884
73	0xbd915f31	-0.070982344
74	0x3d282f75	0.041060884
75	0xbb05b02c	-0.0020399196
76	0xbcb58e3f	-0.022162555
77	0x3b7b2e79	0.003832726
78	0xbd85043f	-0.064949505
79	0xbd5b9c21	-0.053615693
80	0xbd1d90a0	-0.038468003
81	0x3c7a8fcd	0.015293074
82	0xbbc051a0	-0.0058691055
83	0xbb0f5857	-0.0021872723
84	0x3dc443c3	0.09583237
85	0xbbf82ca8	-0.007573683
86	0xbd0bfa3c	-0.03417419
87	0x3da86f0e	0.08224307
88	0xbb8dae40	-0.0043237507
89	0xbd1aa949	-0.0377591
90	0x3d9df7b4	0.07713261
91	0x3db8971e	0.09013198
92	0x3cf71c8c	0.03016498
93	0xbc31532b	-0.010823051
94	0xbdafe6a1	-0.08588911
95	0x3d698be6	0.057018183
96	0x3dc2b840	0.09507799
97	0x3dabee76	0.08395092
98	0xbd404dbf	-0.046949144
99	0xbd178b2f	-0.03699797
100	0x3cdec844	0.027195103
101	0xbc2e847a	-0.010651702
102	0xbcca6f9d	-0.024711424
103	0x3c40cec0	0.011768043
104	0xbd48263d	-0.048864592
105	0xbd5674c4	-0.05235745
106	0xbc75d5ec	-0.015004616
107	0xbd736079	-0.059418175
108	0xbd7b8561	-0.061406497
109	0xbc8e9dcd	-0.01740923
110	0xbb9b6ec2	-0.004743428
111	0x3d1e0e7d	0.038588036
112	0x3c015a55	0.007895072
113	0x3d9d70bd	0.07687519
114	0x3d60305b	0.054733615
115	0x3d895f6e	0.06707655
116	0xbdcdeab1	-0.100545295
117	0x3c03c976	0.0080436375
118	0x3cdb5c27	0.02677734
119	0xbda819cb	-0.082080446
120	0xbc8c78a5	-0.017147372
121	0xbd9bbb5a	-0.07604094
122	0xbdab3757	-0.083601646
123	0x3dae3315	0.08505837
124	0xbd8ac9b9	-0.06776757
125	0xbd24c3f2	-0.04022593
126	0xb8921a76	-6.966751e-05
127	0x3db823db	0.08991214
128	0xbd9007bc	-0.07032725
129	0x3a4e5664	0.00078711496
130	0x3d283f63	0.041076075
131	0xbcedaf66	-0.0290143
132	0xbc569e17	-0.013099215
133	0xbd9c880f	-0.076431386
134	0x3cda6668	0.02666016
135	0xbd7b5dcd	-0.061368752
136	0xbd15ef08	-0.03660491
137	0x3d8a9a68	0.06767732
138	0x3c9d14df	0.019174991
139	0xbd886372	-0.06659593
140	0xbdbaee1c	-0.09127447
141	0xbc4022da	-0.011727059
142	0x3a839040	0.0010037497
143	0x3d4845de	0.048894756
144	0x3d4e11eb	0.050310057
145	0xbd18b1b3	-0.037278842
146	0x3d99610b	0.074892126
147	0xbd576d6d	-0.05259459
148	0x3dab84ed	0.08374963
149	0xbdc65123	-0.09683444
150	0x3dc2e5c4	0.095164806
151	0xbdc8509b	-0.09780999
152	0xbcc0d40f	-0.023538617
153	0xbd145742	-0.036216028
154	0xbdbb4f33	-0.091459654
155	0x3d9d4415	0.07679001
156	0x3d2ed379	0.042682145
157	0x3d899b7d	0.0671911
158	0xbda38914	-0.0798513
159	0x3d92beda	0.07165308
160	0x3c479260	0.012180895
161	0x3d8c0263	0.06836393
162	0xbcd9a2fc	-0.026566975
163	0x3c0cdffe	0.008598326
164	0x3cd6a745	0.026202807
165	0xbd7e1367	-0.062030222
166	0x3d6ad8ae	0.057335548
167	0xbce3ee55	-0.027823607
168	0x3d193574	0.037404492
169	0xbd85963e	-0.06522797
170	0x3d5f9ce8	0.054592997
171	0xbd5999a7	-0.05312505
172	0xbd975429	-0.07389099
173	0x3d3b759c	0.045766458
174	0xbd58853f	-0.05286145
175	0x3bdb40a3	0.006691055
176	0xbd862e18	-0.065517604
177	0x3d994bba	0.07485147
178	0xbda99d99	-0.082820125
179	0x3ca29b0f	0.019849328
180	0xbb87354d	-0.004126227
181	0xbd6f20de	-0.058380954
182	0x3db8effc	0.090301484
183	0x3d651b6d	0.05593436
184	0x3d470c4a	0.048595704
185	0xbd7a760e	-0.061147742
186	0x3dcc97af	0.09989869
187	0xbd432a2a	-0.047647633
188	0xbda806f6	-0.08204453
189	0x3d4da55e	0.050206535
190	0xbda60659	-0.081066795
191	0xbbb9f12f	-0.0056745033
192	0xbda35069	-0.079743214
193	0xbdca6682	-0.09882833
194	0x3cf70a05	0.030156145
195	0x3d47eced	0.048809934
196	0x3c1fd3c8	0.009755082
197	0x3d37c9e8	0.044870287
198	0x3d5416bf	0.051779505
199	0x3d088834	0.03333302
200	0xbdab52d3	-0.08365407
201	0xbcd83de4	-0.0263967
202	0x3d9c1528	0.07621223
203	0x3d682a3a	0.056680895
204	0xbdc747ff	-0.09730529
205	0xbc448096	-0.011993548
206	0x3dc9a1ec	0.09845337
207	0xbcb32347	-0.021867407
208	0xbd41263c	-0.047155604
209	0x3d3afc53	0.04565079
210	0x3cbf2e3b	0.023337474
211	0x3dc96ac1	0.09834815
212	0x3d37d67e	0.04488229
213	0xbbf5dd2d	-0.007503173
214	0x3b8f05f7	0.0043647247
215	0xbd2e0595	-0.042485792
216	0x3db53e1a	0.088497356
217	0x3d5373ef	0.051624235
218	0xbcde2e30	-0.027121633
219	0x3d8ae61a	0.0678217
220	0xbdc8f756	-0.098128006
221	0xbdb7fac5	-0.08983377
222	0x3c44ebc4	0.0120191015
223	0x3da1c0e3	0.07898118
224	0xbdc529e9	-0.09627134
225	0xbdb28aac	-0.08717856
226	0xbd8e557e	-0.069499
227	0xbdc5bacf	-0.096547715
228	0xbcdb87a7	-0.026798083
229	0x3da418ad	0.08012519
230	0x3cc3f066	0.023918342
231	0xbc282a0c	-0.010263931
232	0x3c023263	0.007946583
233	0x3bf58058	0.0074921064
234	0x3c171676	0.009221664
235	0xbd1d87f9	-0.03845975
236	0x3d8a46e5	0.06751803
237	0xbc8b5c42	-0.017011765
238	0xbce373b4	-0.027765132
239	0x3d841e13	0.06451049
240	0xbd154f6b	-0.036452692
241	0xba06f8c6	-0.00051487645
242	0xbc97e289	-0.018540638
243	0xbd3e3067	-0.04643288
244	0xbcd286f1	-0.02569911
245	0xbd9ddc56	-0.07708041
246	0xbd3812a9	-0.04493967
247	0x3d3cad2f	0.0460636
248	0xbd8ae2db	-0.067815505
249	0x3d9577fc	0.07298276
250	0xbdc56ad0	-0.096395135
251	0x3cac027c	0.020997278
252	0xbc557ead	-0.01303069
253	0xbc870628	-0.016482428
254	0x3d546292	0.051851816
255	0x3dc8f272	0.09811868

conv2.bias f4 [8]
0	0x3d9169ab	0.07100233
1	0xbdc5c6ff	-0.09657096
2	0x3bbfc5fc	0.005852459
3	0xbd07a793	-0.033118796
4	0xbd560cc7	-0.05225828
5	0x3d6cd1b9	0.057817195
6	0xbdb7804a	-0.08960016
7	0x3d01c8aa	0.03168551

norm2.weight f4 [8]
0	0x3f7f9119	0.99830776
1	0x3f7ff3e1	0.99981505
2	0x3f7ffbdf	0.999937
3	0x3f7f55ae	0.9974011
4	0x3f7f95ae	0.9983777
5	0x3f8039a0	1.0017586
6	0x3f804506	1.0021064
7	0x3f803911	1.0017415

norm2.bias f4 [8]
0	0xba5ff664	-0.000854349
1	0x38d4be49	0.00010144391
2	0xb9c46f25	-0.00037466842
3	0x3a77c399	0.00094514486
4	0xba00976c	-0.0004905376
5	0x3af4f918	0.0018689958
6	0x3ae44e9a	0.0017418445
7	0x3b0caecb	0.002146649

norm2.running_mean f4 [8]
0	0x3c5abc68	0.013350584
1	0xbebaaf22	-0.3646174
2	0xbe6ca612	-0.23110226
3	0xbd19b339	-0.037524436
4	0x3dfda35b	0.12384673
5	0x3cf22dc7	0.029562844
6	0x3d91fc4e	0.071282014
7	0x3eb0724e	0.34462208

norm2.running_var f4 [8]
0	0x3dc0a40c	0.094062895
1	0x3da27912	0.079332486
2	0x3df8d4bd	0.121499516
3	0x3dcc1a37	0.099659376
4	0x3dd95279	0.106114335
5	0x3dc31f55	0.095274605
6	0x3d1b8101	0.037964825
7	0x3e9c9c9f	0.30588242

conv3.weight f4 [16, 8, 6, 6]
0	0xbc4c2c56	-0.012461742
1	0xbd0308b8	-0.031990737
2	0x3d515618	0.051107496
3	0x3d260f21	0.04054177
4	0x3cfa3d54	0.030546822
5	0x3ba4b5b8	0.0050265454
6	0xbce88661	-0.02838439
7	0x3d67925f	0.056536075
8	0x3cc27ee2	0.023742143
9	0x3d0b04d1	0.03394014
10	0xbcffa6e9	-0.031207519
11	0xbd063757	-0.03276762
12	0x3d266d45	0.04063155
13	0x3c83a6fa	0.016070832
14	0x3ca5dde4	0.020247407
15	0xbd2dc9be	-0.042428724
16	0xbd3e0971	-0.046395723
17	0xbcfbfcd8	-0.030760214
18	0x3d463571	0.04839081
19	0x3bc5a5e0	0.0060317367
20	0xbcb4dbc0	-0.022077441
21	0xbd3363e8	-0.04379645
22	0xbd59e828	-0.053199917
23	0xbca94a1d	-0.020665223
24	0x3d0e8dee	0.034803323
25	0x3cbafb1d	0.022824818
26	0x3a02bfd5	0.00049876916
27	0x3c928604	0.01788617
28	0x3bd04a58	0.0063565187
29	0xbd3027d1	-0.043006722
30	0x3cc7482b	0.024326405
31	0x3c983d06	0.018583786
32	0x3c0256b5	0.007955243
33	0xbd359336	-0.044329844
34	0xbc328150	-0.010895088
35	0xbd3508fa	-0.044198014
36	0xbc9dbe29	-0.019255714
37	0x3d089a13	0.03335006
38	0xbb23e501	-0.0025008323
39	0xbc48a886	-0.01224721
40	0xbcd77485	-0.026300678
41	0x3cf3efe8	0.029777482
42	0x3c8ffd3b	0.017576804
43	0xbb897ec1	-0.0041960184
44	0xbc8a1bbf	-0.016858933
45	0x3d0ed7f5	0.03487392
46	0xbb1bae66	-0.0023755073
47	0x3d5d6ed7	0.054060783
48	0x3d824390	0.06360543
49	0x3bfc28fc	0.0076953154
50	0x3d47d430	0.048786342
51	0xbcfcdb50	-0.030866295
52	0xbc92be52	-0.017913017
53	0x3b717308	0.0036842246
54	0xbccc11bf	-0.024910806
55	0x3c7b135c	0.01532444
56	0xbd123b42	-0.035701044
57	0x3d47b8cf	0.04876023
58	0xbb90c3df	-0.004417881
59	0x3c7ab245	0.015301292
60	0x3c6398ff	0.013891458
61	0x3cdf46d1	0.027255448
62	0xbb83cd63	-0.0040222867
63	0xbd62ac20	-0.055339932
64	0x3d4f9f1f	0.05068886
65	0x3c118266	0.008881187
66	0x3c37d9b9	0.011221343
67	0xbc11b7a5	-0.008893882
68	0xbd19cdb2	-0.037549682
69	0xbcbf8b66	-0.0233819
70	0x3c5ba9ac	0.013407152
71	0xbb9ed3d3	-0.0048470288
72	0xbb9e1744	-0.004824551
73	0xbd15de81	-0.03658915
74	0x3d596fe2	0.053085215
75	0xbd67af24	-0.05656351
76	0x3d541ff9	0.051788304
77	0x3d43cff9	0.04780576
78	0x3a1203ef	0.0005570044
79	0x3cdab42e	0.026697244
80	0xbb316e71	-0.0027073885
81	0xbafca604	-0.0019275551
82	0x3ce0d683	0.027446037
83	0x3d58b1da	0.052903987
84	0x3b4c0515	0.0031130959
85	0xbce1008e	-0.027466085
86	0xbd24cb21	-0.04023278
87	0x3d4f3e23	0.050596368
88	0xbcb5056b	-0.02209731
89	0xbc8d7a82	-0.01727033
90	0xbd49a419	-0.04922876
91	0xbbe39d7b	-0.0069462634
92	0x3c6f3f54	0.014602501
93	0x3b8c46df	0.0042809094
94	0xbcda81fc	-0.02667331
95	0xbd5c1681	-0.0537324
96	0x3d65e58b	0.056127112
97	0xbd691828	-0.056907803
98	0x3cf26972	0.029591296
99	0x3d42643f	0.047458883
100	0xbd542046	-0.05178859
101	0x3d283b25	0.04107203
102	0xbcab91cf	-0.02094355
103	0x3ccaaee7	0.024741603
104	0x3d64ae86	0.0558305
105	0xbd241432	-0.040058322
106	0xbc589d32	-0.013221072
107	0xbd19b225	-0.037523407
108	0x3b06e718	0.002058452
109	0xbcbb98b1	-0.022899957
110	0x3d1112b8	0.035418242
111	0x3d01a2d0	0.03164941
112	0xbd520847	-0.051277425
113	0xbd2c0e53	-0.04200585
114	0x3c82ec93	0.015981948
115	0xb960eeda	-0.00021451284
116	0xbc63d360	-0.013905376
117	0x3d35bac7	0.044367578
118	0x3ba04636	0.0048911823
119	0xbcc3bfc8	-0.02389516
120	0xbd128668	-0.03577271
121	0xbd44aa0a	-0.048013724
122	0xbb4343d2	-0.0029795063
123	0x3c55f33a	0.013058478
124	0xbd4a24a2	-0.049351342
125	0x3d01d75a	0.031699516
126	0x3d6356a5	0.055502553
127	0x3d13251b	0.03592406
128	0x3c8a337a	0.016870249
129	0x3c6e6939	0.014551454
130	0xbb11f5b6	-0.00222717
131	0xbd54fd8a	-0.051999606
132	0x3d64c492	0.055851527
133	0x3c91e1c3	0.017807847
134	0x3c9f7837	0.019466503
135	0xbcadac5a	-0.021200348
136	0x3c15dff8	0.009147637
137	0xbc87051f	-0.016481934
138	0x3d48c317	0.049014177
139	0x3ca96360	0.020677269
140	0xbbd23ace	-0.0064157015
141	0xbd242e37	-0.040083136
142	0x3d47863a	0.048711993
143	0xbcf1c7b7	-0.029514177
144	0x3c055e70	0.008140191
145	0x3cc6f0c2	0.024284724
146	0xbd236f3e	-0.03990101
147	0xbd6ab527	-0.057301667
148	0x3d0ca301	0.03433514
149	0x3d07bda3	0.033139836
150	0xbd0885c2	-0.033330686
151	0xbca190ed	-0.019722426
152	0x3cf012ba	0.029305805
153	0xbd6d9571	-0.058003847
154	0x3d234ffb	0.039871197
155	0x3d1458e5	0.03621759
156	0x3bd33537	0.0064455527
157	0x3c580a36	0.013186028
158	0x3cd6160d	0.026133562
159	0x3d3c59b1	0.045983974
160	0xbd773f80	-0.060363293
161	0xbd516e8f	-0.051130828
162	0x3cbbab0c	0.02290871
163	0x3bc43ec2	0.0059889266
164	0xbc6aafdd	-0.014324156
165	0x3d220aee	0.039561205
166	0x3d3483b5	0.044070918
167	0xbc18901b	-0.009311701
168	0xbd34c2a4	-0.044130936
169	0xbcdc09b4	-0.026860096
170	0x3d10d3fe	0.03535842
171	0xbd534c02	-0.05158616
172	0xbd1dd534	-0.038533404
173	0xbcf36cbd	-0.029714936
174	0x3cb55406	0.022134792
175	0xbbb3bafc	-0.0054849368
176	0xbd2f2678	-0.042761296
177	0x3c9f681d	0.019458825
178	0x3d294b04	0.041331306
179	0xbc532dfb	-0.012889381
180	0xbcd40908	-0.025883213
181	0xb9b1e1ce	-0.00033928308
182	0xbca9c2d6	-0.020722788
183	0x3d1060a9	0.035248432
184	0x3d1a0f41	0.037612204
185	0xbc7556ed	-0.014974338
186	0x3ce59913	0.028027093
187	0x3c52b140	0.0128596425
188	0x3bf50dad	0.007478437
189	0x3b98c39b	0.00466199
190	0xbd7442c1	-0.059633974
191	0xbcbdf9ff	-0.023190496
192	0xbd424e73	-0.047438096
193	0xbccd14a9	-0.025034266
194	0x3d2cc982	0.04218436
195	0x3ce2b221	0.02767283
196	0x3d4d16c4	0.05007054
197	0x3bd16b12	0.0063909376
198	0x3d0eadd3	0.03483374
199	0xbd42bb35	-0.047541816
200	0xbd7254be	-0.059162848
201	0xbc3da8ec	-0.011575919
202	0xbd2237e5	-0.039604086
203	0xbd0cbdc7	-0.034360673
204	0xbd61f5a0	-0.055165887
205	0xbd65bb73	-0.05608697
206	0x3cddb3ee	0.027063336
207	0xbc82f6a0	-0.01598674
208	0x3d62bb0f	0.055354174
209	0x3d099b72	0.03359551
210	0xbc6d2167	-0.014473296
211	0x3c8f829c	0.017518334
212	0x3baa61a4	0.005199628
213	0x3cf63db9	0.030058729
214	0xbc417cc9	-0.011809536
215	0x3c48fd35	0.0122674005
216	0x3be8b00d	0.007101065
217	0xbd3117aa	-0.04323546
218	0xbc074372	-0.008255826
219	0xbcce2724	-0.025165148
220	0xbd6e6b2f	-0.058207687
221	0xbd577af0	-0.052607477
222	0x3ba26718	0.0049561374
223	0x3d1b8fd9	0.03797898
224	0xbce240ef	-0.027618853
225	0x3cd348a4	0.025791474
226	0xbd4cfa92	-0.05004365
227	0xbc8660a6	-0.016403507
228	0xbbd3f523	-0.0064684316
229	0x3cd06d97	0.025442882
230	0x3d0e825c	0.03479229
231	0xbc35b166	-0.011089658
232	0xbc90be7e	-0.017668959
233	0xbd0717a5	-0.032981534
234	0xbd4266f1	-0.047461454
235	0xb8c15d8c	-9.2203816e-05
236	0x3c1a39bb	0.009413178
237	0x3cc985ce	0.024599936
238	0x3d0991c9	0.033586297
239	0x3cf9d7ee	0.030498471
240	0x3cf94e7e	0.030432936
241	0xbd38c400	-0.045108795
242	0xbd3d1ee0	-0.046172023
243	0xbd704781	-0.05866194
244	0xbbf11e3f	-0.007358342
245	0xbcd580cd	-0.026062394
246	0xbd57246a	-0.05252496
247	0xbcf98e62	-0.030463401
248	0xbd6fc67e	-0.058538906
249	0xbc6e0a79	-0.014528864
250	0xbd381773	-0.044944238
251	0x3cdc0891	0.026859554
252	0xbd0ede7c	-0.034880146
253	0x3c342126	0.010994231
254	0x3d4903f1	0.049076024
255	0x3c1ee276	0.009697547

conv3.bias f4 [16]
0	0xbd2b0e67	-0.041761782
1	0xbd43e6ec	-0.047827646
2	0x3d24f39f	0.040271398
3	0xbd513134	-0.051072314
4	0x3ceb4151	0.028717669
5	0xbc82f5e1	-0.015986385
6	0xbba4567f	-0.005015194
7	0xbd082890	-0.03324181
8	0x3b5bb1be	0.003352269
9	0xbc8dca88	-0.017308488
10	0x3bb5db16	0.0055497987
11	0x3d52bcde	0.05144965
12	0xbcaea8b1	-0.021320673
13	0x3b6f7115	0.0036535908
14	0xbc5fe338	-0.013665013
15	0xbca20fe3	-0.019782966

norm3.weight f4 [16]
0	0x3f802361	1.0010797
1	0x3f807987	1.0037087
2	0x3f7fd382	0.9993211
3	0x3f7fe99a	0.9996582
4	0x3f807bbf	1.0037764
5	0x3f8030d6	1.0014904
6	0x3f801cd9	1.0008804
7	0x3f7fc65b	0.9991204
8	0x3f802fc8	1.0014582
9	0x3f801e8b	1.0009321
10	0x3f7f9f07	0.9985203
11	0x3f804a22	1.0022624
12	0x3f802134	1.0010133
13	0x3f807035	1.0034243
14	0x3f80372a	1.0016835
15	0x3f801df3	1.000914

norm3.bias f4 [16]
0	0x3a37b0c8	0.00070072385
1	0x3b1064ef	0.0022032817
2	0x39b17dcd	0.000338538
3	0x3988d097	0.00026095353
4	0x3b6a6b36	0.003576947
5	0x3812b004	3.497304e-05
6	0x3aea3de8	0.0017871233
7	0xb9e95c2f	-0.00044509905
8	0x3aa782ab	0.0012780031
9	0x3a74c777	0.0009337584
10	0xbae903ae	-0.0017777586
11	0x3b460ecd	0.0030221224
12	0x3a482ad4	0.00076357764
13	0x3ad4e478	0.0016242405
14	0x3ae45bc4	0.0017422368
15	0x39fa3d35	0.0004772932

norm3.running_mean f4 [16]
0	0xbee19dee	-0.44065803
1	0xbf282529	-0.656817
2	0x3e9ff995	0.31245103
3	0xbee7948c	-0.4523052
4	0x3e30662d	0.17226477
5	0x3ea57480	0.32315445
6	0x3e44d36f	0.1922128
7	0x3f099541	0.5374337
8	0xbea5e8ce	-0.32404178
9	0x3e2e2f74	0.1701029
10	0x3d0cbaad	0.034357715
11	0x3ca015aa	0.01954158
12	0x3ecf7e4b	0.4052604
13	0xbeb2d3b4	-0.34927142
14	0x3caf2c01	0.021383287
15	0xbf1d726a	-0.61502707

norm3.running_var f4 [16]
0	0x3e919c67	0.28439638
1	0x3ee2bf16	0.44286412
2	0x3e0a9778	0.13534343
3	0x3e91a0fa	0.28443128
4	0x3e4ceee5	0.20013006
5	0x3e481ed1	0.19543006
6	0x3e51cc2a	0.20488039
7	0x3e54e0d2	0.20788887
8	0x3f1bc0d1	0.6084109
9	0x3e2b1892	0.16708592
10	0x3e9fd53d	0.31217375
11	0x3e9314dc	0.28726852
12	0x3e6dc759	0.23220576
13	0x3e693674	0.22774678
14	0x3e66badd	0.2253222
15	0x3ef1db1f	0.4723749

lin1.weight f4 [64, 768]
0	0xbc8c6c32	-0.017141435
1	0xbc9c6f33	-0.019095993
2	0x3ce8db33	0.028424835
3	0x3c85b8e7	0.01632352
4	0x3b849a4c	0.004046714
5	0x3d0e884d	0.034797955
6	0xbcc3817d	-0.023865456
7	0xbc19281c	-0.009347942
8	0x3c6cfd3a	0.014464671
9	0x3cc3b7c9	0.023891347
10	0xbc0f303f	-0.00873953
11	0xbca05e66	-0.019576263
12	0xbc4c3f2d	-0.012466234
13	0xbc6af8a6	-0.014341509
14	0x3cf6eeca	0.03014316
15	0x3d00e9bb	0.031472903
16	0xbcd9f17c	-0.026604407
17	0x3d09c791	0.033637587
18	0x3b3528b1	0.0027642662
19	0xbc8091f8	-0.015694603
20	0x3d1b0d7f	0.037854668
21	0xbaf8953d	-0.0018965375
22	0x3add1e3d	0.0016869974
23	0x3d052819	0.032508943
24	0xbc77d110	-0.015125528
25	0x3c8c158a	0.017100114
26	0x3cb529a2	0.022114579
27	0xbcf8e19d	-0.030381018
28	0x3be74645	0.0070579373
29	0x3d16ace7	0.036785986
30	0xbb7b6ca8	-0.0038364325
31	0xbc007f5e	-0.007842867
32	0x3cc2cc65	0.023779104
33	0xbcec9120	-0.028877795
34	0xbc8025ab	-0.015642961
35	0xbc6f6a7c	-0.01461279
36	0x3cf33155	0.02968661
37	0x3c689693	0.014196056
38	0xbc4627f2	-0.012094485
39	0x3bf27610	0.007399328
40	0x3bc16621	0.0059020673
41	0xbcc70ba9	-0.024297552
42	0x3ca86f68	0.020560935
43	0xbd03e98d	-0.032205153
44	0xbbc1ca59	-0.0059140143
45	0x3d0f045e	0.034916274
46	0xbd00773d	-0.031363714
47	0xbc119b4d	-0.008887124
48	0xbc2682f6	-0.010163059
49	0xbcafe426	-0.021471094
50	0x3c8b0cc4	0.01697386
51	0xbc0fadca	-0.008769462
52	0x3d2208c2	0.039559133
53	0x3cffeec4	0.031241782
54	0x3cf2b6b7	0.02962814
55	0x3c5bc913	0.013414639
56	0xbc22a386	-0.009926682
57	0xbca3e52d	-0.02000674
58	0x3d193177	0.03740069
59	0x3ca35742	0.019939069
60	0xbbee7875	-0.007277543
61	0x3cce39af	0.02517399
62	0x3c832357	0.016008062
63	0xbce30bae	-0.02771553
64	0x3c951992	0.01820067
65	0x3d080878	0.0332112
66	0x3c2404b6	0.010010889
67	0xbcd3f86f	-0.025875298
68	0xbcb11573	-0.021616673
69	0x3cd7ecea	0.026358087
70	0xba6c78ee	-0.00090207055
71	0x3c83c0a0	0.016083062
72	0xbc32397a	-0.010877961
73	0x3cb45e20	0.022017539
74	0x3cbe7209	0.023247736
75	0x3cfd7449	0.030939238
76	0x3ccdb8ec	0.025112592
77	0x3ceafdce	0.028685477
78	0x3c4beeac	0.0124470405
79	0x3aca7856	0.001544724
80	0xbd03fdbf	-0.032224413
81	0xbcb835c2	-0.022486571
82	0xbd089eac	-0.033354446
83	0x3c64e2ea	0.013970116
84	0xbd016b16	-0.031596266
85	0xbcb7d8bc	-0.022442214
86	0xbc79e2c3	-0.015251818
87	0xbcc64413	-0.024202382
88	0xbce6de17	-0.028182073
89	0x3cc0e867	0.023548318
90	0x39d9c648	0.00041537196
91	0xbca4fae2	-0.020139161
92	0x3c59eb35	0.013300707
93	0xbcafe699	-0.021472262
94	0x3cf0ba23	0.029385632
95	0xbcc8b608	-0.024500862
96	0xbc6df93f	-0.014524757
97	0xba985622	-0.0011622349
98	0xbc6507fa	-0.013978953
99	0x3c40dc9c	0.011771347
100	0x3a2e663e	0.00066528085
101	0xbcacba47	-0.021084918
102	0xbc71236b	-0.014717917
103	0x3cebb276	0.02877162
104	0xbd042746	-0.032264017
105	0x3c70ed0d	0.014704955
106	0xbce448b3	-0.027866697
107	0x3b91c1b7	0.0044481414
108	0x3b48634b	0.0030576761
109	0x3cac1c98	0.021009728
110	0x3ca6004b	0.020263812
111	0x3cb9367a	0.022608984
112	0xbc9592c0	-0.018258452
113	0xbc94bf9f	-0.018157778
114	0x3cb8197e	0.022473093
115	0xbc9f5dc5	-0.019453892
116	0x3c3a29f4	0.0113625415
117	0x3c39e949	0.011347123
118	0x3ce04ad7	0.027379436
119	0x3bb954ff	0.0056558843
120	0x3d102717	0.03519353
121	0x3ca1ef30	0.019767374
122	0x3c51b0bb	0.0127984835
123	0x3bedc866	0.0072565554
124	0x3d116c91	0.035503928
125	0x3c6250e6	0.013813233
126	0xba3361a0	-0.00068428554
127	0xbc6a077e	-0.014284013
128	0x3cba56db	0.022746494
129	0x3cbe4da0	0.023230374
130	0x3ce3d6c8	0.027812377
131	0x3cf21ced	0.029554809
132	0x3d1cf61d	0.03832065
133	0xbbb4c61b	-0.00551678
134	0xbcab0b5f	-0.020879446
135	0xbbca825b	-0.0061800904
136	0x3c98f3f1	0.018671008
137	0xbcb72322	-0.02235562
138	0xbc6760eb	-0.014122228
139	0xbc847572	-0.016169284
140	0xbc89eee1	-0.01683754
141	0x3b333260	0.0027343258
142	0x3c5f9492	0.013646262
143	0xbbb73766	-0.005591321
144	0x3c8bba90	0.017056733
145	0x3c4aad35	0.012370397
146	0x3bca7ad3	0.0061791926
147	0x3cb80d4e	0.022467282
148	0x38b5db55	8.671606e-05
149	0x3c2e4707	0.010637051
150	0xbca4614a	-0.020065922
151	0xbb27a605	-0.0025581133
152	0xbc78ede8	-0.01519344
153	0xbc1a44fb	-0.00941586
154	0x3d1bbe24	0.03802313
155	0x3d0fb2be	0.03508257
156	0x3d0953bc	0.03352712
157	0xba1a8615	-0.00058946136
158	0x3cf6153f	0.030039428
159	0x3cd29972	0.025707934
160	0x3c9e3d21	0.019316258
161	0x3d17acce	0.037030034
162	0x3cc2416a	0.023712832
163	0x3c49d0a1	0.012317807
164	0xbce49cb3	-0.027906751
165	0x3cc65caf	0.024214117
166	0x3d17cfba	0.037063338
167	0xbb630fce	-0.0034646871
168	0xbbaaa9d1	-0.005208232
169	0xbc91a4bd	-0.017778749
170	0xbac91b5d	-0.0015343238
171	0xbcf7fc92	-0.030271802
172	0x3d021ffd	0.031768788
173	0x3c0f6dd6	0.008754214
174	0xbb1e1cb9	-0.0024126007
175	0xbd0b40a7	-0.033997204
176	0xbcae81ad	-0.021302069
177	0x3cd3431a	0.025788832
178	0x3d009044	0.031387582
179	0x3c330aa4	0.01092783
180	0x3b984878	0.004647311
181	0x3ceb1668	0.028697208
182	0x3cd9d66c	0.026591502
183	0xbbc0b581	-0.005881012
184	0x3ca4186c	0.020031177
185	0xbcd43dad	-0.025908316
186	0xbc99473e	-0.018710729
187	0xbb87a28c	-0.00413925
188	0xbbac0e45	-0.0052507245
189	0x3bda4c6a	0.0066619413
190	0x3c992047	0.018692149
191	0xbc02357a	-0.00794732
192	0x3c84864b	0.016177317
193	0xbcd84752	-0.026401196
194	0xbd0b81a8	-0.034059197
195	0xbaabf2b8	-0.00131186
196	0x3cdfacb5	0.027304033
197	0xbabae14d	-0.0014257819
198	0xbc18ae83	-0.009318951
199	0x3c842fc2	0.016136054
200	0xbc9ede81	-0.019393208
201	0x3b0963f0	0.0020964108
202	0xbc88c9f9	-0.01669787
203	0xbd04025a	-0.032228805
204	0x3ccbc8e5	0.024876067
205	0xbcad4253	-0.02114979
206	0xbc8d5dad	-0.017256582
207	0x3bfd4f05	0.007730367
208	0x3ca75b43	0.02042926
209	0xbc4eed5b	-0.012629832
210	0xbb972fa9	-0.004613836
211	0x3c1dc5e8	0.009629704
212	0x3be8e6ef	0.0071076076
213	0xbc679c00	-0.014136314
214	0xbcf2ba00	-0.029629707
215	0x3c81ba39	0.015835868
216	0x3cb1a2c2	0.021684054
217	0x3c28a522	0.010293277
218	0x3cb98e52	0.022650871
219	0xbc34a0ee	-0.011024697
220	0x3cf85963	0.03031606
221	0x3cc6b346	0.024255406
222	0x395ca9f8	0.00021044153
223	0x3c946116	0.0181127
224	0xbc922b8c	-0.01784303
225	0x3d0ff5f3	0.035146665
226	0xbc5f3cef	-0.013625368
227	0x3c889a13	0.01667503
228	0x3c26c2b6	0.010178259
229	0xbc233bec	-0.009963017
230	0x3ccdbae6	0.025113534
231	0x3ca43451	0.020044478
232	0x3b3ce728	0.0028824303
233	0x3a7aea51	0.0009571659
234	0x3d1a30af	0.037644085
235	0xbca9b866	-0.02071781
236	0x3b2f3dea	0.0026739785
237	0x3cc88410	0.024477035
238	0xbcaa0d2f	-0.02075824
239	0xbc93affe	-0.018028256
240	0xbca4786b	-0.020076951
241	0x3bbc66b5	0.0057495483
242	0xbce9ef8f	-0.028556613
243	0x3c23caaa	0.009997049
244	0x3d1492c0	0.036272764
245	0x3cf1d470	0.029520243
246	0x3c61ba64	0.013777349
247	0xbccb6279	-0.024827229
248	0xbd0c6fd6	-0.034286343
249	0x3c7849d9	0.015154325
250	0x3d13037f	0.035892006
251	0x3c3b6a20	0.011438876
252	0x3cc2f2da	0.023797441
253	0x3c8e3795	0.017360488
254	0xbc7ebda1	-0.015548141
255	0x3c7567e6	0.014978385

lin1.bias f4 [64]
0	0x3c892fc3	0.016746407
1	0xba8d8975	-0.0010798412
2	0x3cde4b86	0.027135622
3	0x3cd51c78	0.026014552
4	0x3ce4887f	0.027897118
5	0x3cbda9de	0.023152288
6	0xbcd6a4cd	-0.02620163
7	0x3b442670	0.0029930137
8	0x3c1a6130	0.009422585
9	0x3bff405d	0.007789655
10	0x3cf53323	0.02993161
11	0x3bc57e67	0.006027031
12	0x3c7c2ea8	0.015391983
13	0x3cdc94ab	0.02692636
14	0xbc6cb30e	-0.014446987
15	0x3ca0b01c	0.019615225
16	0x3c7f81cf	0.015594914
17	0xbd02348b	-0.03178839
18	0xbc0daa0b	-0.008646498
19	0xbc9a05c6	-0.018801581
20	0x3b71d6b1	0.0036901648
21	0x3c9c6ee9	0.019095855
22	0x3c9e71bb	0.01934134
23	0xbcbb9f14	-0.022903003
24	0x3c8c9f3d	0.017165774
25	0xbc9335eb	-0.017970046
26	0x3cbfafde	0.02339929
27	0x3a39e3ef	0.00070911547
28	0x3ca8687a	0.02055763
29	0xbc0dac10	-0.00864698
30	0x3bd47334	0.00648346
31	0xbc46c434	-0.012131739
32	0x3c3dad0c	0.011576902
33	0x3cdc7962	0.026913349
34	0x3d099d3b	0.033597212
35	0xbc4452b8	-0.011982612
36	0xbbd10505	-0.006378772
37	0x3cc4563b	0.0239669
38	0x3bace8d2	0.005276778
39	0xbc8fa95c	-0.017536812
40	0xbc98c5c9	-0.018648999
41	0xbd0f024b	-0.034914296
42	0xbc366c68	-0.0111342445
43	0xbce4c4ad	-0.027925814
44	0xbd078977	-0.03309008
45	0xbcdbd736	-0.026836019
46	0x3c03923a	0.008030469
47	0xbce6d9eb	-0.028180083
48	0xbd032a45	-0.032022733
49	0x3ae07785	0.0017125463
50	0x3bcbf5ee	0.0062243855
51	0x3c1cd726	0.00957278
52	0x3c5ca9eb	0.013468246
53	0xbced2c7e	-0.02895188
54	0x3c8d49cf	0.017247109
55	0x3cb7e3ce	0.022447493
56	0xbc1ed047	-0.009693212
57	0xba8ca10a	-0.0010729146
58	0x3ce8e629	0.028430061
59	0x39b2e8b5	0.00034124186
60	0x3bbadc40	0.0057025254
61	0x3b83dfba	0.004024473
62	0xbc253f20	-0.010085851
63	0xbb7df977	-0.003875343

lin2.weight f4 [16, 64]
0	0x3d893a35	0.06700555
1	0x3d88a9cc	0.06673011
2	0xbdd3a957	-0.103350334
3	0x3dd2d150	0.102938294
4	0xbdf6f50b	-0.12058457
5	0x3d66e301	0.05636883
6	0x3d490bab	0.049083393
7	0x3c181e1b	0.009284521
8	0xbbaba745	-0.005238446
9	0x3bec7641	0.0072162454
10	0xbd9ba8f0	-0.07600582
11	0x3d1d7f59	0.038451526
12	0xbd50aaa5	-0.05094399
13	0x3d096a2a	0.03354851
14	0x3d2a4268	0.041567236
15	0x3deb040d	0.11475382
16	0xbd8bd8b8	-0.06828445
17	0x3d7149fe	0.058908455
18	0xbd45dc82	-0.048305996
19	0xbd18dea9	-0.03732172
20	0x3d83595a	0.06413527
21	0xbddbd91a	-0.10734768
22	0xbca4cf5c	-0.020118408
23	0x3d548374	0.051883176
24	0xbd8786cc	-0.06617507
25	0x3cf01f59	0.029311823
26	0x3dda33ad	0.106543876
27	0xbd56d63f	-0.052450415
28	0xbc425e83	-0.011863354
29	0xbde298c8	-0.11064297
30	0x3becc0fe	0.007225155
31	0x3c8880e1	0.016663017
32	0x3c3d0663	0.011537167
33	0x3d3e6f92	0.04649312
34	0x3c67ccd0	0.014147952
35	0x3d890ecd	0.06692276
36	0x3da857c2	0.082198635
37	0x3df09838	0.117477834
38	0xbdb30eb3	-0.08743038
39	0x3dd5adc5	0.104335345
40	0x3d6decae	0.058087043
41	0xbd4b8e92	-0.049696513
42	0xbd1d1597	-0.038350668
43	0xbdfb2621	-0.12263132
44	0x3b663ec6	0.003513263
45	0xbdb732e3	-0.08945253
46	0x3d04f0f4	0.032456353
47	0x3db83707	0.08994871
48	0xbde3c1ca	-0.11120947
49	0xbd33053b	-0.04370616
50	0x3d29b725	0.041434426
51	0x3c842a78	0.016133532
52	0xbde11c54	-0.10991731
53	0x3d41dcbd	0.047329653
54	0xbcc89be0	-0.02448839
55	0xbc1454a8	-0.009053387
56	0x3d49ab72	0.04923577
57	0x3c24f659	0.0100684995
58	0xbbe9e148	-0.0071374513
59	0xbbe6c976	-0.007043059
60	0xbdbd0365	-0.09229163
61	0xbdee1ecb	-0.11626967
62	0xbd972a3e	-0.07381104
63	0xbd0f494c	-0.03498201
64	0xbdd8241e	-0.10553764
65	0xbdddf2aa	-0.108373
66	0x3da5addf	0.08089804
67	0xbdc693b7	-0.09696143
68	0x3df58984	0.1198912
69	0xbc9b23c2	-0.01893795
70	0xbd52f993	-0.051507544
71	0x3dd43621	0.10361887
72	0xbda8a2ce	-0.082341775
73	0xbd053d28	-0.032529026
74	0xbd0f785b	-0.03502689
75	0x3dd32a18	0.10310763
76	0x3cdac63c	0.026705854
77	0x39f6e387	0.00047090297
78	0xbd573e83	-0.05254985
79	0x3cf514fa	0.029917229
80	0xbde4b5aa	-0.11167462
81	0x3da289ed	0.079364635
82	0x3d32c76b	0.04364721
83	0x3df5ed75	0.12008182
84	0xbd95ca56	-0.07313983
85	0x3d094455	0.033512432
86	0x3b467c69	0.0030286557
87	0xbc93df91	-0.01805094
88	0x3db8b1a5	0.09018258
89	0x3dd599e2	0.104297414
90	0x3d3a320e	0.045457892
91	0x3db4cc10	0.08827984
92	0xbdce48f4	-0.100725085
93	0x3d89982c	0.067184776
94	0x3d96935c	0.07352325
95	0xbdc62c36	-0.09676401
96	0xbddd9e08	-0.10821158
97	0xbd7665f7	-0.060155835
98	0x3d753898	0.059868425
99	0xbd0803b7	-0.033206668
100	0x3bf09107	0.0073415074
101	0xbd848870	-0.06471336
102	0xbd8ed61b	-0.06974431
103	0x3db9a946	0.090654895
104	0x3c95310e	0.018211868
105	0xbd76cd2c	-0.06025426
106	0x3d78c4f9	0.060734723
107	0x3dec70e2	0.11544968
108	0xbd4e452e	-0.050358944
109	0xbdf14694	-0.1178104
110	0x3c17f4a2	0.009274634
111	0x3d6bc4f3	0.057560872
112	0x3d82a3be	0.063788876
113	0x3d813b2d	0.06310115
114	0x3dd17873	0.10228052
115	0xbcab7824	-0.020931311
116	0x3d9a6b09	0.075399466
117	0xbdd44ab2	-0.103658095
118	0xbcb8434c	-0.022493027
119	0xbd0ea4c9	-0.03482512
120	0xbddc1c56	-0.10747592
121	0xbde94fe4	-0.11392191
122	0xbd0ef91e	-0.034905545
123	0xbcd59824	-0.026073523
124	0xbdb0612a	-0.086122826
125	0xbddc93ba	-0.10770364
126	0x3d940282	0.07227041
127	0xbce1b1de	-0.027550634
128	0xbc0ed7b7	-0.008718423
129	0x3dc56178	0.09637731
130	0x3b521350	0.0032054968
131	0x3c6234ec	0.013806563
132	0x3d8dfa16	0.06932466
133	0x3dadc283	0.08484366
134	0xbd3f54df	-0.0467118
135	0xbdb2bcd7	-0.087274246
136	0x3d90c74b	0.07069262
137	0x3b3a22b9	0.0028402044
138	0xbd3d5b15	-0.04622944
139	0xbaf6d85b	-0.001883279
140	0xbd70ada5	-0.05875935
141	0x3c2b184c	0.010442805
142	0xbd9e4b9b	-0.07729264
143	0xbd7d993d	-0.061913718
144	0xbd64ee24	-0.05589117
145	0x3d86d441	0.06583453
146	0xbd1a74c5	-0.037709016
147	0x3dda0807	0.10646062
148	0xbdc0b53d	-0.094095685
149	0x3c58b928	0.013227738
150	0xbd62c3e3	-0.055362593
151	0x3ba22e20	0.004949346
152	0x3da2f228	0.07956344
153	0x3d3f7d77	0.046750512
154	0x3d677948	0.056512147
155	0xbd006944	-0.03135039
156	0x3aadc753	0.0013258256
157	0xbce5a02e	-0.028030481
158	0xbdb64c3c	-0.08901259
159	0x3d15358c	0.03642802
160	0x3d90e4a4	0.0707486
161	0xbba7ecfb	-0.005124686
162	0x3db38cd8	0.08767098
163	0xbd8c3889	-0.06846721
164	0xbdf226ef	-0.11823832
165	0xbcccacfe	-0.024984833
166	0x3d8ef10c	0.0697957
167	0x3ae4f3e7	0.0017467708
168	0xbdc96076	-0.098328516
169	0x3dc47389	0.09592349
170	0x3d945790	0.07243264
171	0xbd0cfa6f	-0.03441852
172	0x3cf65f7d	0.03007483
173	0xbdc1b99c	-0.0945923
174	0xbd581c64	-0.05276145
175	0x3d2e2232	0.04251308
176	0xbcdcb38a	-0.02694108
177	0xbc22880c	-0.009920131
178	0x3d067804	0.0328293
179	0xbd881aca	-0.066457346
180	0xbda5c43c	-0.08094069
181	0x3dc56e83	0.09640219
182	0x3cb2d67f	0.021830795
183	0xbd8a4de9	-0.067531414
184	0xbd78a948	-0.060708314
185	0x3be946d8	0.007119041
186	0x3d350ca1	0.044201497
187	0x3d91dc2f	0.07122075
188	0x3cc40c64	0.02393169
189	0xbd00c47f	-0.031437393
190	0xbdcd1718	-0.100141704
191	0x3ca8d544	0.020609505
192	0x3e039056	0.12848029
193	0xbd11167f	-0.035421845
194	0xbda92b03	-0.08260157
195	0x3a2a0867	0.00064862374
196	0xbdbe6ef5	-0.09298507
197	0xbd4b0cc7	-0.049572732
198	0xbd5b5cbd	-0.05355524
199	0x3dc8d7a8	0.09806758
200	0x3c96e690	0.018420488
201	0x3d73ec71	0.05955166
202	0x3d9ef219	0.0776102
203	0xbdc16195	-0.094424404
204	0xbdd1b6e4	-0.10239962
205	0x3e00dde1	0.1258464
206	0xbdf6f9e9	-0.12059385
207	0xbdc64125	-0.09680394
208	0xbde1727e	-0.11008166
209	0x3d802b73	0.06258287
210	0x3e05f83e	0.13082978
211	0xbdbd35e8	-0.092387974
212	0x3c62aa47	0.013834543
213	0x3d804f9d	0.06265185
214	0xbdd93869	-0.106064625
215	0xbbc07839	-0.0058737067
216	0x3e031eb9	0.12804689
217	0x3d98e6c4	0.0746589
218	0x3d1f939a	0.038959123
219	0x3cae867e	0.021304365
220	0xbdc22a97	-0.094807796
221	0x3de123b3	0.10993137
222	0x3d04bc24	0.032405987
223	0x3dc30caf	0.095239036
224	0x3dc58fdd	0.0964658
225	0x3d837c19	0.06420154
226	0x3d5fd238	0.05464384
227	0xbb3d60aa	-0.0028896728
228	0x3de73734	0.11289826
229	0xbdd229ac	-0.102618545
230	0xbd1af3c8	-0.037830144
231	0x3c50ba0d	0.01273967
232	0xbdf17cd0	-0.11791384
233	0xbc9edb09	-0.019391553
234	0xbde4b19e	-0.1116669
235	0xbd9c583e	-0.07634018
236	0xbc829fae	-0.015945282
237	0xbdc12cf9	-0.09432406
238	0xbd47ed93	-0.048810553
239	0x3dbaebae	0.091269836
240	0xbdbb6560	-0.09150195
241	0xbd008eb3	-0.03138609
242	0xbd467e4f	-0.0484603
243	0x3de89c5b	0.113579474
244	0x3deae6c5	0.11469797
245	0xbd014de0	-0.031568408
246	0x3ca04d24	0.019568034
247	0xbdcbe49b	-0.099557124
248	0xbdb1977e	-0.08671473
249	0x3d98bb7d	0.074576356
250	0x3df643a4	0.1202462
251	0x3db8524e	0.090000734
252	0x3a8d5b7a	0.0010784708
253	0xbdc165f7	-0.094432764
254	0xbd7f310a	-0.062302627
255	0xbddd8afc	-0.10817525

lin2.bias f4 [16]
0	0xbcfbc7d1	-0.030734928
1	0x3d4ab952	0.04949314
2	0xbc405554	-0.011739094
3	0x3d687105	0.05674841
4	0x3d926cd3	0.07149663
5	0x3d63e63d	0.055639494
6	0x3d165b1f	0.036707994
7	0x3d9184e7	0.07105427
8	0x3de442fc	0.11145589
9	0x3d9315f6	0.07181923
10	0xbda7e5d2	-0.081981316
11	0xbd388467	-0.045048144
12	0x3d9a8dc3	0.0754657
13	0x3dbe8157	0.09302013
14	0xbd2b02d5	-0.041750748
15	0xbdd1b0ff	-0.102388375

lin3.weight f4 [3, 16]
0	0x3e484e85	0.19561203
1	0x3da887fa	0.082290605
2	0xbd998c1e	-0.07497428
3	0xbe7a0375	-0.24415381
4	0xbe29693d	-0.16544051
5	0xbe126452	-0.14296082
6	0xbdb70744	-0.08936933
7	0xbd892803	-0.06697085
8	0xbe12b35e	-0.14326236
9	0x3e80606e	0.2507357
10	0x3d935d1e	0.07195495
11	0xbe30acca	-0.17253414
12	0x3d11ba4c	0.035578057
13	0xbe79114c	-0.24323004
14	0x3df3c38f	0.11902534
15	0xbcf4a2d1	-0.029862793
16	0x3d99d600	0.075115204
17	0x3e48f589	0.19624914
18	0xbc016469	-0.007897475
19	0xbcbe97f9	-0.023265826
20	0xbe1e1bf4	-0.15440351
21	0xbe248e6d	-0.16069956
22	0x3ce9a7e6	0.028522443
23	0xbe7c110e	-0.24615881
24	0x3e40dc68	0.18834078
25	0x3e05eecc	0.13079375
26	0xbd1b307d	-0.03788804
27	0xbe7133a6	-0.23554859
28	0x3e462b07	0.19352351
29	0xbd858b2f	-0.06520688
30	0xbe36af42	-0.17840293
31	0xbe5897d0	-0.21151662
32	0x3e3273db	0.17427008
33	0x3e2fdc28	0.17173827
34	0x3dadbffd	0.084838845
35	0x3e48b823	0.19601493
36	0x3ca46a64	0.020070262
37	0x3d4f9734	0.050681308
38	0xb978004a	-0.00023651231
39	0x3e60f012	0.2196658
40	0xbd875a2f	-0.06608998
41	0x3dab7f38	0.083738744
42	0x3e77af07	0.24187861
43	0xbe50bb3a	-0.20383921
44	0xbe7d074e	-0.24709818
45	0x3e192cb6	0.14958462
46	0xbe3ec7a9	-0.18630852
47	0xbda5ab7a	-0.08089347

lin3.bias f4 [3]
0	0x3dc4f05f	0.0961616
1	0x3cdc5c7e	0.026899572
2	0xbd8bb6fe	-0.06822012
