dagger_models/model_4.pth (torch, 232098 bytes, 24 tensors)

conv1.weight f4 [4, 1, 5, 5]
00000000: a820 d2bd 06dc 4b3c 5aae 0c3e 6567 123d
00000010: f5a7 6f3d 6522 0c3e 763b f7bd fabd f23d
00000020: b819 d53b bd66 fe3d d0a0 24be 5c32 183e
00000030: bbd3 373e b5db 5e3d 4fa6 d73d 95dd 003e
00000040: 5155 e33d 8f56 443e dfd6 23be 2b30 a73d
00000050: cd03 a93d 9976 34bd 2f14 a1bd 2a19 85bd
00000060: d830 c4bd 7f90 9c3d 224a 71bd a7fd 033e
00000070: 8a33 1d3e f71f 5e3d f30a 20be 4a52 f6bd
00000080: 4bfa c7bd 529c 0cbe c000 093c d0f3 a53d
00000090: a65e 12bc 2799 513e cf6b 3bbe de3c 0cbe
000000a0: 283f cebb b8a3 06be 7cac 4d3a dced 003e
000000b0: 56ad 063e 5f31 173e ce52 92bd 4159 4c3e
000000c0: ef83 603c 83c9 0c3e 27ac 373e 42ff 753d
000000d0: 5647 b9bd e52c dbbd 12e8 efbd a9a2 243e
000000e0: d27d aebd 6a78 e73d 8fc5 113e 238f 68bd
000000f0: 28e9 153e 6d2b 87bc 7a7a 133d f153 c63b
00000100: acec 51bd c3e4 15be 1ff5 223e 8a47 963d
00000110: 68dd b5bc 377b a7bd e974 173e a749 49bb
00000120: dad5 14be 5521 0bbe fd68 f3bc c3d3 da3d
00000130: 508b 46be 6025 043e 8dfb 2abe 369f 9a3d
00000140: d530 fa3d 2b9c 8cbd 590e db3d a901 1abd
00000150: 6213 ad3d 53f2 233e 8b69 443e ad5d 413e
00000160: af52 273e 8a51 52bc c1ae 243e 47f0 93bd
00000170: 05ca fdbd a10c 9fbd deb2 12be 3c12 23be
00000180: 06f0 3f3e 1b77 2dbd d500 81bc 5756 b83d
-0.10260135 0.012442594 0.13738385 0.035743136 0.058509786 0.13684995 -0.12071888 0.118526414
0.00650331 0.124219395 -0.1607697 0.1486296 0.17951863 0.054408748 0.10529768 0.12584527
0.11100257 0.19173644 -0.15999936 0.08163484 0.08252678 -0.044058416 -0.07865178 -0.0649894
-0.09579629 0.07644748 -0.05890859 0.1288973 0.15351692 0.054229703 -0.15629177 -0.12027414
-0.097645365 -0.13731506 0.008361995 0.08103144 -0.008933699 0.20468579 -0.18302844 -0.13695094
-0.00629415 -0.13148391 0.00078458316 0.12590736 0.1315206 0.14764927 -0.071447 0.19955923
0.01370333 0.13748746 0.17936765 0.060057886 -0.090468094 -0.10701922 -0.11714186 0.16077675
-0.08520092 0.11302264 0.14235519 -0.05677713 0.14639723 -0.0165002 0.036005475 0.006052487
-0.0512511 -0.14638047 0.15913819 0.07337864 -0.022200301 -0.08177798 0.14790691 -0.0030714066
-0.14534703 -0.13586934 -0.029713148 0.106849216 -0.19389081 0.12904882 -0.16697522 0.07549898
0.12216345 -0.06865724 0.10696096 -0.03759924 0.084509626 0.16010408 0.19180886 0.1888339
0.16340135 -0.012836823 0.16082288 -0.07223564 -0.12392048 -0.07766081 -0.14326045 -0.15924925
0.18743905 -0.042349916 -0.015747467 0.09000843

conv1.bias f4 [4]
00000000: 2ab2 193e 68f6 193e 9f41 06be b34f acbd
0.1500937 0.15035403 -0.1311097 -0.08413639

norm1.weight f4 [4]
00000000: b512 803f 1b1f 803f 65a3 7f3f 0ae9 7f3f
1.0005709 1.0009493 0.99858695 0.99964964

norm1.bias f4 [4]
00000000: 05eb eb3b 2c8b e23b ddbc 0abb c315 413b
0.0071996474 0.0069135632 -0.00211697 0.0029462434

norm1.running_mean f4 [4]
00000000: 6ed8 0d43 e8fe 6342 e857 ad41 ff09 d142
141.84543 56.99893 21.667923 104.51952

norm1.running_var f4 [4]
00000000: a8da 5f44 6fe4 2843 518b 1943 7f04 fd43
895.4165 168.89232 153.5442 506.03513

conv2.weight f4 [8, 4, 5, 5]
00000000: 3754 29bd 2354 943d ae81 063d d85a cabc
00000010: a48d 2b3b 8fec 7c3c 0956 afbc a2c2 e63c
00000020: dd56 a6bd 920e 36bd 20a4 b3bd 7c95 c63b
00000030: 6ad0 03bd 2ede c0bd 4f9f aa3d 8627 b33d
00000040: 7dfb b2bd ded4 893d 017c 5a3d e56c 22bd
00000050: c565 b1bd 9e60 4b3b 4d59 37bd ae18 4cbc
00000060: ecf6 ab3d 471a ad3d 4bc6 b63d e440 5c3d
00000070: 9607 95bd 446e 383d 9136 5fbd aee3 16bd
00000080: ae28 f43c f3c0 743d 7f1b a03d 71a1 623d
00000090: 3a41 51bd 287c a8bd c934 683d e092 203d
000000a0: edb8 2fbd c02f a5bd f091 b53d 0bdc 90bd
000000b0: 9e2c 7b3d 480b b6bd 5a7d a2bd a4c4 8c3d
000000c0: 4cd6 a03d f3b0 c63d 20da b5bd b5de 3abd
000000d0: 1251 cbbc faa4 39bd 4476 1abd 2c4f 183a
000000e0: 6482 cbbc cfb0 733d 5167 fabc 21c0 72bd
000000f0: 2059 b83c e10c a0bb 617f 993c 8326 6cbc
00000100: bd80 a2bd e8e3 c53d 4aba 6abd d9c5 b5bd
00000110: c48f 353d 049e 673d df6c 21bd a269 1a3d
00000120: 7721 adbd ecd0 93bc 251e 5d3d 9d55 ac3d
00000130: 0cd1 6f3c 4415 283c c025 263d 9d35 943d
00000140: 1024 c23d eb24 c5bd 54ce 93bd 0872 9abc
00000150: 0b2d 02bd a0a3 64bc 3bbd 2abd 0dab 95bd
00000160: ec5e a23d eb00 5fbd 6d0c c8bb cc91 aebd
00000170: d213 923d 05b4 b6bd f69a bbbd 960a aebd
00000180: c1a6 04bc f0e0 b0bd 432e a43d de39 943d
00000190: a79d ac3a cb28 6ebd 3da9 8dbd 3c64 2c3d
000001a0: 162b d6bc 6d0b f63c 12f4 a93d 1ad2 9abd
000001b0: d244 9f3d 17ba f83c 9691 4abc c768 57bd
000001c0: cbd1 a13d 2e62 073c e698 813d 299a 7b3c
000001d0: dcd0 b1bd 774e b5bc 2184 42bd 5481 113c
000001e0: db48 c23a 7008 103c b4f4 263c caab 553d
000001f0: d843 bcbc 7c1d 06bd 19d8 ce3c 8704 643d
00000200: 09ac 2f3d 866d 473d b259 9abc ba35 c53c
00000210: fe97 88bd 9af7 b0bd 60bc b8bd ada8 94bc
00000220: e953 163d 1df0 bb3d 102f 263c 8750 49bb
00000230: 1650 a03d bf67 c4bb 44a2 633d a57a c33d
00000240: 5b58 9f3d 58e4 a53d a2ed 00bd 9c17 f6bc
00000250: c00d ca3d 882b 5abd 9bc1 123c ddd1 8cbd
00000260: ddbe 89bd 4b8f aebb 9104 5b3d c27e b3bd
00000270: 50c1 c3bc 39f9 04bd 4c5e 493d 87aa 8f3d
00000280: 9675 85bd c6fa f6bc 525d c3bd 2120 bd3d
00000290: 3737 77bd 1c9f 7cbd 2152 1b3d 91cb c03d
000002a0: 46ec 3dbd 1ace 223c 62e4 383c 7133 a43d
000002b0: 2dcf 9cbd 03cb 15bc f3fb 9dbc 383b 173a
000002c0: 3fb0 553d 1c6e 843c 4e51 98bd 20aa b93d
000002d0: 3214 49bd ffa5 513d fea3 313d 29fc 58bc
000002e0: 9ad4 6abd 01ed efbc ff50 7bbd 9695 3bbd
000002f0: 9b29 a83d 9fec c8bc e964 7cbd f1ec 7fbd
00000300: 8a43 b0bd 14b3 b6bc 1475 143d 1d3b a63b
00000310: 2278 c23d 2aa0 f5bb af1e 1c3d 5bb9 c4bd
00000320: 7212 943d c01a d7bc 5699 013d 98b5 103d
00000330: 9d8f 333d 8c2d 8abd c547 a5bd 3d1d 863d
00000340: d892 1a3d f1ff 823b e04d 973d 20fd b63d
00000350: 0790 6abd 8979 abbd 0e6e e23b e40c a6bd
00000360: c4e2 aa3d 54de 1bbc 95a3 c3bc d2f5 c03d
00000370: a315 b8bd 904a c43d 816d cd3d 3522 cbbd
00000380: 2774 c6bb af29 48bd 49fa 16bd 9bd2 f03c
00000390: 807a 833d a796 1ebd 55d7 82bc 609b 8a3b
000003a0: e0eb 953c 954c 703d 08e6 5e3d e426 a23d
000003b0: e813 2cbc f67c b03d f0e2 f0bc 8826 923d
000003c0: 0344 af3d 4856 f5bc 787f 98bc b860 25bd
000003d0: e33d 863c 6c2e 2e3c 4564 723d 5e86 0abd
000003e0: 6934 183c 73fc 313d 6852 243c 4842 1bbd
000003f0: 25d9 8bbc 936a 393c e52f 4dbd b096 82bc
-0.04134008 0.0724261 0.032838516 -0.02470152 0.0026176954 0.015437259 -0.02140333 0.02816898
-0.081220366 -0.04444749 -0.08771539 0.0060603004 -0.03218118 -0.094173774 0.08331167 0.08747773
-0.08739374 0.06730054 0.053340916 -0.03965463 -0.08661989 0.003103293 -0.0447629 -0.012457056
0.08396706 0.08452278 0.0892454 0.053772822 -0.072768375 0.045027032 -0.054495398 -0.036838226
0.029804554 0.059754323 0.078177445 0.055329744 -0.051087596 -0.08226806 0.056690965 0.03920257
-0.04290097 -0.08065748 0.08865726 -0.0707322 0.061321847 -0.088888705 -0.07934065 0.06873444
0.07853374 0.09701719 -0.08879495 -0.045622546 -0.02481893 -0.04532335 -0.037710443 0.00058101374
-0.024842449 0.05949479 -0.030566843 -0.05926526 0.022503436 -0.004884348 0.018737497 -0.014413479
-0.07934711 0.0966261 -0.057306565 -0.08875627 0.04432656 0.05654718 -0.03941047 0.037698396
-0.084536485 -0.018043958 0.053983826 0.08414767 0.014637243 0.010258976 0.040563345 0.072367884
0.094795346 -0.09626182 -0.07217088 -0.018853202 -0.031781238 -0.013955027 -0.04168437 -0.07308016
0.07928261 -0.054444235 -0.006104997 -0.08523902 0.07132687 -0.08921055 -0.09160416 -0.08498113
-0.008096398 -0.086366534 0.08016636 0.072376 0.0013169543 -0.058144372 -0.06917045 0.04208778
-0.026143592 0.030034745 0.08298506 -0.07559605 0.07776798 0.030362172 -0.012363812 -0.052590158
0.07901343 0.008263154 0.06327991 0.015356579 -0.08682415 -0.022132142 -0.04748929 0.008880932
0.0014822738 0.008791074 0.010190178 0.052165784 -0.02298157 -0.032742962 0.025249528 0.05566838
0.042888675 0.048688434 -0.018841598 0.02407347 -0.06669615 -0.08640976 -0.09020305 -0.018146837
0.036701117 0.09176657 0.0101430565 -0.0030718164 0.07827775 -0.005993813 0.05557467 0.09544877
0.07780524 0.08100194 -0.031476624 -0.030040555 0.09865904 -0.05326417 0.008957292 -0.06875966
-0.067258574 -0.0053271404 0.05347115 -0.087644115 -0.02389589 -0.03246424 0.049162194 0.070149474
-0.06516568 -0.030148875 -0.09539284 0.09234644 -0.06035539 -0.061675176 0.03792012 0.09413827
-0.046367906 0.009936834 0.011284919 0.08017624 -0.07656703 -0.00914264 -0.019285178 0.0005769017
0.052170034 0.016165785 -0.07437383 0.09065652 -0.049091525 0.051183697 0.043369286 -0.013243713
-0.05733166 -0.029287817 -0.06135654 -0.045796953 0.082110606 -0.024526892 -0.061619673 -0.062481824
-0.08606632 -0.022302188 0.036244467 0.005072965 0.0949557 -0.0074958997 0.0381152 -0.09605666
0.07230081 -0.026257873 0.031640373 0.03532943 0.043838132 -0.067469686 -0.080703296 0.065485455
0.037737697 0.0039977957 0.073879 0.089349985 -0.05726626 -0.0837279 0.006910092 -0.081079274
0.08344033 -0.009513456 -0.023881713 0.094218865 -0.08988502 0.09584534 0.10030652 -0.09918634
-0.006056327 -0.048867878 -0.036859784 0.0293973 0.064198494 -0.038717892 -0.015971819 0.004229948
0.01830095 0.058666784 0.054418594 0.07917574 -0.010502793 0.086175844 -0.029405087 0.071362555
0.08557894 -0.029948369 -0.01861547 -0.04037544 0.016386932 0.010631185 0.059177656 -0.03381955
0.009289839 0.043453645 0.010029413 -0.037905008 -0.017071316 0.011316913 -0.050094504 -0.015940994

conv2.bias f4 [8]
00000000: 5848 a03b aac0 60bb 3d27 71bc 1b01 bebd
00000010: 4567 c6bd b743 cdbb 5342 c6bd b35c 513d
0.0048914365 -0.0034294524 -0.014718828 -0.092775546 -0.09687666 -0.0062641758 -0.09680619 0.051113795

norm2.weight f4 [8]
00000000: 7401 803f f8c7 7f3f c981 7f3f c388 803f
00000010: 3aaf 7f3f 566b 7f3f a60f 803f 9627 803f
1.0000443 0.99914503 0.9980741 1.0041736 0.9987675 0.99773157 1.0004776 1.0012081

norm2.bias f4 [8]
00000000: e01e 753a 0cce 2d3a 36a7 a5b7 e267 b339
00000010: f73d b0b9 591b 983a 49de b8b9 8305 bc39
0.0009350609 0.00066301296 -1.9747396e-05 0.0003421894 -0.00033615503 0.001160483 -0.0003526083 0.0003586226

norm2.running_mean f4 [8]
00000000: 94cb 19be 2130 b63c 162f 3dbd bb0f e5be
00000010: f51b 09be 654a 493e 1241 8abe 8474 8ebe
-0.15019065 0.022239747 -0.046187483 -0.44738564 -0.13389571 0.19657286 -0.2700277 -0.2782327

norm2.running_var f4 [8]
00000000: ae78 f63d f2c9 a83d 5cf5 b93c aab0 ae3d
00000010: f669 6a3d 50a4 a93d 2127 2b3d 159e bc3d
0.120347366 0.08241643 0.022700004 0.0852979 0.05722996 0.08283293 0.041785363 0.09209839

conv3.weight f4 [16, 8, 6, 6]
00000000: 83cf 583d 177d 093d 700d 073d b2d6 37bd
00000010: ea74 2bbc 2de2 523d 99fa 67bd 47cb fa3c
00000020: 9d3a 77bd 8130 1c3b 7730 ce3b 209c 6bbd
00000030: bf2d 283d 8f40 fcbb 5ca8 0f3d 99dc 283d
00000040: cc2c 2dbd 4a39 42bd 5bbb df3c 8fb2 60bc
00000050: c9d5 0e3d 646a 553d 53fb 1b39 6aeb 323d
00000060: f6a2 a6bc 9ece 0e3d 1e05 543c 58cd 3bbd
00000070: 2930 a03c a7fd 093d 7cf1 3dbb 8233 233d
00000080: a955 273d 20af 83bc daf7 6abb b69b 6a3d
00000090: 1101 dbbc a760 14bd 60b3 013d 87c5 13bd
000000a0: f830 303d 5359 bb3c d400 91bb 9b2f 9f3a
000000b0: 24db 37bd f8ae 9d3b faed 443d d92e a83b
000000c0: 0dc0 40bd 60e5 07bd c2d6 223d aa6d ba3a
000000d0: 17f9 babc 0fe9 283d 854e 493d 7705 1d3d
000000e0: 7723 c23c b04b 833c 769a 163d 2094 2d3d
000000f0: d498 413d 19ca cb3c 6ee4 043d 37f7 423c
00000100: 1bbd 50bd 244d 483d e39d 46bc 4a59 24bd
00000110: e801 d9bc b59d 40bd a2e6 35bd 2d98 89b9
00000120: 6cb2 303d a621 69bc f018 c6bc 387e babc
00000130: e1d4 cc3c 24e7 6ebd 731c e9bc 85e3 323d
00000140: 206e 6c3a 6699 253d 2080 5e3d c158 08bd
00000150: 278b 44bd 1b2b 01ba b109 b73c 2d7b fd3c
00000160: 1a57 1fbd 845a c1bc ebdd 8f3c 9ef9 223d
00000170: 0ea9 c5bc a423 2c3b 00c8 53bd d2cd e93c
00000180: 0ae4 38bd ba79 6cbd 0b73 b9bc cb4a 03bd
00000190: ba4d 3e3c 8994 41bd cf50 afbc bbf1 893c
000001a0: fd11 e1bc 08dc a2bc 57b0 54bd d85f d4bc
000001b0: 5424 993c 636e 39bd 9b48 603d cd54 b7bc
000001c0: 5aab 353d dffe 35bd b9c7 63bd 8609 5abd
000001d0: 80b0 b93c 5e6a dfba 6f7c 8aba 3941 633c
000001e0: c72b 513d ce52 883c 12e8 6cbd 0ea7 473d
000001f0: 3fa0 e83b d884 27b8 9f36 25bd 782a 16bc
00000200: c8d2 3ebb 7aab 4bbd 70c8 943c c348 173d
00000210: fa2d 1cbd c53f c1bc 8aec 53bd f409 833c
00000220: 3c22 f43b 614f 43bd 1b77 13bd 89bd 24bb
00000230: 1cf4 2cbb 1833 4dbb b344 093c 2037 34bd
00000240: abe1 04bd 3a82 9fbc 69a2 b53c 12fc 47bc
00000250: 9843 3fbd 645a 74bb ba07 48bd a90a 59bd
00000260: acc4 a93b a64f 123d 6f32 133d 4782 5cbd
00000270: 26d6 1a3d baf6 98bc 02b6 61bb 2a9c d6bc
00000280: 9944 66bd a6f7 2d3d 616c 2a3d 9aeb 2ebc
00000290: 1534 84bc c73d 2d3d 6862 abbc 2811 ebbb
000002a0: 04a3 cc3c f9fd 1cbd 1ec2 68bc a43a 64bd
000002b0: e717 ca3c 9f81 423d 9cda 153d e1d8 593d
000002c0: 3ad7 63bd 49f9 4abd c3a7 363d 507b 73bd
000002d0: 68c8 4f3a 630c bdbc 96f4 02bd 20cc 2ebd
000002e0: 87fd b4bc 1cb3 31bc 7dd1 383d a04e 52bd
000002f0: 877d d13c 67e4 de3c 2f84 22bd 71be 6c3d
00000300: 297b 0b3d edfa 87bc 5ab9 6abd a514 253d
00000310: fa4a 20bb 99b8 0dbd 8e5e 103d 807b 8ebc
00000320: ae3b 96bc d4ab 03bc ff57 4dbd 12ee e0bc
00000330: 622f 153d 9e77 56bd eb37 1c3c 052c 6c3d
00000340: a724 1ebd 559f f8bc b578 f4bc dac7 5ebc
00000350: f249 9c3c 2f83 4abd a4ed 9cbc a440 143d
00000360: 83aa 3c3d 5386 3c3d 71ca acba adac 013b
00000370: 866b df3c f72f 3abd f68f 563d de60 513d
00000380: 1d44 7b3c 59cd 03bd 66b8 673d 6301 9e3c
00000390: 3129 d6bc 95da 0f3d 8a9b ab3c b854 c0bc
000003a0: 615f 5c3b 3f80 2ebd c7d5 ccbb 4688 713d
000003b0: 15c8 94bc 36ec eb3c 5485 17bd 38c6 7f3b
000003c0: 9485 52bc 6a24 753d f566 05bd 7ea0 663d
000003d0: 9f98 0abc b528 123c 7a38 2dbd 9290 61bc
000003e0: 5b4b e03c d2d8 b5bc a655 0f3d 0462 2f3d
000003f0: eee9 58bd 3420 66bd 504b 81bc 626f 963b
0.052932274 0.03356656 0.0329718 -0.044882484 -0.010464886 0.05148523 -0.056635473 0.030614508
-0.060358632 0.0023832622 0.0062923986 -0.05752194 0.041059252 -0.0076981257 0.03507267 0.041226003
-0.04227905 -0.047417916 0.027311018 -0.013714447 0.03487185 0.052103415 0.00014875577 0.04368154
-0.020341378 0.034865014 0.012940673 -0.045850128 0.019554215 0.033689167 -0.0028983047 0.039844044
0.040853176 -0.016074717 -0.0035853297 0.057277404 -0.026733907 -0.036224987 0.031665206 -0.03607705
0.04301545 0.022869742 -0.0044251475 0.0012144925 -0.044886723 0.0048121177 0.048078515 0.005132538
-0.047058154 -0.033177733 0.03975559 0.0014223356 -0.022823853 0.041237887 0.049147148 0.03833529
0.023698552 0.016027302 0.0367684 0.04237759 0.04726489 0.024876641 0.03244441 0.011899761
-0.050961595 0.048901692 -0.012122604 -0.040124215 -0.026490167 -0.0470254 -0.0444094 -0.00026244056
0.043138906 -0.014229214 -0.024181813 -0.022765264 0.025003852 -0.0583259 -0.028455948 0.04367401
0.00090190955 0.040429495 0.05432141 -0.033287767 -0.04798427 -0.00049273827 0.022343488 0.030942524
-0.038901426 -0.023602732 0.017561873 0.039788835 -0.024128463 0.002626636 -0.051704407 0.028540526
-0.04513935 -0.057733275 -0.022637865 -0.03205375 0.011615211 -0.047260795 -0.021400837 0.016838899
-0.027474398 -0.01988031 -0.051925983 -0.025924608 0.01869408 -0.04527129 0.054756742 -0.022379303
0.044352867 -0.044432517 -0.055610392 -0.05323174 0.02266717 -0.001704525 -0.0010565649 0.013870531
0.05106714 0.016641047 -0.057838507 0.0487433 0.007099181 -3.9939623e-05 -0.040335294 -0.009165399
-0.0029117335 -0.04972408 0.018161982 0.036934625 -0.038129784 -0.023589978 -0.051739253 0.015995957
0.00745037 -0.047683123 -0.03600226 -0.0025137386 -0.0026390618 -0.0031310972 0.008378196 -0.043997884
-0.032441776 -0.019471277 0.02217217 -0.012206094 -0.04669532 -0.0037285322 -0.048835494 -0.052988682
0.005180916 0.03572049 0.03593677 -0.05383518 0.037801884 -0.018672336 -0.003444076 -0.026197512
-0.056217764 0.042472504 0.041607264 -0.010676289 -0.016138116 0.042295244 -0.020920947 -0.007173676
0.024980076 -0.038328145 -0.014206437 -0.055719987 0.0246696 0.047486898 0.036585435 0.053185347
-0.055625178 -0.049554143 0.044593584 -0.05944377 0.0007926286 -0.023077196 -0.031971537 -0.042675138
-0.022093548 -0.010845926 0.04512166 -0.051344514 0.025572551 0.02720852 -0.03967684 0.057798807
0.034053 -0.016599143 -0.05730567 0.04030289 -0.0024458752 -0.034599874 0.035246424 -0.017392874
-0.018339004 -0.0080365725 -0.050132748 -0.02745727 0.03642214 -0.05236017 0.009534816 0.057659168
-0.038609173 -0.030349413 -0.029842714 -0.013597453 0.019078229 -0.049441513 -0.019156285 0.03619446
0.04606105 0.04602654 -0.0013182891 0.001978676 0.02727295 -0.0454559 0.052383386 0.05111777
0.015336064 -0.032178257 0.05657234 0.01928777 -0.026142688 0.035120565 0.02094819 -0.023477897
0.0033626186 -0.042602774 -0.00625107 0.05896785 -0.018161813 0.028799158 -0.036992386 0.003902806
-0.01284923 0.05984918 -0.03256889 0.0563054 -0.008459239 0.008920838 -0.04229019 -0.013767378
0.027379682 -0.022198115 0.03499379 0.042818084 -0.052957468 -0.056183055 -0.015782982 0.0045909146

conv3.bias f4 [16]
00000000: 3d4e dfbc 1581 b7bc 0b14 c0bc c4d2 bd3c
00000010: 7ed4 45bd 8d44 a2bc 4eed 263d c2b8 ba3c
00000020: f12a 5a3d a2b7 113d eb75 eabc c318 adbc
00000030: ecb7 043c 2eb0 ab3c 699f 2ebc c5f7 55bd
-0.027258987 -0.022400418 -0.023447057 0.02317179 -0.04829835 -0.019808078 0.040753655 0.022793178
0.05326361 0.035575517 -0.02862068 -0.021129971 0.008100491 0.020958032 -0.0106581235 -0.052238245

norm3.weight f4 [16]
00000000: ede8 7f3f 2a09 803f 0c39 803f f67a 803f
00000010: a11a 803f c904 803f f83e 803f 6c47 803f
00000020: e91d 803f 7918 803f 661a 803f ea2a 803f
00000030: 930c 803f 84a2 803f f424 803f 4669 803f
0.9996479 1.0002797 1.0017409 1.0037525 1.0008126 1.000146 1.0019217 1.0021796
1.0009128 1.0007468 1.0008056 1.0013096 1.0003837 1.0049596 1.0011277 1.0032127

norm3.bias f4 [16]
00000000: 7307 3db5 e08d 26ba 8325 223b 4e91 0d3b
00000010: 902b 2d3a f2ba 883a 3724 2b3b 236a 963a
00000020: adbf 683a a285 8d39 0921 ba3a 9a19 c53a
00000030: 500d 113a cd2f 8d3b 3231 ed3a 6fcd 5e3b
-7.0418827e-07 -0.00063535385 0.0024741597 0.00216015 0.00066059176 0.0010431691 0.0026114115 0.0011475723
0.00088786596 0.0002699318 0.0014200519 0.0015037537 0.0005533295 0.004308677 0.0018096326 0.003399696

norm3.running_mean f4 [16]
00000000: 7123 14bf c08c 31be b666 00be aefb a13e
00000010: 1328 623e 6a6f c6be ad37 1ebf 629d 183e
00000020: fbb7 9cbd 0d73 43bf 3e99 8abe 1fbc 1cbf
00000030: 9331 94be b10e 053f f0fd 3dbe 6f16 f13e
-0.5786658 -0.17338848 -0.12539181 0.3163733 0.220856 -0.38756877 -0.61803705 0.14903787
-0.07652279 -0.7634743 -0.2707004 -0.6122455 -0.28944072 0.5197554 -0.185539 0.47087428

norm3.running_var f4 [16]
00000000: a3e2 683e 1066 4a3e 50e1 523e 68c2 163e
00000010: 2a5c 013e 2df7 b53e 8571 bd3e ae00 303e
00000020: 5c49 3a3e 5ff5 563e ee57 343e 5fad 8b3e
00000030: 2b5c 9b3e ae85 173e 4b06 493e 3594 873e
0.22742705 0.19765496 0.20593762 0.14722598 0.12632814 0.35540143 0.3700067 0.1718776
0.18192047 0.20992039 0.17611668 0.2728071 0.30343756 0.14797089 0.19631307 0.2648026

lin1.weight f4 [64, 768]
00000000: 151c fd3c 137d 8ebc 1174 623c 8861 423c
00000010: fbb4 dfbc 809a b2bc 5a39 09bc c91c bcbc
00000020: 1e85 f5bc 3c6a e2bc 1b69 b4bc 3431 ec3c
00000030: 802f c83b 14f8 ebb9 2588 afbc 8955 5e3c
00000040: bc53 003d bf1d fb3c 3114 32bc 0085 f3ba
00000050: 0489 07bd d9c2 f3bb b9eb c4bb 4139 e2bb
00000060: 1197 c0bc 52e5 c63b 48c9 f0bc d070 2bbc
00000070: 0766 ec3b 3cfe 0cbd a8df f6ba bf43 04bb
00000080: b036 84bc acbf d9bc 5646 ea3c 3151 cd3c
00000090: 1516 86bc 0e4e ac3c 76d2 4f3c 9730 d73b
000000a0: d2ac b0bc 5ff5 3d3c 79e2 c0bc ca6b 8c3c
000000b0: 8e03 9bbb c20a 95bb 7c5b 3abc b165 65bc
000000c0: a49e a83c 5cbf e8bc 63e1 103d 1d26 063c
000000d0: ce67 6d3c e3ba 88bb 6640 013d 1f37 d33c
000000e0: 6520 63bb ccfd f5bc f950 83bc 93e3 5fbb
000000f0: 93d2 d7ba c4fc cfbc 758c 2b3c 5a07 75bc
00000100: 875d d53c 98c8 353c 3ab7 cdbc 2b52 cd3c
00000110: 2c68 cd3c b860 dfbb 6577 0dbd f025 1cbc
00000120: 5f13 82ba a395 b2bc e2d1 a73c 9c84 643c
00000130: a434 013d 9308 59bb ce0b 4cbc 23ea b53c
00000140: 08cc 87bc 31e3 0bbd 3d6a 2d3b 2fc2 853c
00000150: 5a42 6b3c 13a4 823b bdcf 9f3c 3094 e8bc
00000160: 4ed2 8dbc 1ded b63c 2888 c2bc a5c1 793c
00000170: 3d01 c9bc 6992 90ba 6ff6 65bb f416 d5bc
00000180: de61 053d 23f2 ce3b 5995 493c 0fb4 103d
00000190: 5e4a febc b9f9 003c 6e25 07bd bdf0 55bb
000001a0: 008b c83c 24c3 0abd 2de9 04bd d7f4 97bc
000001b0: 5ced 1fbc 26e9 803c 591e 9d3c eb23 ab3c
000001c0: 60d7 b3bb 5f73 803c 97e3 0d3d 1ea9 8239
000001d0: 6e78 023d 3de0 963c 35ea 95bc 050a 8f3c
000001e0: 67b8 b93b 4e06 02bd 7da9 39bc 62fd e9bc
000001f0: c56d a8bc 66e5 d93c 6466 9a3b e9f1 ddbc
00000200: dfe9 c3bc a1fd ba3c fc12 003d e106 123d
00000210: 9094 bfbc feb0 ad3c 3cc2 463c 2579 4c3b
00000220: 22f3 0f3d 1791 7f3c 1347 0a3d ff51 09bd
00000230: a451 423c f76c 10bd 6491 d8bc 6478 da3c
00000240: fb81 09bd 1582 22bb a575 243c 5eb0 a93c
00000250: b47d 0a3d af9e 97bc 8cfe a6bc 0d38 e93b
00000260: 8edd d53b 96ea 11bc d4c7 c2bb 406c abbb
00000270: 3f57 f639 45a7 06bd 48c2 0ebd 6c8d a53c
00000280: 1ecd adba 29ad 433c adb6 fbbb fd9c ba3b
00000290: d713 0d3c 348b c93c df5f 473c 0f1f d6bc
000002a0: a9ef abbc cc39 fe3c d4c2 a2bc 82a9 0cbd
000002b0: 9148 b0bc e19f 093d c229 e7ba 4d54 e3bc
000002c0: 8d6d 0d3d 41c7 103d a4cb 0e3d 28c5 c1bc
000002d0: 8ad2 c53c 41da 8f3c 338b 7ebc e572 8dbc
000002e0: 991e 3f3a 2790 6f3c 812d c23c efcf 063d
000002f0: e346 0f3d f511 8ebc 8a4b d73c f3e2 f7bc
00000300: 0800 10bd bed1 fcbc 8c7e 49bc 2317 133d
00000310: 3bec cc3c 4db5 45bb 3d51 6abc df60 4d3c
00000320: 8715 ad3c a5c2 df3c b472 ce3c 0c9a 6ebc
00000330: b463 80bb ed74 2939 841a f93c edc3 003d
00000340: c170 f83a 2963 aa3c 6d95 913b bcc7 debc
00000350: 13f6 f7bc 265e d43a 38fb 023d b06f cb3c
00000360: 6cca c3bc 518e b4bc 8f1e 043d cd9a a1bc
00000370: a52c a6bc ea60 bcbc 1bca 0d3d 9857 bc3c
00000380: 6d45 fabc f19e b8bc 6470 de3c e95c 763b
00000390: c94a e2bc 5a74 c13c 3e1b 88bc 136d 1dbb
000003a0: 25dd 0a3d 473e 19bb 58bd b63b 69b7 de3b
000003b0: 4944 8abc 7993 8c39 905c 0f3d 3c75 dcb8
000003c0: 60ef 113d 96c0 0f3c ef5e 04bd 7e89 473b
000003d0: ef83 513c 95f5 77bc 24fd 993c e6b0 0ebd
000003e0: e5f4 0e3d 1722 c83c 076a 393c 5c6a 90bc
000003f0: 001f c23c 891f bc3c a9b2 813c a1d2 df3b
0.03089718 -0.017393624 0.013821618 0.011864074 -0.027307978 -0.021802187 -0.00837549 -0.022962945
-0.029970702 -0.027638547 -0.022022774 0.028832056 0.006109178 -0.00045007525 -0.021427223 0.013570198
0.031329855 0.030653832 -0.010869072 -0.0018579066 -0.033089653 -0.007438999 -0.0060095456 -0.006903798
-0.023509534 0.0060698176 -0.029392853 -0.010463908 0.007214311 -0.034422144 -0.0018834965 -0.0020181981
-0.016139358 -0.026580654 0.028597992 0.02506313 -0.016367951 0.021033313 0.012684455 0.0065670717
-0.021566782 0.011594146 -0.02354549 0.017141242 -0.0047306484 -0.0045484016 -0.011374351 -0.014001296
0.020583458 -0.02841156 0.035371196 0.008187798 0.014490081 -0.0041726693 0.031555556 0.02578312
-0.003465676 -0.030028246 -0.016029822 -0.0034162744 -0.0016465954 -0.025389083 0.010470499 -0.014955366
0.026045574 0.011095189 -0.025111783 0.025063595 0.025074087 -0.0068169497 -0.03453769 -0.009530529
-0.0009923986 -0.021799868 0.020485822 0.013947632 0.031544343 -0.0033116683 -0.012453986 0.022206372
-0.016576782 -0.034152213 0.0026461028 0.016327946 0.014359081 0.0039868443 0.019508237 -0.028390974
-0.017312195 0.022329861 -0.023746565 0.015243922 -0.024536723 -0.0011029962 -0.0035089513 -0.026011921
0.032564037 0.006315486 0.012303674 0.035327967 -0.03104132 0.0078720385 -0.03299468 -0.0032644712
0.024480343 -0.033877507 -0.032448936 -0.018549366 -0.009761181 0.015736174 0.01917951 0.02089115
-0.005488321 0.015680013 0.034640875 0.00024921534 0.031853132 0.018417472 -0.018300155 0.017460832
0.0056677344 -0.031744294 -0.011331913 -0.028563205 -0.020560155 0.026598644 0.004711913 -0.02709289
-0.02391523 0.022826018 0.031268105 0.03565109 -0.02338627 0.02120256 0.01213127 0.0031200137
0.03514398 0.015598557 0.033759188 -0.033525463 0.011860285 -0.035260167 -0.026436515 0.026668735
-0.033571225 -0.0024796773 0.010037814 0.020713981 0.033811286 -0.018508283 -0.02038505 0.0071172775
0.0065266555 -0.008906027 -0.0059442315 -0.0052314103 0.0004698578 -0.032874364 -0.03485325 0.020209037
-0.0013259982 0.01194314 -0.0076816888 0.005694984 0.008610687 0.02460251 0.012168854 -0.026137857
-0.020988302 0.03103342 -0.019868292 -0.034341343 -0.021518977 0.033599738 -0.0017636346 -0.027750159
0.034528304 0.035346273 0.034862176 -0.023653582 0.024148244 0.017560126 -0.015536117 -0.0172667
0.0007290631 0.014621771 0.023703339 0.032913145 0.034979712 -0.017342547 0.026281137 -0.030259585
-0.03515628 -0.030861732 -0.0122982375 0.035910737 0.025014987 -0.0030167878 -0.014301595 0.012535303
0.02112843 0.027314493 0.02520118 -0.014563095 -0.0039181355 0.00016160654 0.030408151 0.03143685
0.0018954502 0.020799236 0.004442862 -0.02719485 -0.030268705 0.0016202375 0.031977862 0.02483353
-0.023900233 -0.022040518 0.032255705 -0.019727135 -0.02028496 -0.022995431 0.03461657 0.022990987
-0.030550683 -0.022536727 0.027153201 0.0037592 -0.027623551 0.023615051 -0.016614553 -0.0024021312
0.033902306 -0.0023383067 0.0055767708 0.0067967665 -0.016878264 0.00026812757 0.035000384 -0.00010512254
0.035628676 0.008773943 -0.0323171 0.0030446942 0.012787803 -0.015134235 0.018797465 -0.034836672
0.03490152 0.024430318 0.011316783 -0.017628841 0.023696423 0.022964256 0.015832262 0.006830529

lin1.bias f4 [64]
00000000: 0dae 123d d537 f3bc 05c7 d43c 3fa3 9f3b
00000010: c16c 863b a32d 9a3c 8eaa b93b da3e c8bb
00000020: c46f 04bc 4955 efbc 2295 bebc d671 c23c
00000030: f0d0 62bb 7df0 d8bc c46f d8bc 7d5b d8bc
00000040: fc7d c63c a048 86bb 400c 9c3b dfbb e83c
00000050: 6090 b43c 4edb db3c b80c ef3c e797 5d3c
00000060: 0e98 8f39 b62d b13c bed3 06bc 734c e3bc
00000070: bb1b 103d d9ae 58bc 0042 49bb 1a02 30bc
00000080: ef00 283c 7505 bbbc 4c6c b0bc 45da ec3c
00000090: fcd9 25bc ea5d b23c 6c86 fabb e7e8 a03c
000000a0: d9b7 9d3b 2902 a5bb b611 a0bc 4695 023d
000000b0: 30e2 193c fbe7 143d 72b9 05bd b4c7 923b
000000c0: 3c70 5bbc a2a1 f1bc 0e25 82bc 5cff d1bc
000000d0: 6e20 113d e2ae dcbc 928d 0e3d 1402 49bb
000000e0: 757c 26bc 8a1b e23c 69b3 033d d2ef e4bc
000000f0: ec1d 0f3d 0d16 0fbd 82e2 fe3a f632 83bb
0.03581052 -0.029689709 0.025973806 0.0048717554 0.00410232 0.01882059 0.0056660837 -0.006111008
-0.008083288 -0.029215472 -0.023264471 0.023735922 -0.00346094 -0.026481861 -0.026420482 -0.026410813
0.024229996 -0.004098013 0.0047622025 0.028409896 0.0220415 0.026837971 0.02918087 0.013524986
0.00027388375 0.021628242 -0.008229194 -0.027746415 0.035182696 -0.013225281 -0.0030709505 -0.010742689
0.010254129 -0.02282975 -0.021536015 0.028912673 -0.010122772 0.021773297 -0.007645419 0.019642306
0.004813176 -0.005035658 -0.019539695 0.03188064 0.009392306 0.036354046 -0.032647558 0.004479373
-0.013393458 -0.029496018 -0.01588681 -0.02563446 0.035431318 -0.02693886 0.03480298 -0.0030671405
-0.010161509 0.027601022 0.03215352 -0.027946386 0.034940645 -0.03493314 0.0019446167 -0.0040038778

lin2.weight f4 [16, 64]
00000000: c5e2 d83d a863 96bc 40f4 b0bb 5be2 b0bc
00000010: 7cd7 afbd f83b f43b 820c cebc b065 8abd
00000020: 3355 f9bd d9b1 433d 7c94 84b9 eb56 eabd
00000030: 30c3 b1bd f46e ad3d 3ff3 ad3d 21d3 ddbd
00000040: 2622 c2bd 17be 86bd 21d2 c2bd 50ac 663d
00000050: b096 8d3b 150c ae3c a4e9 553d efae 8f3d
00000060: 2ed3 bf3d 8315 c8bd ecfc 55bd 8539 903d
00000070: 2791 dc3c cf89 8ebd d028 8c3c 20bc 83bc
00000080: 167b eb3c cc55 753d 23cc ebbc a689 4b3c
00000090: f6ab cdbd ba20 01bb 6589 a7bd 758d ecbd
000000a0: 8232 f5bd 940e f6bd e589 ccbc a7b7 da3c
000000b0: af36 ae3d 8376 a63d 8137 acbd 1e02 84bd
000000c0: bb68 b23c 445c 46bd a07c 41bc ee87 9bbc
000000d0: 4ee1 793d f90f efbc f8f9 d13d f7d1 b6bd
000000e0: cc4a fdbd 7dbe aa3d 4520 50bd a250 d5bd
000000f0: 9b92 e3bd 315d cfbd 4b67 5fbd e7c9 723d
00000100: 0ddd 73bd ca02 403a c18e abbb 109a 0b3d
00000110: 4e2c e3bd 32ac f23b 6a9b d03d f1c3 c43d
00000120: 6cc1 02bd 15ff 903d 5f6d bb3c 17e6 81bd
00000130: edb2 4a3d aed0 a5bd d54c fe3d f273 b93d
00000140: a333 dfbd 1486 bbbd 3785 313c 4d01 2d3d
00000150: c792 87bd f1f9 003e 9954 a63d 9cd6 49bd
00000160: fded fc3d 418b ddbd 76e2 ddbd f00a a93d
00000170: 2d6d 7abc 8694 0abc d9f9 623d 7602 bc3b
00000180: a485 9c3b 4bc9 003d 6362 313b 4e5d ad3c
00000190: 2174 d63c fdff 443d 8f6a fbbd 59d1 a03d
000001a0: 69b0 d73d dd8f c13d 1869 883d 45e0 c13d
000001b0: 9769 7b3d 2a03 0f3d 0251 443d 0148 f4bd
000001c0: c570 c9bc 608e 3abd 3251 cdbd cafa 21bc
000001d0: 5894 b13d fdf4 8fba 9eec 323d 4c20 ab3c
000001e0: 2c8e 03bd 81c2 ddbb 9520 b6bd d61b 8bbd
000001f0: ce87 1fbd 99fc 303d 6f29 b13d 8861 523b
00000200: f974 a53d 126a 25bc 79cb 98bd dc7a d6bd
00000210: d724 a73c 0b61 87bd 3237 843d 529b 38bd
00000220: 6f9c a5bd cb85 8abd 467d 013d cc53 093d
00000230: 812c dabd a2b0 75bd 7dfc b7bd 84fe db3d
00000240: 6bb3 20bc edf6 ebbc b853 553d 4e22 de3c
00000250: f02f 9dbd 5ed4 b23c 9a20 eebc 6c21 65bd
00000260: 0db3 b9bb dc8b e83d 864d c43d 26a2 fa3d
00000270: 38af 75bd f623 aa3d a8a2 9dbd f3f0 a73d
00000280: c9fb 6dbc c538 843d fb3a 4e3d b418 3cbc
00000290: e284 c23d 914c ae3d b492 d5bc dbe7 0e3d
000002a0: a4f2 be3d 85a6 abbd 7f70 a73c 32af cebd
000002b0: cc50 c43d 3ea6 31bb 56c3 ec3d 0e27 323c
000002c0: 203e 7b3d 9d15 73bd 4eff abbc 62c3 b7bd
000002d0: 8564 f4bd a9c9 fdbd 1a62 4f3d 55d4 d4bd
000002e0: dd83 a13c a253 e3bd e42d b83c 87e2 28bc
000002f0: f89d 993c e768 b83d 4fae 363d c06f d5bd
00000300: 4441 3e3d 9d84 e23d 64d1 f03c 51cc eb3d
00000310: c1f7 63bd 3b58 393d e50e 943d 323c dfbd
00000320: 2bed febd 5a5c a6bc e46d f33d 9bd0 f93d
00000330: a8f7 18bd 6942 653d 09d5 383d bd24 e13d
00000340: 7133 d43c d113 66bd 49d9 593d 54a5 963d
00000350: a2af e8bd fba1 8a3d eba1 903d 096e dabd
00000360: c1b4 283d 612a 763c 7d5c f03d ab6c a4bd
00000370: e5e6 793d e7fe f9bd 113f ddbd 2eb5 af3d
00000380: 9b09 dabd 98ca 823d 6d30 93bd 00b6 813d
00000390: 27ca dfbd aad8 b6bd 5368 903c 5b53 f63c
000003a0: 403b 9b3d c142 3ebd 4205 82bd dc3e c5ba
000003b0: b5a0 9c3d 8830 ecbd f0f1 8b3c 1406 f9bd
000003c0: e424 3f3c 9a09 993d c10e 9d3d c716 19bd
000003d0: 07a4 ef3d 4cd8 1fbc 5631 5fbb 09fb d2bd
000003e0: 5e4d b03d bf3c bebc f2bc a9bd 6a79 37bd
000003f0: a6b7 5bbd e18e 3b3d 5fdf e53d 7d55 8c3d
0.10590128 -0.018358067 -0.0054002106 -0.02159231 -0.08586022 0.007453438 -0.025152449 -0.067576766
-0.121744536 0.04777703 -0.0002528763 -0.114423595 -0.08679807 0.08468428 0.08493661 -0.10831285
-0.094791695 -0.065792255 -0.09512735 0.056316674 0.004320942 0.021245996 0.05222477 0.07015788
0.09366451 -0.09769728 -0.05224316 0.07042221 0.026924683 -0.06959879 0.017109305 -0.016080916
0.028745215 0.059896275 -0.028783863 0.012422955 -0.100425646 -0.0019703344 -0.08180503 -0.11550418
-0.11972524 -0.12014499 -0.024968097 0.0266989 0.08506524 0.08128073 -0.08409024 -0.06445716
0.021778455 -0.048427835 -0.011809498 -0.018985715 0.061005883 -0.029182421 0.10252756 -0.08926766
-0.12367782 0.08337114 -0.050812025 -0.1041577 -0.11111947 -0.10125197 -0.054541867 0.05927458
-0.059536982 0.00073246344 -0.0052355235 0.034082472 -0.11092435 0.007405781 0.10185893 0.09607685
-0.031922743 0.07079903 0.0228793 -0.06342714 0.049487043 -0.08096443 0.12416998 0.09055318
-0.10898521 -0.09156433 0.010834984 0.04223757 -0.066197924 0.12595345 0.081216045 -0.049276933
0.1235008 -0.10817576 -0.108342096 0.08254039 -0.015284819 -0.008458262 0.055414055 0.005737598
0.0047766734 0.031441968 0.00270667 0.021162655 0.026178421 0.048095692 -0.12276184 0.0785243
0.105316944 0.09451268 0.0666067 0.09466604 0.061379995 0.034915127 0.047928818 -0.11927796
-0.024589906 -0.045545936 -0.100252524 -0.009886453 0.086708724 -0.0010983046 0.043682687 0.020889424
-0.032118008 -0.0067675714 -0.08892933 -0.06792419 -0.038947873 0.043209646 0.08650481 0.003210159
0.080789514 -0.01009609 -0.07460684 -0.10472652 0.020403309 -0.06610306 0.0645584 -0.04507
-0.08086478 -0.067638 0.03161361 0.03352718 -0.1065302 -0.059982903 -0.08983705 0.107419044
-0.009808402 -0.028804267 0.052081794 0.027115967 -0.07675159 0.02182978 -0.02906828 -0.055940077
-0.0056670965 0.11354801 0.09585099 0.122379586 -0.059981555 0.0830764 -0.0769704 0.08200254
-0.014525362 0.064561404 0.050349217 -0.011480499 0.09498002 0.08510698 -0.02607093 0.034889083
0.09323624 -0.083813705 0.020439385 -0.100920096 0.09585723 -0.0027107145 0.11560695 0.010873569
0.061338544 -0.059346784 -0.020995762 -0.08972813 -0.11933235 -0.12391979 0.050630666 -0.103920616
0.019716198 -0.11099936 0.02248282 -0.010307915 0.018752083 0.090043835 0.044599827 -0.10421705
0.04644896 0.1106045 0.02939672 0.1151358 -0.0556562 0.04525016 0.072294034 -0.10900153
-0.1244758 -0.020307709 0.11886194 0.121979915 -0.03734556 0.055971537 0.04512504 0.109933354
0.025903435 -0.056171242 0.053185735 0.073557526 -0.11361624 0.067691766 0.070621334 -0.10665519
0.041188005 0.015024752 0.11736391 -0.08028539 0.061011214 -0.12206822 -0.108030446 0.08579479
-0.10646363 0.06386298 -0.07186971 0.06333542 -0.109272294 -0.08928044 0.01762787 0.030069044
0.075796604 -0.04645038 -0.06348659 -0.0015048641 0.0764784 -0.11532694 0.017083138 -0.121593624
0.01166651 0.074725345 0.0766883 -0.037375238 0.117012076 -0.009756159 -0.0034056506 -0.103017874
0.086085066 -0.023222325 -0.082879916 -0.044793524 -0.053641938 0.045790557 0.11224245 0.06852243

lin2.bias f4 [16]
00000000: 4f48 a53d 8364 b63d 3e2e cebc 8b73 b73d
00000010: 0a09 c7bd b12e 673d 50a1 d7bd 4fe2 be3d
00000020: 9e74 c9ba ed1f e3bd faad e73d 3da7 5bbd
00000030: 22fa afbc 3101 033e 87b0 3bbd 4194 d53d
0.080704324 0.0890589 -0.025168534 0.08957585 -0.09718521 0.056441013 -0.10528815 0.09320509
-0.0015369838 -0.11090074 0.1131248 -0.053626288 -0.021481577 0.12793423 -0.045822646 0.10428668

lin3.weight f4 [3, 16]
00000000: 9548 083e 2887 7ebe a4e0 b43d d9ce e73d
00000010: 0fee 5ebe 06ac d3bc b2c9 783e 2818 0cbe
00000020: 611a 7a3e 6836 cbbc 13c2 e83d 09dd cc3c
00000030: d11b 50bc bbb2 843d 1541 533e 3fff 5c3e
00000040: d08f c13d f13c cbbd a094 ccbd 0c97 d03d
00000050: cdda 38be 97c0 0ebd cdc7 17be 6117 16be
00000060: d2a4 803d 6af0 3f3e f130 47be aaf7 3cbe
00000070: 3a76 713d 32a1 863e 64fd 48be dbc9 473d
00000080: 0e25 563e d989 fd3d 87a3 4c3e 64de 193d
00000090: 6a53 633e 09a0 333d 17df 1ebe 2f8f 083d
000000a0: 0b73 b0bd 364e 21bd 16cf b5bc f661 23be
000000b0: 5876 15be 08d8 703e ca5c 5f3e a19d 543e
0.13308938 -0.24856246 0.08831909 0.1131875 -0.217705 -0.025838863 0.2429569 -0.1368109
0.24424125 -0.024806216 0.11365142 0.025007742 -0.012701944 0.06479403 0.20630296 0.21581744
0.09451258 -0.09923733 -0.099892855 0.1018506 -0.18052216 -0.034851637 -0.14822312 -0.14657356
0.06281437 0.18744054 -0.19452263 -0.18453851 0.05895064 0.26294857 -0.19627911 0.04877649
0.20912573 0.12379808 0.19984256 0.037565604 0.22199789 0.043853793 -0.1551479 0.033339676
-0.08615693 -0.03938123 -0.022193473 -0.15955338 -0.14595926 0.2351991 0.2181274 0.20763256

lin3.bias f4 [3]
00000000: 8a27 143e 30f1 0b3e e175 54be
0.14468208 0.13666224 -0.20748092
